legged_gym/logs/tron1/Mar26_09-33-42_track_3.0_feet_contact_force_-0.0035_stand_still_-1.5_base_height+0.1_feet_regulation_-0.15_track_contacts/model_1800.pt (torch, 376290 bytes, 48 tensors)

std f4 [8]
0	0x3f055151	0.52077204
1	0x3ed9cdbc	0.42539775
2	0x3f02f7b1	0.511592
3	0x3ec1fbec	0.37887514
4	0x3f04a4df	0.51814073
5	0x3edd6d93	0.4324766
6	0x3f0592f7	0.52177376
7	0x3ece8f34	0.4034363

actor.0.weight f4 [128, 33]
0	0xbee02584	-0.43778622
1	0x3f64e36c	0.8940952
2	0x3e430357	0.19044243
3	0x3f2e2276	0.68021333
4	0x3c7e083c	0.015504893
5	0x3f0e4d7f	0.55587
6	0xbe94a617	-0.29032966
7	0xbed569ed	-0.41682377
8	0x3f06185b	0.52380913
9	0x3ef02574	0.46903574
10	0xbf018c4f	-0.5060472
11	0xbf37e990	-0.71840763
12	0xbefdb856	-0.495547
13	0x3e89bab3	0.26900253
14	0xbf4d23b6	-0.80132616
15	0x3f249438	0.64288664
16	0xbf185f2c	-0.5952022
17	0x3d7adbe0	0.061244845
18	0x3ec809fd	0.3907012
19	0xbf6d6b22	-0.92741597
20	0xbf03afb1	-0.5143996
21	0x3e1dc5ff	0.15407561
22	0x3c8f3669	0.017482
23	0x3e126944	0.14297968
24	0xbd85d5ef	-0.06534945
25	0x3e52895f	0.20560215
26	0xbc378799	-0.011201763
27	0xbde23c9b	-0.11046716
28	0xbc9d4d29	-0.019201832
29	0xbd9326fb	-0.07185169
30	0x3eb622fc	0.35573566
31	0xbe1770fa	-0.14789191
32	0xbd9ba119	-0.07599086
33	0xbd93d6c8	-0.07218701
34	0xbf799f2d	-0.9750851
35	0xbe21c3c1	-0.1579733
36	0xbec8a9ae	-0.39191955
37	0x3f99ad4e	1.2006013
38	0x3e94559a	0.2897156
39	0xbfab4820	-1.3381386
40	0xbec32862	-0.38116747
41	0xbe5e348e	-0.21699736
42	0xbef97169	-0.48719338
43	0x3f0947e7	0.5362534
44	0x3d0c99a2	0.034326203
45	0x3ea3112b	0.31849036
46	0x3e179f04	0.14806753
47	0xbea3ebba	-0.32015783
48	0xbfaaea94	-1.3352838
49	0x3f0942b3	0.536174
50	0x3de7efbd	0.11325023
51	0x3db89217	0.090122394
52	0xbe0a79ba	-0.13522997
53	0xbdfb6fb0	-0.12277162
54	0x3cbf16a2	0.023326222
55	0x3ddeed39	0.108850904
56	0xbbfa630f	-0.0076412032
57	0xbc91e4c7	-0.017809285
58	0x3e3d3d3d	0.18480392
59	0xbdf6fcea	-0.12059958
60	0xbd1cba21	-0.038263444
61	0x3df6ac48	0.12044579
62	0x3dc26c88	0.09493357
63	0xbcf61aee	-0.030042138
64	0x3eae8084	0.34082425
65	0xbda878d2	-0.0822617
66	0xbdec2f1e	-0.115324244
67	0xbeb51ff9	-0.35375956
68	0xbc3ffc1a	-0.011717821
69	0xbf37fa3b	-0.71866196
70	0x3de54036	0.11193888
71	0xbe7c9fd6	-0.24670348
72	0xbfb78310	-1.4336872
73	0xbee0e984	-0.43928158
74	0x3e93336a	0.28750163
75	0x3ddf59d8	0.10905808
76	0x3f683015	0.9069837
77	0x3f1f52bd	0.62235624
78	0x3ea5b396	0.32363576
79	0xbeeae6db	-0.45879254
80	0xbe970e45	-0.29503074
81	0xbf268245	-0.65042526
82	0x3e34878d	0.17629834
83	0x3e827df5	0.25486723
84	0x39eea52d	0.00045517963
85	0x3d774f77	0.060378518
86	0xbdab9c05	-0.08379368
87	0x3de69981	0.11259747
88	0xbe07169e	-0.13192222
89	0x3d11aebf	0.03556704
90	0x3c9e13af	0.019296495
91	0xbc878b03	-0.016545778
92	0xbbc209fc	-0.0059216004
93	0x3d32a445	0.04361369
94	0xbd4eefee	-0.050521784
95	0x3db3a91c	0.087724894
96	0x3ca3ede1	0.02001089
97	0xbea7e5b2	-0.3279243
98	0xbedca39a	-0.43093568
99	0xbf06a8ef	-0.5260152
100	0x3e12a8e8	0.14322245
101	0xbe5ce94e	-0.21573374
102	0x3c8919c3	0.016735917
103	0x3f5bf318	0.85917807
104	0xbdd97711	-0.10618413
105	0xbfb22a68	-1.3919191
106	0xbf0b791b	-0.5448167
107	0x3e0f3bad	0.13987608
108	0x3f01caff	0.5070037
109	0x3f4f8a5a	0.8107048
110	0xbf353ce9	-0.70796067
111	0x3eb7e9da	0.35920602
112	0xbe13c5d5	-0.14430936
113	0xbf3f9747	-0.74840206
114	0x3f36a3e0	0.71343803
115	0xbe61414f	-0.2199757
116	0xbdb44b7f	-0.08803462
117	0xbd8f4f07	-0.06997495
118	0x3e963ff4	0.29345667
119	0x3d85e750	0.0653826
120	0xbdbef46d	-0.09323964
121	0x3daa317c	0.0831022
122	0xbc0f2d2d	-0.008738798
123	0x3da34ac7	0.07973247
124	0xbe51f3cb	-0.20503156
125	0xbd149bc2	-0.036281355
126	0xbd0f810f	-0.03503519
127	0xbe20ba49	-0.15696062
128	0xbddf3a7b	-0.10899826
129	0x3e8ec0f1	0.27881578
130	0xbdd1d385	-0.10245422
131	0xbdc60be6	-0.09670238
132	0xbf1466d5	-0.5796941
133	0x3ed9777e	0.42473978
134	0x3dbbc024	0.09167507
135	0x3fbffa31	1.4998227
136	0x3d68d4b4	0.056843475
137	0x3f1f98a8	0.6234231
138	0x3e017dac	0.12645596
139	0xbdd0ace0	-0.10189223
140	0x3e165431	0.14680554
141	0x3e9f07b5	0.31060567
142	0x3e345ddd	0.17613931
143	0xbf50ab67	-0.8151154
144	0x3f188bd3	0.59588355
145	0xbdbff7e6	-0.09373455
146	0xbfa63da8	-1.2987566
147	0x3f36edcd	0.71456605
148	0xbf16fa48	-0.5897565
149	0xbeafca02	-0.34333807
150	0xbd081dbf	-0.033231493
151	0xbdd9b6f8	-0.10630602
152	0x3e5c2ad3	0.21500711
153	0xbda19c5a	-0.0789115
154	0xbd01c0c1	-0.031677965
155	0x3dd34d10	0.10317433
156	0xbd43f365	-0.04783954
157	0xbe18139e	-0.14851233
158	0x3d0313ac	0.032001182
159	0x3d62a5be	0.055333845
160	0xbe447149	-0.1918384
161	0xbe70d2eb	-0.23517959
162	0x3e82f3e8	0.2557671
163	0x3dc98aa5	0.098408975
164	0x3f09ba68	0.5380006
165	0x3afc625b	0.0019255386
166	0xbdba9d6b	-0.09112056
167	0xbe0f2074	-0.13977224
168	0xbee58d40	-0.44834328
169	0x3ecea095	0.4035689
170	0x3ebbd947	0.36689207
171	0x3f195256	0.5989126
172	0xbea3c1c0	-0.31983757
173	0xbe97cdf0	-0.29649305
174	0xbef2afd3	-0.47399768
175	0xbf2333fb	-0.6375119
176	0x3f2ef0dc	0.6833627
177	0xbf818c4d	-1.0120941
178	0x3e94db4b	0.29073557
179	0x3f88e8b2	1.0696013
180	0xbf35f20a	-0.7107245
181	0x3f2a1aed	0.66447335
182	0xbeb00bd0	-0.34384012
183	0xbf29c33d	-0.66313535
184	0x3b77c07f	0.0037803946
185	0x3f0f2904	0.5592196
186	0xbe0a31e0	-0.13495588
187	0xbdb58175	-0.088625826
188	0xbe1e5f54	-0.15466052
189	0xbce74dfd	-0.02823543
190	0x3e270591	0.16310717
191	0x3bed0508	0.007233266
192	0xbe034cdb	-0.12822287
193	0xbcd5ce8a	-0.026099462
194	0x3d8b3819	0.06797809
195	0xbd2b390b	-0.041802447
196	0x3e2f3d2a	0.17113176
197	0x3ef3a149	0.47583988
198	0xbe99c9ef	-0.30036876
199	0x3cd3b981	0.025845291
200	0xbbf2bf28	-0.0074080415
201	0xbfa6ca83	-1.3030552
202	0xbe57c31f	-0.21070527
203	0x3e5ea230	0.21741557
204	0x3f10fa35	0.56631786
205	0xbf8d8633	-1.1056579
206	0x3f642e01	0.89132696
207	0xbd6081b1	-0.054811183
208	0xbf1ddc0c	-0.6166389
209	0x3e70860c	0.23488635
210	0x3e809642	0.25114638
211	0x3e35ad44	0.17741877
212	0x3f1e02df	0.6172313
213	0xbeadb186	-0.33924502
214	0xbe4042d0	-0.18775487
215	0x3da55cb8	0.08074325
216	0xbf3f4a02	-0.747223
217	0x3eb279d3	0.3485857
218	0xbf6a790b	-0.91590947
219	0xbe73ef55	-0.23821767
220	0x3ccfe974	0.025379874
221	0x3c9b1508	0.018930927
222	0x3c84b77f	0.016200779
223	0xbded2bae	-0.11580597
224	0xbd65042f	-0.055912193
225	0x3d0b56e4	0.034018412
226	0xbd201ef3	-0.039092015
227	0x3d3e380e	0.046440177
228	0x3d33889f	0.043831464
229	0xbe11a62c	-0.14223546
230	0xbc157b2a	-0.009123603
231	0xbea25ca2	-0.31711298
232	0x3d4e8c9d	0.050427068
233	0x3e32bd95	0.17455132
234	0x3ea2b478	0.31778312
235	0x3f8b1233	1.0864929
236	0x3da7fcc4	0.08202508
237	0xbf89ba50	-1.0759983
238	0xbeeae6a3	-0.45879087
239	0x3e2ebce9	0.17064251
240	0xbe1ff8a6	-0.15622196
241	0xbe6ace5b	-0.22930281
242	0xbfb7967b	-1.4342798
243	0x3f688861	0.908331
244	0xbf9787f8	-1.1838369
245	0xbc61acc0	-0.013774097
246	0xbdeeb8a5	-0.11656312
247	0xbe942798	-0.28936458
248	0xbcbf508a	-0.023353834
249	0xbe8b292a	-0.27179843
250	0x3ce59236	0.02802382
251	0x3e49a112	0.1969035
252	0xbd4dcf20	-0.050246358
253	0xbd27ebce	-0.040996365
254	0xbc9e1310	-0.0192962
255	0xbc0327b3	-0.0080050705

actor.0.bias f4 [128]
0	0xbdfcf3a2	-0.12351157
1	0x3db12068	0.08648759
2	0x3e13385f	0.14376973
3	0x3cc8b48a	0.02450015
4	0x3e040a51	0.1289456
5	0xbe2d5cc1	-0.16929914
6	0xbd4e1ef5	-0.05032249
7	0x3dd3bbf7	0.10338586
8	0xbdfb12cb	-0.12259444
9	0x3cc0bf48	0.02352871
10	0x3c167eb1	0.009185479
11	0x3e299b15	0.16563065
12	0xbe0cc645	-0.13747509
13	0x3e01e557	0.12685142
14	0x3c8b0449	0.016969817
15	0xbe17bf67	-0.14819108
16	0xbd95dfc5	-0.07318071
17	0xbd5666db	-0.052344184
18	0xbe55ec7e	-0.20890996
19	0x3defa8de	0.11702131
20	0x3c952eb9	0.018210756
21	0x3cf6548e	0.030069616
22	0x3dd4f158	0.10397595
23	0x3dd55392	0.104163304
24	0xbe45e16d	-0.19324274
25	0xbd97c0a3	-0.074097894
26	0xbded741e	-0.11594413
27	0xbe37eb33	-0.17960815
28	0x3beb3674	0.007178122
29	0x3d2aa70e	0.041663222
30	0x3e37482c	0.17898625
31	0x3e56123e	0.20905396
32	0xbe4d3017	-0.20037876
33	0x3dd0a7cf	0.10188257
34	0xbd53e7f2	-0.051734872
35	0xbd0228a4	-0.03177704
36	0x3dad5409	0.08463294
37	0xbcce1f74	-0.025161482
38	0xbce9ed0d	-0.028555417
39	0x3dccb662	0.09995724
40	0x3e7bb022	0.24578908
41	0xbe37a0a6	-0.17932376
42	0xbd99733f	-0.074926846
43	0xbda31582	-0.07963087
44	0x3e5c49c5	0.21512516
45	0x3d2a6801	0.041603092
46	0x3a0a0b62	0.00052659784
47	0x3e43c52e	0.19118187
48	0x3e6d2511	0.23158671
49	0xbcf7cb21	-0.030248227
50	0x3c3687f6	0.011140814
51	0x3db9f9b1	0.09080828
52	0x3c80bf53	0.01571623
53	0x3e5c2ce1	0.21501495
54	0xbd755867	-0.05989876
55	0xbe1a802c	-0.15087956
56	0xbd854f11	-0.06509221
57	0xbe2a3cd3	-0.16624765
58	0xbd0fa864	-0.0350727
59	0xbe1aea8f	-0.1512854
60	0xbd461aad	-0.048365284
61	0x3db71111	0.08938802
62	0xbe791c9e	-0.24327323
63	0xbcc0d0b6	-0.023537021
64	0xbd9c4c37	-0.07631724
65	0x3d9d7f11	0.076902516
66	0x3d97723b	0.073948346
67	0xbd3bc8dd	-0.045845855
68	0x3e3837a4	0.17989975
69	0x3c05cda9	0.008166709
70	0x3d1d2830	0.038368404
71	0xbe7c9035	-0.24664386
72	0x3d4c4383	0.04986907
73	0xbe830d55	-0.2559611
74	0xbce82bcf	-0.028341202
75	0xbea7d8bd	-0.32782546
76	0x3c26313d	0.010143575
77	0x3d94eaa1	0.072713144
78	0xbe1a57c4	-0.15072542
79	0xbe47bcec	-0.19505662
80	0xbc88fdd4	-0.016722597
81	0x3dc0a158	0.09405774
82	0x3d5b520d	0.053545047
83	0xbdfd61e5	-0.123721875
84	0xbe1379c2	-0.14401916
85	0x3d6855da	0.0567225
86	0xbd614106	-0.05499365
87	0xbe5a223d	-0.21302123
88	0xbdbcfbdb	-0.09227725
89	0xbe1819f7	-0.14853655
90	0xbd9c144a	-0.07621057
91	0x3e51307a	0.20428649
92	0xbbe296da	-0.0069149556
93	0xbde7ae73	-0.113125704
94	0x3e01a638	0.12661064
95	0x3d4b53df	0.049640533
96	0x3e0e09f1	0.1387098
97	0xbd848bc1	-0.064719684
98	0xbe295393	-0.16535787
99	0xbd80c2ab	-0.0628713
100	0x3d867f90	0.06567299
101	0x3ca3e818	0.020008132
102	0xbe3113d3	-0.17292719
103	0xbd979df5	-0.07403175
104	0x3e2f6cec	0.17131394
105	0x3e256cbb	0.16154759
106	0xbd13f03c	-0.036117777
107	0x3c9ad146	0.018898617
108	0x3d19d2b2	0.03755445
109	0xbb8071fe	-0.003919839
110	0xbe1faf5e	-0.15594241
111	0xbcef5144	-0.029213555
112	0xbe409ad3	-0.18809061
113	0xbd9912c9	-0.07474286
114	0x3d40b6d6	0.047049366
115	0x3e3d5385	0.18488891
116	0xbe4881ce	-0.19580767
117	0xbd5ddbc6	-0.05416467
118	0xbe6e42bc	-0.23267645
119	0xbd06d43f	-0.032917257
120	0x3bcaf908	0.0061942376
121	0x3cad4e86	0.021155607
122	0xbe57f248	-0.21088517
123	0xbdd6354d	-0.10459385
124	0xbd875d57	-0.066096
125	0x3da881d8	0.08227891
126	0x3de89556	0.113566086
127	0x3d4f7880	0.050652027

actor.2.weight f4 [64, 128]
0	0x3e17002e	0.14746162
1	0x3e1538ed	0.14572497
2	0x3ecc8055	0.3994166
3	0x3e3f145f	0.18660115
4	0x3d57a180	0.052644253
5	0xbd7bc558	-0.0614675
6	0xbeff6e47	-0.49888822
7	0x3e6241c8	0.22095406
8	0x3b9c7817	0.004775058
9	0xbd8e3f11	-0.06945623
10	0xbc9b846c	-0.018984042
11	0xbe3ca135	-0.1842087
12	0xbd2b0efb	-0.041762333
13	0x3e4f9cf3	0.20274715
14	0x3df60521	0.12012697
15	0x3da2c51d	0.079477526
16	0x3db65e73	0.089047335
17	0x3f016836	0.5054964
18	0xbc409775	-0.01175486
19	0x3d843e3c	0.06457183
20	0xbdd4bcd6	-0.1038758
21	0x3e9444c3	0.2895871
22	0xbc97f458	-0.01854913
23	0xbcb2bb9e	-0.021817978
24	0xbd16a34d	-0.03677683
25	0x3e5969c9	0.2123176
26	0xbea9fdbd	-0.332014
27	0x3e2b7555	0.16743977
28	0xbdcae06e	-0.09906088
29	0x3cdf413b	0.027252784
30	0x3ac47e12	0.0014991185
31	0x3f70f91e	0.9413012
32	0xbd1a8341	-0.03772283
33	0xbee641ff	-0.44972226
34	0x3e3194d2	0.17341927
35	0x3e8510a6	0.25989264
36	0xbb95031d	-0.0045474903
37	0x3e9e849f	0.30960557
38	0x3df77a21	0.12083841
39	0xbe14cd57	-0.14531456
40	0x3f2a7d96	0.6659788
41	0xbe36d17d	-0.17853351
42	0x3e4124bd	0.18861671
43	0x3e8bd362	0.2730971
44	0x3ec41821	0.3829966
45	0xbda2b91a	-0.079454616
46	0x3e97f27b	0.29677185
47	0xbe8072e4	-0.25087655
48	0x3ed9f813	0.42572078
49	0x3e8fda53	0.28096256
50	0x3e939858	0.28827167
51	0x3d86a76b	0.06574901
52	0xbdb81c5e	-0.089897856
53	0x3a25326b	0.00063017634
54	0xbdc1fb65	-0.09471778
55	0x3c03ccd5	0.008044441
56	0xbbc96148	-0.00614563
57	0x3ddfeae3	0.10933473
58	0xbe1ff6eb	-0.15621535
59	0xbbd11664	-0.006380843
60	0x3ba0438b	0.0048908642
61	0xbebda3c3	-0.37039003
62	0xbe42a9f7	-0.19010149
63	0xbb01deeb	-0.0019816707
64	0x3e61a6fd	0.22036357
65	0x3e8f3d60	0.27976513
66	0xbdf0e65e	-0.11762689
67	0x3e0d69e6	0.13809928
68	0x3ed45c38	0.41476607
69	0xbde6bf2e	-0.112669334
70	0xbeb636be	-0.3558864
71	0x3cb639fb	0.022244444
72	0xbde4ee29	-0.11178238
73	0x3e9e7e88	0.3095591
74	0xbe23bd97	-0.15990292
75	0xbe09dc6b	-0.13462989
76	0xbea942a0	-0.33058643
77	0x3dd112d3	0.102086686
78	0x3bb5a64b	0.0055435053
79	0x3d216d50	0.03941089
80	0xbd5d6968	-0.0540556
81	0xbd4a2f8a	-0.049361743
82	0x3e92d6b9	0.28679445
83	0x3e6897f5	0.22714217
84	0xbe393f7e	-0.18090627
85	0xbd7e8bbf	-0.06214499
86	0xbd00b769	-0.031424914
87	0xbe2d1c06	-0.16905221
88	0x3dd639cf	0.10460245
89	0x3dfdcd82	0.12392713
90	0xbec7a2e7	-0.38991472
91	0xbd60bd51	-0.054868046
92	0x3dc0b5e7	0.09409695
93	0x3ec89ed7	0.39183685
94	0x3d4287f1	0.047492925
95	0x3d96109a	0.07327385
96	0x3e6880f1	0.22705437
97	0xbe3ebc87	-0.18626605
98	0x3d74ad12	0.059735365
99	0x3d8d6ec6	0.06905894
100	0x3e020008	0.12695324
101	0x3ebec0a7	0.37256357
102	0xbe87e86c	-0.2654451
103	0xbe979c4e	-0.2961144
104	0xbd676e02	-0.056501396
105	0x3e8d479c	0.27593696
106	0xbd014da6	-0.031568192
107	0x3bf57d85	0.0074917697
108	0xbc65ccbf	-0.014025866
109	0xbe94919f	-0.2901735
110	0xbd8ba359	-0.068182655
111	0xbe129b18	-0.14316976
112	0x3cd2aacd	0.02571621
113	0x3d2868b6	0.041115485
114	0x3e5ba8ef	0.21451162
115	0xbd321fb7	-0.043487277
116	0xbef011ff	-0.4688873
117	0xbb88efb1	-0.004178964
118	0x3de53faa	0.111937836
119	0xbed013fb	-0.40640244
120	0xbd56c4e7	-0.052433874
121	0x3dc6a145	0.096987285
122	0x3d46bb9a	0.048518755
123	0xbe402909	-0.18765654
124	0xbd2382f6	-0.039919816
125	0x3d956967	0.072954945
126	0x3d6117d4	0.054954365
127	0xbec14fd5	-0.3775622
128	0x3e0d7c63	0.13816981
129	0xbe5cdcfd	-0.21568675
130	0x3d0218fc	0.03176211
131	0x3e641c52	0.22276428
132	0x3e8cb1ae	0.2747931
133	0xbc8fefc4	-0.017570384
134	0x3dacf940	0.08445978
135	0x3e39f749	0.18160738
136	0xbca73fa8	-0.020416096
137	0x3eac6cc2	0.33676726
138	0x3c5e89c8	0.013582654
139	0xbf0ec64a	-0.55771315
140	0x3dba0905	0.090837516
141	0xbf43ded6	-0.76511896
142	0xbb11c22e	-0.0022240984
143	0x3e17dda0	0.14830637
144	0xbd5760ad	-0.05258243
145	0xbebce501	-0.36893466
146	0x3dd5a0db	0.10431071
147	0xbe106f52	-0.14104965
148	0xbc73e0b3	-0.014885115
149	0xbec94b3d	-0.39315215
150	0xba560464	-0.00081641064
151	0xbe28386f	-0.16427778
152	0x3e56417e	0.20923421
153	0xbe965b01	-0.29366305
154	0x3db34442	0.087532535
155	0x3e656e70	0.2240541
156	0xbe6ecbde	-0.23319957
157	0xbec5f1df	-0.38661095
158	0xbdda5cce	-0.10662232
159	0xbe7450ee	-0.23858997
160	0x3c0a74e6	0.008450722
161	0xbed23330	-0.41054678
162	0x3d5796e1	0.052634124
163	0x3edce170	0.43140745
164	0x3e90546e	0.28189415
165	0x3e0f3fec	0.13989228
166	0xbe788c0a	-0.2427217
167	0xbe05f4bd	-0.13081641
168	0x3ec51352	0.38491303
169	0xbe3dec09	-0.18547072
170	0x3eebcc3d	0.4605426
171	0xbf140041	-0.5781289
172	0xbe6e6c69	-0.23283543
173	0x3bed2da0	0.007238105
174	0x3e897f96	0.26855153
175	0x3dfa706b	0.12228473
176	0xba60c281	-0.0008573905
177	0xbeba91d7	-0.36439392
178	0xbdc65e69	-0.09685976
179	0xbe04be56	-0.12963232
180	0xbf418124	-0.7558768
181	0xbf4ffe73	-0.81247634
182	0xbe804e1c	-0.25059593
183	0xbe43475f	-0.19070195
184	0x3cd8b15e	0.026451763
185	0x3f2fef54	0.6872456
186	0x3e82a0bd	0.2551326
187	0xbdf97ae3	-0.12181642
188	0x3ead0605	0.33793655
189	0x3e2ff7cd	0.17184372
190	0x3ed4d3e9	0.41567925
191	0x3eb3eab9	0.35140017
192	0xbe7b713e	-0.24554917
193	0x3c80384e	0.015651848
194	0x3f29a47a	0.66266596
195	0xbef262cb	-0.47340998
196	0x3f295eeb	0.6616046
197	0xbe8fdd8e	-0.2809872
198	0xbd7d126a	-0.06178514
199	0xbe884f2c	-0.26622903
200	0xbf1a6545	-0.60310775
201	0xbd3b44d3	-0.045719933
202	0x3eaed1b1	0.34144357
203	0x3d9abcbf	0.07555532
204	0xbdcecb26	-0.10097341
205	0xbdbb0275	-0.09131328
206	0x3e4deaf3	0.20109157
207	0xbdfc827e	-0.12329577
208	0x3d9c3bc5	0.07628588
209	0xbe0dc1d1	-0.13843466
210	0x3e1fc0a8	0.15600836
211	0x3d29d610	0.04146391
212	0x3e329d5c	0.1744284
213	0x3f1fc6d6	0.62412775
214	0xbdd6811c	-0.104738444
215	0xbf37f3ec	-0.7185657
216	0xbb1c0064	-0.0023803944
217	0x3e80be60	0.25145245
218	0xbd621731	-0.0551979
219	0xbdd56e15	-0.10421387
220	0x3ec9b6ab	0.39397177
221	0x3da80b80	0.082053185
222	0xbe37109e	-0.17877433
223	0xbd19a48c	-0.03751044
224	0xbdc33eaa	-0.095334366
225	0x3d907663	0.070538305
226	0x3e8e8a5d	0.27839938
227	0x3ee47d8c	0.44627035
228	0xbe08aebc	-0.13347906
229	0x3e1e8bdf	0.15483044
230	0x3e8f7831	0.28021386
231	0xbe293dd7	-0.16527496
232	0xbe785725	-0.24251993
233	0x3ea1c30f	0.3159413
234	0x3d81cdcb	0.0633808
235	0x3ea4b46b	0.32168898
236	0xbda76fca	-0.08175619
237	0xbe273ff5	-0.16332991
238	0x3defc216	0.11706941
239	0xbf0291b3	-0.5100357
240	0xbe2ed842	-0.17074683
241	0xbe25ea52	-0.16202667
242	0x3efab260	0.48964214
243	0xbe3515b4	-0.1768406
244	0xbeb49329	-0.35268524
245	0xbda2ea43	-0.07954838
246	0x3e2ef525	0.17085703
247	0xbdd6a31e	-0.10480331
248	0xbd0fa900	-0.03507328
249	0x3daaf43f	0.083473675
250	0x3d82c70d	0.06385622
251	0x3f0325a8	0.51229334
252	0xbe5a6d25	-0.21330698
253	0x3ca59d06	0.020216476
254	0xbd2c9f07	-0.042143848
255	0x3ee880cf	0.45410773

actor.2.bias f4 [64]
0	0x3d368271	0.044557992
1	0xbe14f571	-0.14546753
2	0xbe63aa9c	-0.22233051
3	0xbd44f2a0	-0.048082948
4	0xbee031c5	-0.4378797
5	0xbd35bb5b	-0.04436813
6	0xbddb3c39	-0.10704846
7	0xbc458553	-0.012055713
8	0xbd81d4a9	-0.0633939
9	0xbd821a24	-0.06352642
10	0xbea9a9ea	-0.33137447
11	0xbe586046	-0.21130475
12	0xbe101005	-0.14068611
13	0xbdbd5669	-0.09244997
14	0xbe516c25	-0.2045141
15	0xbde31573	-0.110880755
16	0xbe12bb90	-0.14329362
17	0xbea329a7	-0.31867716
18	0xbe9bbba8	-0.30416608
19	0xbeeced42	-0.46274763
20	0xbe8130cf	-0.2523255
21	0xbd5e736a	-0.054309286
22	0x3d20a36a	0.039218344
23	0xbe54c459	-0.20778026
24	0xbee647aa	-0.4497655
25	0xbe018789	-0.12649359
26	0xbdf986ed	-0.12183938
27	0xbeafeeaa	-0.34361774
28	0xbe6c3d95	-0.23070367
29	0xbefffc49	-0.49997166
30	0xbee24eb6	-0.44200677
31	0xbe931f7b	-0.28734955
32	0xbd069416	-0.03285607
33	0xbe9a18d2	-0.3009706
34	0xbda3d948	-0.080004275
35	0xbd824872	-0.06361474
36	0x3db347f8	0.08753961
37	0xbe291aaf	-0.16514085
38	0x3d9d4502	0.07679178
39	0xbe16fad2	-0.14744118
40	0xbeed6cfb	-0.46372208
41	0xbe1fa082	-0.15588573
42	0xbe6f857d	-0.23390765
43	0xbf34b7c9	-0.70592934
44	0xbe299f2d	-0.16564627
45	0xbe29b606	-0.16573343
46	0xbde30f85	-0.110869445
47	0xbd729516	-0.05922421
48	0xbec0aab0	-0.37630224
49	0xbe148c49	-0.1450664
50	0x3d8ee811	0.06977857
51	0x3d50e3d8	0.05099854
52	0xbf0ca926	-0.549456
53	0xbca1d774	-0.019756056
54	0x3c9fa436	0.019487482
55	0xbdf661b0	-0.12030351
56	0xbf123d44	-0.57124734
57	0xbe26ebd2	-0.16300896
58	0xbd9cbac3	-0.076528095
59	0xbe90bbe3	-0.28268346
60	0xbd66ad76	-0.05631777
61	0xbe987bff	-0.29782102
62	0xbf14cb58	-0.5812278
63	0xbe1bc8ee	-0.15213367

actor.4.weight f4 [32, 64]
0	0x3daffb87	0.08592897
1	0x3c95292f	0.018208114
2	0x3e70029b	0.23438494
3	0xbdda4451	-0.106575616
4	0xbe28d25c	-0.16486496
5	0xbe1467c4	-0.14492708
6	0xbe92c05b	-0.2866238
7	0xbe99699f	-0.29963395
8	0xbe09622d	-0.13416357
9	0x3e105803	0.14096074
10	0xbb53cf0e	-0.003231946
11	0xbe4d9ccd	-0.20079346
12	0x3e831fed	0.25610295
13	0xbe7f0cd4	-0.24907237
14	0xbd7746fa	-0.060370423
15	0xbe7dd094	-0.24786597
16	0x3d93307a	0.071869805
17	0xbccd5303	-0.025063997
18	0x3da62903	0.08113291
19	0xbe40633d	-0.18787856
20	0xbdcc9768	-0.09989816
21	0xbd106a04	-0.035257354
22	0x3db8b219	0.090183444
23	0x3f00e67f	0.5035171
24	0x3e5e8ee7	0.217342
25	0x3de6f7ee	0.112777576
26	0xbe3487f2	-0.17629984
27	0xbe4ea494	-0.20179969
28	0xbd663380	-0.056201458
29	0xbe6ed7a0	-0.23324442
30	0x3e5c0bfc	0.21488947
31	0x3ba9dca8	0.005183775
32	0xbe220c9f	-0.15825127
33	0x3da09fb9	0.07842965
34	0xbeb087d2	-0.34478623
35	0xbceb4e00	-0.028723717
36	0xbe0e0d54	-0.13872272
37	0xbe20441d	-0.15650983
38	0x3da787d1	0.08180202
39	0xbe8e488d	-0.27789727
40	0xbe574632	-0.21022871
41	0xbe67deaa	-0.22643533
42	0xbda5aa48	-0.08089119
43	0xbd795816	-0.06087502
44	0xbe5b343e	-0.21406648
45	0x3a250f08	0.00062964903
46	0x3e4f4f2c	0.20245045
47	0x3daf46b5	0.08558408
48	0x3e0f63f1	0.14002968
49	0xbe258d61	-0.16167213
50	0xbe8dd9ca	-0.27705222
51	0x3d516abb	0.051127177
52	0x3e38aaab	0.18033855
53	0x3dacf594	0.08445278
54	0xbc6feb0f	-0.014643445
55	0x3e567431	0.20942761
56	0x3de8df7e	0.11370753
57	0x3dc72cb6	0.09725325
58	0x3c8267ee	0.015918698
59	0x3ea6d503	0.3258439
60	0xbde42f38	-0.11141819
61	0xbd1ee650	-0.038793862
62	0x3db0aa07	0.0862618
63	0xbeb3c087	-0.35107824
64	0xbd906e9d	-0.07052348
65	0xbe252619	-0.16127814
66	0xbc9b26aa	-0.018939335
67	0xbd45068f	-0.048101958
68	0x3e9e852b	0.30960974
69	0xbe10eaf6	-0.1415213
70	0x3df77ec6	0.12084727
71	0x3dccb629	0.09995682
72	0x3cb4f0e6	0.022087526
73	0xbc3090e0	-0.010776728
74	0x3d651e68	0.0559372
75	0xbc187436	-0.009305051
76	0x3f047fbd	0.51757413
77	0x3db62213	0.08893218
78	0xbdcd9eed	-0.10040078
79	0xbe51d512	-0.20491436
80	0xbe69b4fb	-0.22822945
81	0x3df810df	0.12112593
82	0xbdd60ff7	-0.10452264
83	0x3e1d89ac	0.15384549
84	0x3cfce130	0.030869097
85	0x3c7b061f	0.015321284
86	0xbd8a45d1	-0.06751598
87	0x3dd0073e	0.10157631
88	0xbd8ca1ca	-0.06866796
89	0x3eb51397	0.35366508
90	0xbe9e74d6	-0.30948514
91	0x3da5ea9c	0.08101389
92	0x3e3d70b6	0.18500027
93	0x3d0a2b0f	0.03373247
94	0xbf276548	-0.6538892
95	0x3e54176a	0.20712057
96	0xbd853979	-0.06505103
97	0x3e3ab1e5	0.18231924
98	0xbe6a6be2	-0.22892717
99	0xbe9b767d	-0.30363837
100	0x3e31c16f	0.17358945
101	0x3db2f3d0	0.0873791
102	0xbce40b65	-0.027837465
103	0xbe1c8134	-0.15283662
104	0xbdbc2941	-0.09187556
105	0x3de07aab	0.10960897
106	0xbe3c7fee	-0.18408176
107	0xbe755b6f	-0.2396066
108	0xbdbb9c92	-0.09160723
109	0x3e3bb9e5	0.18332632
110	0xbd2fef48	-0.042952806
111	0xbea3372e	-0.31878036
112	0x3cce83e2	0.025209371
113	0xbe577cb5	-0.21043666
114	0xbe3ddd6f	-0.18541501
115	0xbd5c914e	-0.05384951
116	0xbca23018	-0.019798324
117	0xbe127722	-0.14303258
118	0x3e4eab41	0.20182516
119	0x3ea20e63	0.316516
120	0xbe0d5dfb	-0.13805382
121	0x3dddc5db	0.108287536
122	0x3dc2e480	0.09516239
123	0xbbf65200	-0.0075170994
124	0x3e37ddff	0.17955779
125	0xbe129bca	-0.14317241
126	0x3e31123d	0.17292114
127	0x3d3c172c	0.045920536
128	0xbe146147	-0.14490233
129	0xbe83cb13	-0.2574087
130	0xbdf6ada8	-0.12044841
131	0x3e5ac69b	0.21364824
132	0x3df8bca8	0.12145358
133	0xbe3730eb	-0.17889754
134	0xbe179a86	-0.1480504
135	0xbe3fcb17	-0.18729816
136	0x3bd9795f	0.006636783
137	0x3e8afa6a	0.27144176
138	0x3e30f274	0.17279989
139	0x3e8f13a0	0.2794466
140	0xbd96eb84	-0.0736914
141	0xbe1d4c3c	-0.15361112
142	0xbe0e318f	-0.13886093
143	0xbd8c0603	-0.06837084
144	0xbe1cda0c	-0.15317553
145	0x3ce7093f	0.028202651
146	0x3d13f289	0.03611997
147	0xbcabe6dc	-0.020984106
148	0xbd87d17f	-0.06631755
149	0xbdc6e40b	-0.097114645
150	0xbcec7341	-0.028863551
151	0x3e47aac7	0.1949874
152	0xbd304ce6	-0.043042086
153	0xbe5bc67a	-0.21462432
154	0xbdabece3	-0.08394792
155	0xbd30ff8c	-0.04321246
156	0xbe6b7505	-0.22993858
157	0x3cbc212b	0.022965034
158	0x3e2ad56c	0.16682976
159	0xbe6e69c1	-0.2328253
160	0x3e37baa8	0.17942297
161	0x3e0da0c5	0.1383086
162	0x3e3916d6	0.18075117
163	0x3dbff114	0.09372154
164	0x3dae0c46	0.08498435
165	0x3e2048bf	0.1565275
166	0xbe7d770b	-0.24752443
167	0xbd06dde9	-0.032926474
168	0x3e5330dd	0.20624109
169	0xbda97f13	-0.082761906
170	0xbe35e415	-0.17762788
171	0xbe828838	-0.25494552
172	0x3d9876b8	0.07444519
173	0x3e943213	0.28944454
174	0xbe0d2123	-0.13782172
175	0xbe17f173	-0.148382
176	0xbeb5ded3	-0.35521564
177	0xbd44fc5d	-0.048092235
178	0x3dcb94b6	0.09940474
179	0xbe5e388b	-0.21701257
180	0x3bf1007d	0.0073547945
181	0xbe8d0db8	-0.2754953
182	0x3caf157f	0.021372555
183	0xbcdd5089	-0.027015941
184	0xbd9a8db8	-0.07546562
185	0xbe7fe1a9	-0.24988426
186	0xbe8df587	-0.27726385
187	0xbdababfb	-0.08382412
188	0xbe8e12f2	-0.2774883
189	0x3f1cda6a	0.61270773
190	0x3e4d2a72	0.20035723
191	0x3cbfdd39	0.023420917
192	0xbc5ec784	-0.013597373
193	0x3e20a33d	0.1568727
194	0x3dde0521	0.10840822
195	0x3da4c7e9	0.08045942
196	0x3d97eb0e	0.0741788
197	0x3e69f28f	0.22846435
198	0xbea5bfd6	-0.32372922
199	0xbdd539d4	-0.104114205
200	0xbd531d86	-0.051541828
201	0xbe991f1b	-0.29906544
202	0xbd852dd2	-0.0650288
203	0x3e1a0329	0.15040268
204	0x3d9bb4af	0.07602822
205	0xbe4dd8c2	-0.20102218
206	0x3e79a6c7	0.24380027
207	0xbd831a2a	-0.06401475
208	0xbeb8879c	-0.36040962
209	0xbd8a5d61	-0.06756092
210	0xbc6d3f01	-0.014480353
211	0xbe1b397e	-0.1515865
212	0x3ddfe226	0.10931806
213	0x3c2abe91	0.010421411
214	0xbecf8089	-0.40527752
215	0x3ec926f5	0.39287534
216	0xbd31489d	-0.04328214
217	0xbcb47248	-0.02202715
218	0xbe894418	-0.26809764
219	0xbe7c3934	-0.24631196
220	0xbe809014	-0.25109923
221	0x3e23cb32	0.15995482
222	0x3e6ff595	0.23433526
223	0x3d74adf1	0.059736196
224	0x3d030fe8	0.03199759
225	0xbdfbb81a	-0.12290974
226	0x3de149c4	0.11000398
227	0x3e95c577	0.29252216
228	0xbe83d7bc	-0.2575053
229	0xbea1cffb	-0.3160399
230	0xbbebad7d	-0.0071923123
231	0x3f1c2ee7	0.6100907
232	0xbe142d26	-0.14470348
233	0x3c90bc10	0.0176678
234	0xbe29173e	-0.16512772
235	0x3e6c804c	0.23095816
236	0xbd0078b1	-0.0313651
237	0xbed1e743	-0.4099675
238	0xbe256083	-0.16150098
239	0xbd9dd228	-0.077061
240	0x3e1db7a8	0.1540209
241	0x3e3dbace	0.18528292
242	0x3d604a4d	0.05475836
243	0x3c909596	0.017649453
244	0x3e92d902	0.2868119
245	0xbece6e49	-0.40318516
246	0xbecd39c9	-0.4008315
247	0xbd23fc89	-0.04003576
248	0x3e79d2e6	0.24396858
249	0x3d9ff2de	0.07809995
250	0xbb9c7167	-0.004774261
251	0xbd18aa6b	-0.0372719
252	0xbdbae456	-0.09125583
253	0xbc4695fe	-0.012120722
254	0x3dea8b0f	0.114523046
255	0x3e8c4ef1	0.27403978

actor.4.bias f4 [32]
0	0xbdf3055e	-0.11866258
1	0xbdbddf6d	-0.09271131
2	0xbeaccd6b	-0.3375047
3	0xbe2c6dc2	-0.16838744
4	0x3c9be0fa	0.019028176
5	0xbe1fa871	-0.15591599
6	0xbd8b671d	-0.06806777
7	0xbe823b00	-0.25435638
8	0xbe459c13	-0.19297819
9	0xbe67d108	-0.22638333
10	0xbea1c1d5	-0.31593195
11	0xbe430fb8	-0.19048965
12	0xbf04c4b9	-0.51862675
13	0x3bae711d	0.0053235427
14	0xbe126d01	-0.14299394
15	0xbea295a9	-0.31754807
16	0x3e1c32e3	0.15253787
17	0xbe71a598	-0.23598325
18	0xbf3a6976	-0.7281717
19	0x3d128099	0.03576717
20	0x3d79aa21	0.060953263
21	0xbf6075ed	-0.8767994
22	0x3cda2eac	0.026633583
23	0xbd8a4e44	-0.06753209
24	0xbd82fa8c	-0.06395444
25	0xbedfe5e5	-0.43730083
26	0x3d671b05	0.056422252
27	0xbeef5509	-0.46744564
28	0xbea5d4d6	-0.32388943
29	0xbed8f548	-0.42374635
30	0xbd4a0764	-0.049323454
31	0xbee17265	-0.4403259

actor.6.weight f4 [8, 32]
0	0x3e2a518c	0.1663267
1	0x3e32ccf9	0.17461003
2	0xbe0d741a	-0.1381382
3	0x3de30f56	0.110869095
4	0x3e16d321	0.14728977
5	0xbb8e4c53	-0.0043425946
6	0xbd64b77f	-0.055839058
7	0xbe0c3357	-0.1369146
8	0x3d3d9a1f	0.04628956
9	0x3e842d50	0.2581582
10	0xbd2bf041	-0.04197717
11	0x3df4314d	0.11923466
12	0xbe14cdc3	-0.14531617
13	0x3e969fab	0.29418692
14	0xbe0c80f6	-0.1372107
15	0xbc2ed5b8	-0.010671072
16	0x3e5af902	0.21384051
17	0xbdd97029	-0.10617096
18	0xbd7f3ab1	-0.06231183
19	0xbdccb874	-0.09996119
20	0x3b999b88	0.00468773
21	0xbd8ce245	-0.06879095
22	0x3e55fdb8	0.20897567
23	0xbd55555c	-0.05208336
24	0x3e3bfe9e	0.18358847
25	0xbe7d09fa	-0.24710837
26	0xbe1b4aa4	-0.15165192
27	0xbde037b5	-0.10948125
28	0x3da745da	0.0816762
29	0xbe058497	-0.1303886
30	0x3df2d878	0.118576944
31	0xbe5c2a63	-0.21500544
32	0xbdc1f4b4	-0.094705015
33	0xbdcdc167	-0.10046654
34	0x3d243436	0.040088855
35	0x3c247aee	0.010039074
36	0x3e0579ce	0.13034746
37	0x3d2d33b4	0.042285636
38	0xbd9c6538	-0.076364934
39	0xba7b8ac9	-0.0009595571
40	0x3e1a0928	0.15042555
41	0xbd9c30f0	-0.076265216
42	0xbd5613db	-0.05226503
43	0xbc7f614a	-0.01558716
44	0xbe87c769	-0.26519325
45	0x3e0b7791	0.1361983
46	0x3d7d52c3	0.061846506
47	0xbd0c857a	-0.03430698
48	0x3e990ab6	0.29890984
49	0x3e32ab3a	0.1744813
50	0xbe624e11	-0.22100092
51	0x3d87cb04	0.06630519
52	0x3e266a46	0.16251478
53	0x3e867d59	0.26267508
54	0xbdea080b	-0.11427315
55	0xbe587f83	-0.21142392
56	0xbe25bb63	-0.16184764
57	0x3da37bb8	0.07982582
58	0x3dc0fba9	0.09423
59	0xbdec0696	-0.11524694
60	0x3d0bbf87	0.0341182
61	0x3e3de732	0.18545225
62	0xbc0d8461	-0.008637519
63	0x3b8bfd64	0.00427215
64	0x3d88b635	0.06675378
65	0xbe50a596	-0.20375666
66	0x3e3506ed	0.17678423
67	0x3e0a187c	0.13485903
68	0xbd913cbd	-0.07091663
69	0x3d476266	0.048677824
70	0x3ceec7f4	0.02914808
71	0x3e1517cc	0.14559859
72	0xbe2f7d19	-0.17137565
73	0xbe2fd7e0	-0.17172194
74	0xbe83a727	-0.25713465
75	0xbccb3219	-0.024804162
76	0xbdd0bb58	-0.10191983
77	0xbdb91a7c	-0.090382546
78	0x3e176984	0.14786345
79	0x3d211804	0.039329544
80	0xbd1b5488	-0.037922412
81	0xbd87d679	-0.06632704
82	0x393622e1	0.00017369866
83	0x3ef2036b	0.47268233
84	0xbe4635e5	-0.19356497
85	0xbd81d061	-0.06338573
86	0x3e34b9fe	0.17649075
87	0xbdbe1bcc	-0.092826456
88	0xbdb7baae	-0.08971153
89	0x3d1ad06b	0.03779642
90	0xbebd8f85	-0.3702356
91	0x3d0f34c4	0.03496243
92	0x3eb54a03	0.3540803
93	0xbd234f10	-0.03987032
94	0xbec5b67a	-0.3861578
95	0xbd81ffb4	-0.063475996
96	0x3d8c3107	0.06845289
97	0xbd4b4cd0	-0.0496338
98	0xbde4140b	-0.111366354
99	0x3e8357a7	0.2565281
100	0x3ccbb14e	0.024864819
101	0xbe441539	-0.19148721
102	0x3ea4d6c3	0.321951
103	0x3e909edd	0.28246203
104	0x3dfd6cbe	0.123742566
105	0xbc9d2adf	-0.019185482
106	0xbe0ea01c	-0.13928264
107	0x3d9efc97	0.077630214
108	0xbd617be9	-0.05504981
109	0xbc1e6da9	-0.0096697
110	0xbdd64335	-0.104620375
111	0xbe9a59f3	-0.3014675
112	0xbd240f78	-0.040053815
113	0x3d59009f	0.052979108
114	0x3c3100d6	0.010803422
115	0xbe4d635d	-0.20057435
116	0xbca998a0	-0.02070266
117	0x3e3cdf84	0.1844464
118	0xbd02b1d6	-0.03190788
119	0xbb2ab4a8	-0.002604762
120	0x3ccd4360	0.025056541
121	0xbda3656a	-0.079783276
122	0xbd85f36f	-0.06540572
123	0xbda5e87d	-0.08100984
124	0xbbe0ee4f	-0.006864346
125	0x3ca9a8e6	0.02071042
126	0x3c508321	0.012726576
127	0x3bc499dd	0.0059997872
128	0xbdfd6e0b	-0.12374505
129	0x3e1ef27c	0.15522188
130	0x3d05dd11	0.03268153
131	0xbdbf0bb8	-0.09328407
132	0xbeab7d5b	-0.33494076
133	0xbdfe1863	-0.12406995
134	0x3a8e431f	0.0010853744
135	0x3c812398	0.015764043
136	0x3d98debe	0.0746436
137	0x3c7210c1	0.014774502
138	0x3dd60769	0.10450632
139	0x3dbfab08	0.093587935
140	0x3dadb08d	0.0848094
141	0xbe804604	-0.25053418
142	0xbd92be9c	-0.07165262
143	0xbcbe0e2a	-0.023200113
144	0xbcc83a49	-0.024441855
145	0x3e4ae0ad	0.1981227
146	0xbd8f0cda	-0.06984873
147	0xbe808505	-0.25101486
148	0x3d142675	0.036169488
149	0x3e0f875a	0.14016476
150	0xbe2c456b	-0.16823356
151	0x3de81cc4	0.113336116
152	0x3d0e1736	0.034690104
153	0x3e7c6b8c	0.24650401
154	0xbe5ce97d	-0.21573444
155	0x3d1bcfe9	0.038040075
156	0x3d1b2695	0.03787859
157	0x3d92a01c	0.07159445
158	0x3e1a476e	0.15066311
159	0x3e887b4a	0.26656562
160	0x3d9e607b	0.07733246
161	0xbde0099a	-0.10939331
162	0xbe287a62	-0.16452935
163	0x3d4af4cb	0.04954986
164	0x3e11949e	0.14216849
165	0x3d7d80aa	0.06189028
166	0xbd275135	-0.04084893
167	0x3c5b2ef9	0.013377898
168	0x3d977119	0.073946185
169	0xbe043a20	-0.12912798
170	0xbe156a01	-0.14591219
171	0x3c6900c7	0.014221377
172	0xbe705a54	-0.23471957
173	0x3d8ad70a	0.06779297
174	0xbca8a9a9	-0.020588713
175	0x3d735b33	0.059413146
176	0xbe1e127d	-0.1543674
177	0x3d5009f6	0.05079075
178	0x3e101aae	0.14072677
179	0xbd689517	-0.05678281
180	0x3e4a47d2	0.1975396
181	0xbe356228	-0.17713225
182	0xbe70cd1c	-0.23515743
183	0xbe43e746	-0.19131193
184	0x3b3998c2	0.002831981
185	0x3e2192cf	0.1577866
186	0xbd3d93ed	-0.04628365
187	0xbde5370f	-0.11192142
188	0xbdf83e76	-0.121212885
189	0x3e8c1880	0.27362442
190	0xbc2df890	-0.010618344
191	0xbd92d8a0	-0.07170224
192	0x3e5fdbae	0.21861145
193	0x3dc05798	0.09391707
194	0x3d2207c2	0.03955818
195	0xbe2c22e7	-0.16810189
196	0xbd949893	-0.07255664
197	0xbd9152e1	-0.07095886
198	0x3ce8a029	0.028396683
199	0x3e64c68d	0.22341366
200	0x3dab62e7	0.083684735
201	0xbe51d596	-0.20491633
202	0x3e538c47	0.2065898
203	0xbe84cccd	-0.259375
204	0x3cb12513	0.021624124
205	0xbe92e5a5	-0.2869083
206	0x3ed6224c	0.4182304
207	0x3db8a90b	0.090166174
208	0x3d8bd4db	0.06827708
209	0xbe6c7c6c	-0.23094338
210	0x3d007047	0.031357076
211	0x3d89b4be	0.06723927
212	0xbe1dae19	-0.15398444
213	0x3df2de56	0.118588135
214	0x3a4371a8	0.0007455596
215	0x3e0bf1d7	0.13666473
216	0x3d382fd7	0.0449675
217	0x3cb0d129	0.02158411
218	0x3e31f2cc	0.17377776
219	0xbd999870	-0.07499778
220	0xbf154d8d	-0.5832146
221	0x3e395d43	0.18101983
222	0xbe386dbf	-0.18010615
223	0x3de603ae	0.112311706
224	0xbcc82cc4	-0.024435408
225	0xbdc23e56	-0.09484546
226	0x3e4d0893	0.20022802
227	0xbd80c9b5	-0.062884726
228	0x3e1aeb71	0.15128876
229	0xbdb4421c	-0.08801672
230	0xbe0225d3	-0.12709741
231	0xbda859c6	-0.08220248
232	0xbd5fed74	-0.054669812
233	0x3e7cb182	0.24677089
234	0xbc34e00a	-0.011039743
235	0xbddc226a	-0.107487515
236	0xba936cea	-0.0011247669
237	0xbe0e37ab	-0.13888423
238	0xbd735fe2	-0.059417613
239	0xbe86b482	-0.26309592
240	0xbc6453a4	-0.013935957
241	0xbd38f02c	-0.04515092
242	0x3e51b1f7	0.20478044
243	0xbd61279f	-0.054969426
244	0x3e4974a2	0.19673398
245	0x3db6e5b1	0.08930529
246	0xbe1f3780	-0.15548515
247	0x3c21cc22	0.009875329
248	0x3d35a5e8	0.044347674
249	0x3cfe10de	0.031013902
250	0xbd063058	-0.032760948
251	0x3d4801aa	0.048829712
252	0xbd03b99e	-0.03215944
253	0xbd5c7481	-0.053822044
254	0xba39d36b	-0.00070886937
255	0xbe5845ec	-0.21120423

actor.6.bias f4 [8]
0	0x3e629812	0.22128323
1	0x3d872c7f	0.06600284
2	0xbe381045	-0.17974956
3	0x3df7ca8e	0.12099181
4	0xbea2323f	-0.3167896
5	0x3c42e53f	0.011895477
6	0xbe0bfa14	-0.13669616
7	0x3e88c88e	0.2671551

critic.0.weight f4 [128, 33]
0	0x3e8f5f79	0.28002527
1	0x3ea716db	0.32634625
2	0x3d0afbd6	0.033931576
3	0x3e199245	0.14997204
4	0xbf8a22a3	-1.079182
5	0x3edd635a	0.43239862
6	0x3e155a63	0.14585261
7	0xbf04f8af	-0.5194196
8	0x3f0c3563	0.5476896
9	0x3fa8d42f	1.3189753
10	0xbd02ee95	-0.03196581
11	0xbdd31139	-0.10306019
12	0xbe997bb5	-0.29977193
13	0x3c0c5720	0.008565694
14	0x3f998fef	1.199705
15	0x3f80ac3a	1.0052559
16	0xbec0e70f	-0.37676284
17	0x3c728de7	0.01480434
18	0xbe8e8457	-0.27835342
19	0xbee60d1b	-0.44931874
20	0xbe37a012	-0.17932156
21	0xbd2b3af2	-0.04180426
22	0x3b6c40d9	0.0036049394
23	0x3d83028a	0.06396969
24	0xbd208eea	-0.039198793
25	0xbc5c6e84	-0.013454083
26	0xbbd83179	-0.0065976945
27	0x3deb6cc4	0.11495355
28	0xbd0c53a0	-0.03425944
29	0x3cbdb919	0.02315955
30	0x3df8adab	0.121424995
31	0xbe8398c9	-0.25702503
32	0x4052a717	3.2914484
33	0x3e055f11	0.13024546
34	0x3f32c0b0	0.6982527
35	0x3e01acde	0.126636
36	0x3e3b902c	0.18316716
37	0xbc201563	-0.009770724
38	0x3f520328	0.82036066
39	0x3eac6d6a	0.33677226
40	0xbeea9509	-0.4581683
41	0x3f3992bc	0.72489524
42	0x3fd8e1eb	1.6943945
43	0xbe706dab	-0.23479335
44	0x3e3661d6	0.17810759
45	0x3f27b09a	0.6550385
46	0xbf20b6e6	-0.6277908
47	0xbe50ae6b	-0.20379035
48	0x401d9af0	2.4625816
49	0xbf40435b	-0.75102776
50	0x3d2fb1b2	0.042894073
51	0xbdccd5e2	-0.100017324
52	0x3f4038ae	0.75086486
53	0x3dba2737	0.09089511
54	0xbd488bdb	-0.0489615
55	0xbcd58cb8	-0.026068076
56	0x3de768bb	0.112992726
57	0xbd44a408	-0.048007995
58	0xbda819d9	-0.08208055
59	0x3dbe2e14	0.092861325
60	0x3c0a9c9b	0.008460189
61	0x3d74d190	0.059770167
62	0x3ccd4759	0.025058435
63	0x3e89e6e1	0.2693396
64	0x3e8972e2	0.2684546
65	0xbfb0b3d4	-1.3804879
66	0x3f5c50a5	0.86060554
67	0xbe10d949	-0.14145388
68	0xbe466151	-0.19373061
69	0x3eb3332b	0.34999976
70	0x3ef9c430	0.48782492
71	0xbeb4eb24	-0.35335648
72	0xbf212ad4	-0.62955976
73	0x3efac6b3	0.4897972
74	0xbf576ee5	-0.84153587
75	0xbf3cbe9a	-0.73728335
76	0x3e938691	0.28813604
77	0x3f073000	0.5280762
78	0xbeeda090	-0.46411562
79	0x3f7fef2a	0.9997431
80	0x3fb1d12d	1.389196
81	0xc014d75a	-2.325644
82	0x3fb40616	1.4064357
83	0xbb870bc1	-0.004121274
84	0x3e8ca940	0.27472878
85	0xbf545ebc	-0.82957053
86	0x3fcb3bf5	1.5877672
87	0x3f0f4f9e	0.5598086
88	0x3d309e29	0.043119583
89	0xbde577ca	-0.112044886
90	0xbe081a60	-0.13291311
91	0x3e45e036	0.19323811
92	0x3e45f6a7	0.19332372
93	0xbe6d123a	-0.23151484
94	0xbea52325	-0.32253376
95	0x3e816a47	0.25276396
96	0xbddcc419	-0.1077959
97	0x3bef9ebe	0.0073126247
98	0xbf1fd058	-0.6242728
99	0xbf695926	-0.91151655
100	0x3e19738c	0.14985484
101	0x3e8a0999	0.26960447
102	0xbdf26477	-0.118355684
103	0x3b2965c8	0.002584802
104	0x3d9f2752	0.07771172
105	0x3f47d0b3	0.78052825
106	0x400451a1	2.0674822
107	0xbec5e3aa	-0.38650256
108	0x3ecd2013	0.40063533
109	0xbf3446c2	-0.7042047
110	0x3fce1c38	1.6102362
111	0xbf077f9d	-0.529291
112	0x3f185282	0.59500897
113	0xbef2c396	-0.47414845
114	0x3f6e55dd	0.93099767
115	0xbf9eac7f	-1.2396392
116	0x3e467122	0.19379094
117	0xbeeceed4	-0.4627596
118	0x3ee8967c	0.4542731
119	0xbf6b3441	-0.9187661
120	0xbea2fc8a	-0.31833297
121	0xbc81a905	-0.015827665
122	0x3da85878	0.08219999
123	0x3dc36b34	0.09541932
124	0x3dd338ec	0.10313591
125	0xbe171396	-0.14753565
126	0x3d8bbf46	0.06823592
127	0x3c950b54	0.018193878
128	0x3d594652	0.05304558
129	0x3ea0969d	0.3136491
130	0xbeba06ea	-0.363334
131	0x3f68aad8	0.90885687
132	0x3e8c43e3	0.27395543
133	0xbbbef66a	-0.0058277147
134	0xbdab0226	-0.08350019
135	0xbf345752	-0.7044574
136	0xbebc9fdf	-0.36840722
137	0x3e1412ae	0.1446025
138	0xbefce81a	-0.4939583
139	0xbf444411	-0.7666636
140	0xbe39f8d5	-0.18161328
141	0xbe04c31d	-0.12965055
142	0x3eef5d73	0.46750984
143	0xbe129297	-0.14313732
144	0xbe0c3a00	-0.13694
145	0x3e180735	0.148465
146	0xbef45eb2	-0.47728497
147	0xbe2a70fa	-0.1664466
148	0xbe1bb8de	-0.1520724
149	0xbd1e20ac	-0.038605377
150	0x3efd8b27	0.49520227
151	0xbeb5bc05	-0.3549501
152	0x3ec69630	0.3878646
153	0x3d867073	0.06564417
154	0x3dbd709d	0.09249995
155	0xbd0a8fb9	-0.03382847
156	0x3d2d89cf	0.042367753
157	0xbda04653	-0.07825913
158	0x3d6056b4	0.054770187
159	0xbdd5390a	-0.1041127
160	0xbd8d77b5	-0.06907598
161	0xbe264ce0	-0.16240263
162	0x3edcfdd6	0.4316241
163	0x3d86e565	0.06586722
164	0x3defd239	0.11710019
165	0xbe17f8ed	-0.14841051
166	0xbe8f0b04	-0.27938092
167	0xbe3591a9	-0.17731346
168	0xbed7c841	-0.4214497
169	0xbe4ccee4	-0.20000798
170	0xbf1264c5	-0.5718501
171	0x3d2e0f54	0.042495087
172	0xbee5f2ad	-0.4491171
173	0x3eefb110	0.46814775
174	0x3ea089d9	0.3135517
175	0x3eac8bf1	0.33700517
176	0x3f5312a8	0.8245034
177	0xbde9fdb1	-0.11425341
178	0xbe1cecc1	-0.1532469
179	0xbf070e2e	-0.5275601
180	0xbedcd711	-0.43132833
181	0xbe48b7e9	-0.19601406
182	0x3df12da5	0.11776284
183	0xbe80616f	-0.25074336
184	0x3ec0e54e	0.37674946
185	0xbda539c5	-0.08067659
186	0x3d84f197	0.06491392
187	0x3d6b4bd8	0.057445377
188	0x3d0b2088	0.03396657
189	0x3cd7cec0	0.026343703
190	0x3d68d5d0	0.056844532
191	0xbcc5a40e	-0.024126079
192	0xbcb335f4	-0.021876313
193	0x3c5bebfb	0.013422961
194	0x3da263af	0.079291694
195	0x3e929c4f	0.2863488
196	0xbe718d37	-0.23589025
197	0x3dfac9b3	0.12245502
198	0x3ec9e8ba	0.3943537
199	0xbef3fbf6	-0.47653168
200	0xbe714de8	-0.23564875
201	0xbeb8d6f8	-0.36101508
202	0xbec4f046	-0.38464564
203	0xbe86e3e3	-0.2634574
204	0xbe8f990e	-0.2804646
205	0xbdc75634	-0.09733239
206	0x3e4a0c60	0.19731283
207	0xbecc2347	-0.39870664
208	0x3f1cf0c9	0.6130491
209	0x3f2c9e06	0.67428625
210	0xbe24da86	-0.16098985
211	0xbf070be6	-0.5275253
212	0x3e2c6abf	0.16837595
213	0xbf90d7ed	-1.1315895
214	0x3f487da0	0.7831669
215	0xbdd60eb9	-0.10452027
216	0x3e4c36a1	0.19942714
217	0x3efc0475	0.4922215
218	0x3eeb892d	0.46003094
219	0x3cfb1a0c	0.030652069
220	0xbdc660ec	-0.09686455
221	0xbcd7da33	-0.026349163
222	0xbcba321a	-0.022728968
223	0x3dad7a79	0.084706254
224	0x3df30b63	0.11867406
225	0x3de7cdb9	0.11318535
226	0xbca3f090	-0.02001217
227	0xbd0399bd	-0.032129038
228	0xbe8e0968	-0.2774155
229	0xbebc742b	-0.3680738
230	0x3f0cc5a3	0.5498907
231	0xbe0fa92c	-0.14029378
232	0x3ef5870b	0.47954592
233	0xbf7744a4	-0.9658911
234	0x3fab145c	1.3365588
235	0x3ed175e2	0.4091025
236	0x3fbb7a66	1.4646728
237	0x3ebb86f9	0.36626413
238	0xbf31e01b	-0.6948258
239	0xbe05f3c9	-0.13081278
240	0xbe94b318	-0.29042888
241	0xbec669cb	-0.3875259
242	0xbef07621	-0.46965125
243	0xbf98195f	-1.1882743
244	0x3f71b0de	0.944105
245	0x3f5e020a	0.8672186
246	0xbe365d20	-0.17808962
247	0xbeb4987b	-0.35272583
248	0xbe5087c1	-0.20364286
249	0xbef67050	-0.48132563
250	0xbf69d0bb	-0.9133412
251	0xbec1a2e8	-0.378196
252	0x3edb3786	0.428158
253	0xbd44e4c0	-0.048069715
254	0x3a1c9b9a	0.0005974114
255	0x3e1f1663	0.15535884

critic.0.bias f4 [128]
0	0xbecf9d17	-0.40549538
1	0xbf0c693b	-0.5484807
2	0xbc1559a9	-0.009115615
3	0xbd5c3ee5	-0.05377092
4	0x3efb7af1	0.49117234
5	0xbeb8176f	-0.35955378
6	0x3da6b94f	0.081408136
7	0xbed6aebc	-0.41930187
8	0x3e93d3ff	0.28872678
9	0xbeaee7f7	-0.3416135
10	0x3da9a1b1	0.08282793
11	0x3c6b67e0	0.014368027
12	0xbe1a0c79	-0.1504382
13	0xbe8995bf	-0.2687206
14	0xbe014a4c	-0.12625998
15	0xbf02b12f	-0.5105161
16	0x3e5acd10	0.21367288
17	0xbe6ea559	-0.23305263
18	0xbe1e61ad	-0.15466948
19	0x3eb22bab	0.3479894
20	0x3edc89be	0.4307384
21	0x3c8cb79c	0.017177396
22	0x3d02d08a	0.03193716
23	0xbee8f35f	-0.45498177
24	0xbe531c65	-0.206163
25	0x3edb01b3	0.42774734
26	0xbe2358f5	-0.15951903
27	0xbeb7ce2f	-0.35899493
28	0xbe4c2b19	-0.19938315
29	0xbe3ef868	-0.18649447
30	0x3e6a5f9d	0.22888036
31	0xbed73171	-0.42029908
32	0xbef28009	-0.47363308
33	0xbe9e8ef3	-0.30968437
34	0xbecfed81	-0.4061089
35	0xbd96c822	-0.07362391
36	0x3eac455f	0.33646676
37	0xbdc8a475	-0.09796993
38	0x3e339a92	0.17539433
39	0x3d9c1d0c	0.07622728
40	0x3d0a3b40	0.03374791
41	0xbf0d1db0	-0.55123425
42	0xbe93b72f	-0.28850695
43	0xbda37ed0	-0.07983172
44	0x3eab1ebf	0.33421895
45	0xbd0a151e	-0.033711545
46	0x3de7b6dd	0.11314175
47	0xbed2f595	-0.4120299
48	0x3ddbc3d3	0.1073071
49	0xbe85a622	-0.26103312
50	0x3e315132	0.1731613
51	0xbdbe884e	-0.09303342
52	0x3d5e1a1a	0.05422411
53	0xbf300cc4	-0.6876948
54	0xbe061ca5	-0.13096865
55	0xbd137b8b	-0.03600649
56	0x3e6d52c2	0.23176101
57	0xbefa3477	-0.48868152
58	0xbdbb5832	-0.09147681
59	0xbd71ddcc	-0.059049413
60	0x3e70ef5e	0.23528811
61	0xbeec6223	-0.46168622
62	0xbeef7f56	-0.46776837
63	0x3e33e375	0.17567237
64	0x3d3115b0	0.043233573
65	0x3e1b951f	0.15193604
66	0xbe0a6118	-0.13513601
67	0xbed591ee	-0.41712898
68	0x3dbae59f	0.09125828
69	0xbdcc11cb	-0.09964331
70	0xbe80d596	-0.25162953
71	0xbd8154c6	-0.063149974
72	0xbeda7fac	-0.4267553
73	0xbe838d3f	-0.256937
74	0x3ead6358	0.33864856
75	0xbe9e0ad1	-0.30867627
76	0xbe9182bf	-0.28420064
77	0xbed82049	-0.42212132
78	0xbf17b071	-0.59253603
79	0x3eee7855	0.4657618
80	0xbecef97c	-0.40424716
81	0xbd10bc8f	-0.035336073
82	0x3db561bc	0.08856532
83	0x3e5fb580	0.2184658
84	0x3e4d4a22	0.2004781
85	0xbabcfc7a	-0.0014418506
86	0xbea60128	-0.32422757
87	0x3e3980f1	0.18115593
88	0x3ed9eec3	0.42564973
89	0xbee13564	-0.43986046
90	0x3e3be46d	0.18348856
91	0xbe263dd3	-0.16234522
92	0x3dc3cafc	0.095602006
93	0xbedb9df0	-0.42893934
94	0x3d4a28b3	0.04935522
95	0xbdf954da	-0.12174387
96	0xbf011737	-0.5042605
97	0x3eb7a8df	0.35871026
98	0xbeb6a573	-0.35673103
99	0x3e7392ca	0.23786464
100	0x3cf4b9e6	0.0298738
101	0x3ebae5f6	0.3650357
102	0x3e8aae98	0.2708633
103	0x3ed95a6f	0.42451808
104	0xbc37490b	-0.011186848
105	0x3e251c56	0.1612409
106	0x3e7ca8c7	0.24673758
107	0x3e3e2d64	0.18572003
108	0x3ee38ba0	0.44442463
109	0xbaf3a1ea	-0.0018587683
110	0x3e9a235a	0.30105096
111	0xbde9c4b5	-0.11414472
112	0x3e7ec99c	0.24881595
113	0xbe9476a0	-0.28996754
114	0xbe464bbf	-0.19364832
115	0x3d30d27b	0.04316948
116	0x3e48c8cf	0.19607852
117	0xbe14414a	-0.14478031
118	0xbe8f1fbd	-0.27953902
119	0xbefba636	-0.49150246
120	0xbd2dbdf0	-0.042417467
121	0x3d6744b1	0.056461994
122	0x3cd2ba48	0.025723591
123	0xbf1bf3fa	-0.60919154
124	0x3c0a4442	0.0084391255
125	0xbed19545	-0.40934196
126	0x3dabc3ca	0.08386953
127	0x3e0dc4c2	0.13844588

critic.2.weight f4 [64, 128]
0	0x3e987ac7	0.29781172
1	0x3e81be26	0.25340384
2	0xbe1c32df	-0.15253781
3	0xbe862134	-0.26197207
4	0xbe45d4e0	-0.19319487
5	0x3e0e36e4	0.13888127
6	0xbdc71ffd	-0.09722898
7	0x3eb262cc	0.34841
8	0xbeaa3c1c	-0.33248985
9	0xbda92701	-0.082593925
10	0xbea493f9	-0.32144144
11	0xbe32adf7	-0.17449175
12	0xbcbbeae7	-0.022939159
13	0x3f21e6b8	0.63242674
14	0x3d7812c8	0.060564786
15	0x3d31d43b	0.04341529
16	0x3e990a62	0.29890734
17	0x3e02db09	0.12778868
18	0x3e91773c	0.2841128
19	0xbeb40dfe	-0.35166925
20	0xbf015db4	-0.50533605
21	0xbdfe17a2	-0.12406851
22	0x3e0b892f	0.1362655
23	0x3eb57fa6	0.3544895
24	0x3e56ca79	0.20975675
25	0xbe6a4dbe	-0.22881219
26	0xbe1046e0	-0.14089537
27	0xbe668ff9	-0.22515859
28	0xbf2287d8	-0.6348853
29	0xbe767846	-0.24069318
30	0x3e7fe131	0.24988247
31	0x3e85717b	0.2606314
32	0x3ed99960	0.42499828
33	0x3e7518fa	0.23935309
34	0xbe917cec	-0.2841562
35	0xbdc99cef	-0.09844386
36	0xbe3c0653	-0.18361787
37	0x3f127495	0.5720914
38	0xbccda551	-0.025103243
39	0xbd93f947	-0.0722528
40	0xbe1fde74	-0.15612203
41	0x3ef452c6	0.477194
42	0xbda0b3d7	-0.07846802
43	0x3ec795f9	0.38981608
44	0x3cfc4f79	0.030799614
45	0xbeb33b38	-0.35006118
46	0x3e872d38	0.26401687
47	0x3e71c9b7	0.23612104
48	0xbeb21b8e	-0.34786648
49	0xbdef8853	-0.11695924
50	0xbc99e193	-0.01878432
51	0xbfb74105	-1.4316717
52	0x3cd14088	0.025543466
53	0x3f0fa6d5	0.5611394
54	0x3e775cfc	0.24156564
55	0x3d053e29	0.032529984
56	0x3e10661b	0.1410145
57	0xbc208839	-0.009798103
58	0xbe769b92	-0.24082783
59	0xbe06b3b6	-0.13154492
60	0x3d575675	0.052572686
61	0xbc837b0d	-0.016049886
62	0xbe7481c7	-0.23877631
63	0xbdbf357f	-0.093363754
64	0xbcf84b7e	-0.030309435
65	0xbdbc88e5	-0.09205798
66	0x3d2be999	0.041970823
67	0x3e713cff	0.23558424
68	0xbe86254c	-0.2620033
69	0xbe66c66c	-0.2253663
70	0xbd281ccc	-0.041043088
71	0xbe725646	-0.23665723
72	0x3e69935b	0.22810118
73	0xbeb8b2cb	-0.36073908
74	0xbe5fa118	-0.21838796
75	0x3eed88cb	0.46393427
76	0x3e61bf47	0.22045623
77	0x3c9eb01d	0.019371087
78	0xbbe4bfbf	-0.0069808657
79	0xbe1e4c41	-0.15458776
80	0xbdcbf949	-0.09959657
81	0xbed2eeec	-0.41197908
82	0xbdddcee0	-0.10830474
83	0xbe38f0a6	-0.1806055
84	0xbd9087dc	-0.07057163
85	0xbe4ef254	-0.20209628
86	0xbd1be4ad	-0.03805988
87	0xbef3dc61	-0.47629073
88	0x3e198c2f	0.14994882
89	0x3ee5c653	0.44877872
90	0x3d3ce16c	0.046113417
91	0xbdcb6214	-0.09930816
92	0xbe0fde30	-0.14049602
93	0x3ed2c962	0.41169268
94	0xbe5ed65a	-0.21761456
95	0x3e858646	0.26079005
96	0x3e89169e	0.26775068
97	0x3d9ad67b	0.0756044
98	0x3ea99935	0.331247
99	0xbe910b8a	-0.28329116
100	0xbe293058	-0.16522348
101	0xbe1f88d3	-0.15579538
102	0xbd73d28e	-0.059526972
103	0x3cca7dc0	0.024718165
104	0xbe92ad5a	-0.28647882
105	0xbf66b96d	-0.9012669
106	0x3c5d8ef1	0.013522849
107	0xbc42a15a	-0.0118792895
108	0xbedb7a9c	-0.4286698
109	0xbe89c64b	-0.26909098
110	0x3e86b6bc	0.2631129
111	0xbdce87ae	-0.100844726
112	0xbec77260	-0.3895445
113	0xbda58c0a	-0.08083351
114	0xbd632266	-0.055452727
115	0xbf0a902f	-0.54126257
116	0xbecfd070	-0.40588713
117	0x3e29728f	0.16547607
118	0x3f620dbe	0.8830222
119	0x3de25fb9	0.11053414
120	0x3dab46e3	0.0836313
121	0xbe84ca72	-0.25935704
122	0xbde7a1d1	-0.11310161
123	0x3e673e4a	0.22582355
124	0x3e88facb	0.2675384
125	0x3e251354	0.16120654
126	0xbeba9359	-0.36440542
127	0xbd06c68d	-0.032904197
128	0xbe3cae43	-0.1842585
129	0x3da20b28	0.07912284
130	0xbe016728	-0.12637007
131	0xbe7db19f	-0.24774788
132	0x3e02f9a7	0.12790547
133	0xbe86a50b	-0.26297793
134	0xbeb08d80	-0.34482956
135	0x3ec709d0	0.38874674
136	0xbe208dbc	-0.15679067
137	0xbe9f779f	-0.3114595
138	0x3d0fc4f4	0.03509994
139	0xbc016cd3	-0.007899481
140	0xbe977bed	-0.29586735
141	0xbea55020	-0.32287693
142	0xbe22dbec	-0.15904206
143	0x3eb1a5af	0.3469672
144	0xbc130819	-0.008974099
145	0xbed03b8e	-0.40670437
146	0xbcae4df6	-0.021277409
147	0xbe431ad2	-0.190532
148	0x3f087f51	0.5331927
149	0xbee138cf	-0.43988654
150	0xbe27371f	-0.16329621
151	0xbee54696	-0.44780415
152	0xbe3198b9	-0.17343415
153	0xbe123015	-0.14276154
154	0x3e655e23	0.22399192
155	0x3b92a177	0.0044748145
156	0x3e28cc3b	0.16484158
157	0x3cafd56d	0.021464074
158	0x3eb30fcd	0.34972993
159	0xbe88d9ce	-0.26728672
160	0x3e911ae6	0.28340834
161	0xbf9de86d	-1.2336556
162	0xbe9a669c	-0.3015641
163	0xbea4664e	-0.32109302
164	0x3e82ebed	0.25570622
165	0xbe04b2f6	-0.12958893
166	0x3ec411d6	0.38294858
167	0xbe1eb454	-0.15498477
168	0x3f24f945	0.64442855
169	0x3ec3914e	0.38196796
170	0xbf90707b	-1.1284326
171	0x3e55e33c	0.20887464
172	0x3dc92f0a	0.09823425
173	0xbeb45db3	-0.35227737
174	0x3d3253fc	0.043537125
175	0xbf2d46a9	-0.67685944
176	0xbeb506a0	-0.35356617
177	0x3db13a8a	0.086537436
178	0x3d4d0817	0.050056543
179	0xbed9d1d4	-0.425429
180	0xbea6582a	-0.3248914
181	0x3e9e34ad	0.30899563
182	0x3ed9c21f	0.42530915
183	0xbd6c9870	-0.057762563
184	0x3e670320	0.22559786
185	0x3efd0801	0.4942017
186	0xbab8123c	-0.001404352
187	0x3eb42eb4	0.35191882
188	0x3d761e8f	0.060087737
189	0xbe89f7bf	-0.26946828
190	0xbe982385	-0.297146
191	0x3e23dbd5	0.16001828
192	0x3e71157d	0.23543353
193	0x3e70fadb	0.23533194
194	0xbeed81e0	-0.4638815
195	0xbd056dd6	-0.03257545
196	0x3c5358a1	0.012899549
197	0x3ce6cadb	0.0281729
198	0x3e8f620a	0.28004485
199	0x3ed4bbdf	0.41549584
200	0x3e74aa00	0.23892975
201	0xbec8fd78	-0.3925588
202	0x3ebb24b1	0.3655143
203	0xbebe8683	-0.37212
204	0xbed1e089	-0.4099162
205	0xbea11724	-0.31462967
206	0x3d24307a	0.040085293
207	0x3ecafdf7	0.39646885
208	0xbf5534cd	-0.8328369
209	0xbc3b3425	-0.011426006
210	0xbea178b4	-0.31537402
211	0x3f86d891	1.0534841
212	0x3dd6d210	0.10489285
213	0xbefef15d	-0.4979352
214	0x3d8be9cf	0.06831705
215	0x3e9af76b	0.3026689
216	0xbda715df	-0.081584685
217	0xbf100221	-0.5625325
218	0x3da25704	0.07926753
219	0xbeb4074b	-0.35161814
220	0xbd891484	-0.06693366
221	0x3f15b422	0.58477986
222	0xbe6c8cd3	-0.23100595
223	0xbd949a0b	-0.07255944
224	0xbe619315	-0.22028764
225	0xbdfb2c3e	-0.12264298
226	0x3f02ce37	0.5109591
227	0x3e56e391	0.20985247
228	0xbd986f53	-0.074431084
229	0xbd9cf43d	-0.07663772
230	0x3e3643ec	0.17799348
231	0xbbc69447	-0.0060601565
232	0xbe74e670	-0.2391603
233	0xbd32004c	-0.043457314
234	0xbf4e87e5	-0.8067611
235	0x3f1a7583	0.6033556
236	0x3e267203	0.1625443
237	0x3f73f4d9	0.9529548
238	0x3c2184fa	0.009858364
239	0x3e07461e	0.13210341
240	0xbe985073	-0.29748878
241	0xbda0e5a4	-0.078563005
242	0x3e000980	0.12503624
243	0xbe2ddcb0	-0.16978717
244	0xbee4bbbf	-0.4467449
245	0x3ee21154	0.44153845
246	0x3f7bdcbd	0.98383695
247	0x3e983bd7	0.29733154
248	0x3c52da67	0.012869454
249	0x3e522287	0.20520984
250	0xbd8884dc	-0.06665966
251	0x3f0935ba	0.53597605
252	0x3ed6cf9a	0.41955262
253	0xbd4715b1	-0.04860467
254	0xbe852277	-0.26002857
255	0x3edb539c	0.42837226
