legged_gym/logs/tron1/Mar26_09-33-42_track_3.0_feet_contact_force_-0.0035_stand_still_-1.5_base_height+0.1_feet_regulation_-0.15_track_contacts/model_0.pt (torch, 375882 bytes, 48 tensors)

std f4 [8]
00000000: f1c4 7d3f 8cba 7e3f 860f 803f 8266 803f
00000010: 9360 7e3f fba4 7f3f 0b24 803f 44ce 7e3f
0.99128634 0.995034 1.0004737 1.0031283 0.9936611 0.99861115 1.0011 0.99533486

actor.0.weight f4 [128, 33]
00000000: 4a44 8bbc 24b2 bc3d 01b6 263e 9807 bbbc
00000010: 2ca5 d4bc 6e10 253e 3481 bebc 2783 ca3d
00000020: 2842 debd e8f3 653b 3bb6 b53d b32a 22be
00000030: 9375 02be b692 33bd 43a5 06be 6441 273e
00000040: 47f3 15bc f8f0 973d 442d 27be a746 febd
00000050: b9f7 5abd 8241 6fbc c077 15be faea 0b3d
00000060: ad6a 933d 8c16 35be 0b92 08be ecb5 b33c
00000070: 9004 ea3a 2872 eabd 106c de3d 4d27 01bd
00000080: 4d60 c43d 9ab1 19be 023e a2bc 46a0 0dbe
00000090: f6df 24bd fa3e 0b3e e1b5 613d bd00 4bbe
000000a0: 269a 9d3d 78b3 1bbe f73a babd 84b3 a53d
000000b0: ab16 da3d 96a8 e83d fbb1 003d 6aab f3ba
000000c0: 4116 b0bd 835f f2bd 4e9f 90bd 1fe9 dfbd
000000d0: 3c4c 393e d152 343d 2da2 273d eff6 903d
000000e0: ef03 b33d 674a 8a3b 27fe 8e3d a524 1dbe
000000f0: 300a 233e 23ec 1f3e fdf1 df3d 861d b63d
00000100: 9879 a93d 03c9 543d ae6b a83d 656f 98bc
00000110: 30c3 263d 3072 14be 5381 77bd fee5 043d
00000120: 73ea 09be a2a3 b2bd 71eb 1cbc ba19 0c3e
00000130: 867c 4f3e 1fa5 243e 952d ed3c a6da 31be
00000140: 5a63 02be c233 d13c 0396 5b3c debe 903d
00000150: fa75 3abe 0950 07be 4426 dcbd 8812 193e
00000160: 31ae 2cbe 2342 bdbd d5b1 013e 9697 19bd
00000170: d0a3 0fbe 2995 eabd 9f1e 5e3c c76c 0d3e
00000180: 2f24 b93d a087 8f3d 764a 93bd 1615 9f3c
00000190: d7ec 05be 45d5 f9bd 8a2e 9cbd 19d9 053e
000001a0: 363a 65bd 5cfa 37be ab5d e33d 4d80 eebb
000001b0: 77ed e13c 46ef 463d a308 8abc d227 443d
000001c0: 06f5 dd3d be3b 20bd 7e70 023e 9a67 ff3c
000001d0: beb2 233c 1cae 0abe b81c 133e ee18 ff3c
000001e0: 8115 cf3d da1f cc3c 17ed ad3d 2b94 083e
000001f0: 1436 dfba 7d06 643c 0a36 1bbe 644c 49bd
00000200: ef14 fabd 084c 163e 6dbb 433d 097e 1dbe
00000210: 1b07 73bc 570d 40bd 1385 e53d 5416 cc3d
00000220: bd6c b73d 6a76 ec3d a167 fdbd 70b4 943d
00000230: 1507 a5bd 1f14 dbbc bbb6 16bd 84a7 663d
00000240: 00f3 2f3e 5aa3 1b3e 0f6d e4bd c93c 0b3e
00000250: 70a0 68bd 325a 0ebd 7b23 b1bd e29c 0fbe
00000260: 9531 92bd 1113 47bd df17 2dbe b0bb a63d
00000270: d7c3 a0bc 84eb eb3c 148d 21be d408 003d
00000280: dfce 47bd 62ef efbd cb07 a13c eb40 0abe
00000290: 01b7 1dbe 3af8 51bd 67f0 1f3e 3c8c e8bc
000002a0: fc12 9cbc 88c0 2b3c 83a4 323e 01d3 323e
000002b0: 75dc 84bd dda4 0c3c f23a 1dbe d804 c2bd
000002c0: 35ad d33d 62d9 39be b201 02be c079 be3d
000002d0: 9795 0ebe 6b50 9fbd 5430 02be 11ee 0bbe
000002e0: 9cee 74bd 6426 653d b1d8 a1bd bb0b 9dbd
000002f0: 79c5 00bd 9fd4 89bd 0cb3 1a3e b178 013d
00000300: 63c6 26be dfe1 1ebe 0376 2c3e 4517 213d
00000310: cd44 87bd a727 163e dd3a 32bd f891 2d3d
00000320: 3ef1 3fbe c84e 25be bef9 17be c4a6 3e3d
00000330: 7003 fa3d 1aee bdbd abc1 ac3d bf38 1e3e
00000340: a6dd 0ebc 3159 663c 486b 52bd c02f 513c
00000350: 2567 0d3e 4d12 e93d a020 09be 1b2c 7f3d
00000360: 76f1 c0bd 48ce 113e 0dc6 24be 128b 2dbe
00000370: 7d90 ba3d 5012 7cbd cc0d 623c a82a 68bc
00000380: e4ed 903c c558 2ebd 6ee8 1d3d d561 97bd
00000390: 0cc8 ec3d 2ba8 843d 2d22 12be 0105 ebbb
000003a0: 9276 9b3c 4680 9ebc 7d76 103e 1c67 82bd
000003b0: 90ed 993d ae9d edbd 34db cbbb 28e0 dcbd
000003c0: 9ad6 94bc 7572 323d 4b9e 0abd f293 123e
000003d0: b7c3 32bd 654f 9f3d 6cd2 81bc 9270 bfbd
000003e0: 30fc 143d a4d8 aabd 4f01 af3d edd6 96bd
000003f0: e82d 0ebe 942a 183e 636f 3bbe 7695 063d
-0.017000336 0.09213665 0.16280366 -0.02283077 -0.025957666 0.16119549 -0.023254968 0.098882966
-0.10852462 0.0035088006 0.08872648 -0.15836601 -0.12740164 -0.043841086 -0.1314898 0.16333538
-0.00915224 0.07419008 -0.16325861 -0.124158196 -0.053458903 -0.014603021 -0.14596462 0.034159638
0.07198081 -0.17684382 -0.13336961 0.021937333 0.0017854143 -0.11447555 0.10860455 -0.03153162
0.095886804 -0.15009156 -0.019804958 -0.1383067 -0.04025265 0.13598242 0.055105094 -0.198245
0.07695417 -0.1520518 -0.09093278 0.080908805 0.10648855 0.1136028 0.031419735 -0.0018590514
-0.085979946 -0.11834624 -0.07061635 -0.10933136 0.18095487 0.044024292 0.040926147 0.07078349
0.08740985 0.004220295 0.069820695 -0.1534601 0.15921855 0.15617423 0.109348275 0.0889235
0.08275145 0.051949512 0.08223663 -0.018607805 0.04071349 -0.14496684 -0.060426068 0.0324459
-0.13468342 -0.08722617 -0.009577618 0.13681689 0.20262346 0.16078614 0.0289524 -0.17368564
-0.12733212 0.025537375 0.013402465 0.07067655 -0.18209067 -0.13214125 -0.10749486 0.14948475
-0.16863324 -0.0924113 0.12665494 -0.03749808 -0.14027333 -0.11454231 0.013557105 0.13811027
0.090401046 0.0700829 -0.07191937 0.019419234 -0.13078628 -0.12198881 -0.07626064 0.13071097
-0.055963717 -0.17966598 0.1110185 -0.0072784782 0.027579052 0.048568033 -0.016849821 0.047889538
0.1083775 -0.039119475 0.12738225 0.03117733 0.009991346 -0.1354298 0.14366424 0.031139817
0.101115234 0.024917532 0.08492487 0.13337772 -0.0017029666 0.013917563 -0.15157333 -0.049145117
-0.12211024 0.14677441 0.047786165 -0.1538011 -0.014833237 -0.046887722 0.112070225 0.09965196
0.08956287 0.11546023 -0.12373281 0.07260978 -0.080579914 -0.026742993 -0.03679536 0.0563121
0.17182541 0.15199032 -0.11153614 0.13597406 -0.05679363 -0.034753986 -0.086493455 -0.1402469
-0.07138363 -0.048602168 -0.16903637 0.08141267 -0.019624634 0.028798826 -0.15776473 0.03125842
-0.048781272 -0.117155805 0.019657036 -0.13501327 -0.15401842 -0.051262118 0.1561905 -0.028387181
-0.019052021 0.010482915 0.17445569 0.17463304 -0.06487361 0.008584228 -0.15354517 -0.0947358
0.10335771 -0.18149331 -0.12695959 0.09300566 -0.13924251 -0.077790104 -0.12713748 -0.13665034
-0.059797868 0.055944815 -0.07902659 -0.07668253 -0.031438325 -0.067300074 0.15107363 0.03160924
-0.16286616 -0.1551585 0.16841893 0.039328832 -0.066049196 0.14663564 -0.043513168 0.042375535
-0.1874437 -0.16143334 -0.14841363 0.04654576 0.12207687 -0.0927393 0.08435377 0.15451334
-0.008719837 0.014059351 -0.051371843 0.012767732 0.13808878 0.11380444 -0.13391352 0.06229792
-0.09421055 0.14238846 -0.16091175 -0.16947582 0.0910959 -0.0615409 0.013797235 -0.014170326
0.01769156 -0.042565126 0.03855174 -0.07391707 0.115615934 0.06477388 -0.1427085 -0.0071722274
0.018977437 -0.019348275 0.141077 -0.06367323 0.075160146 -0.11602341 -0.0062211994 -0.10784942
-0.018168736 0.043566186 -0.033842366 0.14314249 -0.04364368 0.07778815 -0.015847407 -0.09347643
0.036373317 -0.08342102 0.085451715 -0.073652126 -0.138847 0.14859992 -0.1830421 0.03285738

actor.0.bias f4 [128]
00000000: 39b8 5cbd d0ad 2e3a f142 75bd 4705 6dbc
00000010: 90a1 c13d 700d efbd d3b3 9ebd f963 8c3c
00000020: 444e e8bd c3be 113e 5a1e 95bd cf44 163e
00000030: 26ab 3fbc 9ec0 363e 9a41 05bd 91ef d9bd
00000040: d89a bc3d ba08 f23d 904c 16be c58a cabc
00000050: 4e2c 003d d380 e3bd e7a3 263e ffa5 8a3d
00000060: c89e 63bd 7754 e5bc d3ea c83c e108 2bbe
00000070: aae3 013d 61cd 0b3e 183e e63d fe88 063e
00000080: 3900 a7bd c54a 0f3d 0921 e93c 1819 debd
00000090: 6053 983d 8b0a 23bd 90ab 17bd 70c3 163e
000000a0: 8804 273e f73b 503d 55d4 0b3d 9501 873d
000000b0: 18b0 a93d 338d d83d 144f d23d 8c5f 43bd
000000c0: b4e9 1a3e 1155 0a3d 356a 4a3d 8e3c b73d
000000d0: a3e1 0a3e 9e11 a63d 87ae f03d fa35 95bd
000000e0: a9c2 e33d 630d c3bc 25b9 b63d 628f 6abd
000000f0: ae8e a9bd 7718 163e fd8e 96bd 9767 fdbd
00000100: eaf1 85bd 142d a1bb 9d22 ff3d 1989 c13d
00000110: 0f54 b03d 9ef7 9f3d b4c5 85ba cf52 0abe
00000120: 7f28 30bd 39d4 22be cd76 ce3d fb6f 07be
00000130: 2b3b 7c3c 5367 143e b4cf eabd 2ba3 d0bc
00000140: 30e1 40bd 8088 ef3d 8d00 eb3d e603 a1bc
00000150: 3996 9cbc f09d c73c 63bc 0dbd 4549 76bd
00000160: 7f80 09be a3d4 b8bc 8b80 7e3d 704b cb3b
00000170: 53f3 d1bb a4d8 5fbd 6691 263e 87ba 2d3c
00000180: 7cb4 cb3b f7ee 553d e5ed b6bc 1658 a83d
00000190: 4dac 453d 5e2f e3bc 2b58 1ebe 0abb a1bd
000001a0: 5a6c 633d 81cf e93d c7bf 0cbd 9376 203d
000001b0: d28c e73d f1a8 4d3d b985 013e fcff b53d
000001c0: 2c74 dfbd 12e4 3ebd d649 cfbb 8930 1e3e
000001d0: 1268 4cbd 2bc6 b43d 8a4d 453a 0b5b 053d
000001e0: 20da 173e 4ff0 30bc d35a 80bd d380 2a3a
000001f0: 29b5 ff3d 1fdd 303e 106d 253e 2812 853d
-0.053886626 0.00066634733 -0.059878293 -0.01446659 0.09454644 -0.11672485 -0.077491425 0.017137514
-0.11343053 0.14232926 -0.0728118 0.14674686 -0.01169852 0.17846915 -0.032533266 -0.10641397
0.092092216 0.11818071 -0.14677644 -0.024724374 0.031292252 -0.11108556 0.16273461 0.067699425
-0.055571347 -0.027994378 0.024526035 -0.16702606 0.031711258 0.13652565 0.11242312 0.13138196
-0.08154339 0.034983415 0.028458135 -0.1084463 0.074377775 -0.039804976 -0.03702885 0.14722991
0.16310322 0.050838437 0.034138042 0.065920986 0.0828554 0.105738066 0.10268989 -0.047698542
0.15128213 0.033772532 0.049417693 0.08947097 0.13562636 0.08108829 0.117520384 -0.07285686
0.11121113 -0.023810094 0.08922032 -0.057265647 -0.08279167 0.1465777 -0.073514916 -0.12373274
-0.06540282 -0.004918704 0.12457774 0.094499774 0.08609783 0.07810901 -0.0010206015 -0.13508151
-0.04300737 -0.15901269 0.10081253 -0.13226311 0.015394966 0.1449254 -0.114653975 -0.02546843
-0.047089756 0.11695957 0.114747144 -0.01965518 -0.0191146 0.024367303 -0.034603488 -0.06012847
-0.13427924 -0.02256233 0.062134307 0.006204061 -0.0064071803 -0.054649964 0.16266403 0.010603554
0.006216584 0.052229848 -0.022330234 0.08219926 0.048260022 -0.027732547 -0.15463321 -0.07897003
0.055523254 0.11416531 -0.03436258 0.03917558 0.11306156 0.050209943 0.12648667 0.08886716
-0.1091083 -0.046604224 -0.0063259406 0.15448202 -0.049903937 0.0882686 0.0007526508 0.03255753
0.14829302 -0.0107994815 -0.06267323 0.00065041817 0.124857254 0.17271851 0.16154885 0.06497604

actor.2.weight f4 [64, 128]
00000000: 0a4c ec3c 7b26 a63c c374 dfbc 3fe9 ab3d
00000010: d5ac d83b bab1 55bb c0a5 5fbd 0870 46bd
00000020: 1571 303d ac2d 8abc cdf2 463d aaa2 213d
00000030: 3766 023d 87e3 8cbd 84fe afbd 6b16 363d
00000040: c9b9 08bd 3514 a33d 36cc 8f3d 9723 55bc
00000050: 0a1c fcbc 6325 8cbd 77db 3e3d aae9 7cbd
00000060: d5af 3c3c 2abd 923d 6598 bbbd 8fca a8bc
00000070: e9b2 363b d8b4 883c ff1c 47bd e5ea 8f3d
00000080: 56a1 37bd 2cd3 35bc ede7 00bd 4296 43ba
00000090: 366b a13c dbf1 973d bfbc 753b 540b 833d
000000a0: 0707 903d f48d 6bbc 621d 963d 9526 8c3d
000000b0: f7e3 db3c e7d1 a53d 3022 82bd 625b 85bd
000000c0: 1a7a 9c3d d535 ac3d d470 de3b 9c2a 2f3d
000000d0: 7ef7 debc cf99 883c 000c b63a 2da3 89bd
000000e0: a08f 233d afd1 903d 97d2 6ebd b03d a9bd
000000f0: d226 393d 2bb1 86bc 5dfa 47bd b1f0 dbbb
00000100: 3502 b33d da83 af3d 9fc0 b73b 4f59 87bc
00000110: 9e93 32bc a4a6 88bd 086f 173b 431e aabb
00000120: 0803 61bd 0ec0 653d 4fcb 9b3d dccb d6bc
00000130: dc69 6f3c 6d4c a03d 4224 6b3d 28c0 82bc
00000140: fa77 4d3d 30b0 a5bd ef02 9a3d f086 3a3c
00000150: 2607 85bd 0f94 ac3c 759f 99bd b4f1 04bd
00000160: 2e84 d0bc a7cf 543d ce7d a0bd bb28 35bd
00000170: 576c 983d 2e7a 763d 6012 d03c 0334 3e3d
00000180: 2d03 eabc faec b23d e3c1 663d dc95 52bc
00000190: a9f3 893b b129 f43c ea7c f03c f5d1 a0bd
000001a0: 269e a9bd 2430 973d 6510 73bd b8eb 0bbd
000001b0: ef6f 923d 97cc b3bc 30a5 913d b7a2 efbc
000001c0: 0728 36bc 6300 3abd a180 603d a2eb 943d
000001d0: 5215 81bd 4324 f9bc 07e1 73bc 4f2e 383d
000001e0: 0104 9ebd d6f5 4a3d eece 323c a220 89bb
000001f0: e20c 923d b7bf 1a3d b552 04bd bd3f 98bc
00000200: 6ff6 9dba fb6a de3c e1a0 67ba 1dbf a1bd
00000210: f75a 9ebc 28f0 96bc 23c2 25bd d40c 9bbd
00000220: cd73 3bbb accf 153d 798c a9bd 651c 88bc
00000230: f2e6 e9bc c428 05bd 9871 3a3d c22e 953d
00000240: 96ff 1dbc 3612 5b3b f245 143d 84d9 e83c
00000250: 65dd d83b 9c06 33bd aabd 8abd 0b10 88bd
00000260: 4468 c53b 71d5 09bd 4ca6 693d 535e 41bb
00000270: a528 143d 525b 61bd 947c 1e3d e6af 653d
00000280: 2406 1fbd 382f b83d 2e49 133c e4e8 abbd
00000290: 209c 3f3d 6b8a ae3d b558 8bbc c338 6bbd
000002a0: 55cb 4fbc b9ae 8fbd c220 c6bc 9824 83bd
000002b0: d5c8 7dbd ac82 a03d 7d66 d9bc 522e dc3c
000002c0: 4d8d 81bd 5167 38bd f128 b53d b1af 8bbc
000002d0: 85e5 4c3d 3bf3 8ebd 8fa4 9dbd ea87 91bd
000002e0: 6437 6fbc e9b2 703d 77ff 82bd 7d7b 99bd
000002f0: 54cc 8bbc fff3 b43c a141 4e3d 428a f9bc
00000300: 688c f8bc 478b 4f3d c67e a5bc ffc7 96bd
00000310: 8cc8 703c 0aa2 66bc 8862 acbd 2f74 c3bc
00000320: 3a05 83bd 27dd 183d 296b fe3c 92cf 4d3d
00000330: 5841 343d 962e ab3d cd82 6f3d fd92 c83b
00000340: c6d2 143d 38b8 a7bd 8e1d 473d 166e fd3c
00000350: a1b9 a03d 01ad b23c 8c90 2bbd 8769 38bd
00000360: 64f8 0d3d d310 1ebd 9511 823d 64ca e13c
00000370: 2c37 853c 0bab ae3d 35cf 42bc e0df 9bbc
00000380: 675f 873d d3d3 4d3c bbc3 b5bc 2790 6cba
00000390: 829d 9ebd 57a3 ab3d 0f23 f93c f115 b0bd
000003a0: 9274 123d bdf6 b13b 8e04 a5bc 7525 55bd
000003b0: 8394 9cbd 5bd6 0b3d bd8a ac3d e993 09bd
000003c0: ea7b 8fbd 0309 7ebd 94b1 913d 3b6c 9f38
000003d0: d976 a83d 8502 af3d 6a05 7ebd 21c7 f93c
000003e0: 23c0 0b3d d4c8 6a3d d805 063d d8da 3d3d
000003f0: 99c5 513d 3925 df3c c0bb 26bd 3455 57bb
0.028844852 0.02028202 -0.027277356 0.083940975 0.0066124 -0.0032607154 -0.05460143 -0.048446685
0.043076593 -0.016867481 0.048571397 0.03946177 0.03183576 -0.06879335 -0.08593467 0.044454973
-0.033380304 0.079628386 0.07021372 -0.013008974 -0.030775089 -0.068430685 0.046596017 -0.061746277
0.011516531 0.071649864 -0.09159926 -0.0206044 0.0027877635 0.016687796 -0.048611637 0.070272245
-0.044831596 -0.011097711 -0.03147118 -0.000746105 0.019704442 0.07419177 0.0037496535 0.06398645
0.0703259 -0.014377106 0.07329823 0.068432964 0.0268421 0.08096676 -0.06354177 -0.065115705
0.076404765 0.08408705 0.0067883525 0.042765245 -0.027217623 0.016674904 0.0013889074 -0.067205764
0.039931893 0.07071244 -0.058306303 -0.08263719 0.045203038 -0.016441902 -0.04882275 -0.0067120423
0.08740655 0.085700706 0.005607679 -0.016522078 -0.0108994525 -0.06672409 0.0023106951 -0.0051915958
-0.05493453 0.05609136 0.076071374 -0.026220255 0.014612641 0.07827077 0.057407625 -0.015960768
0.050163247 -0.08090246 0.07520091 0.011384711 -0.06495504 0.021066694 -0.07501117 -0.03245707
-0.025453653 0.051955845 -0.07836495 -0.044228297 0.07442539 0.060175113 0.025399387 0.04643632
-0.028565967 0.08736606 0.05633725 -0.012853112 0.0042099548 0.029805036 0.029356439 -0.07852546
-0.082821175 0.07382229 -0.059341807 -0.034160346 0.07150256 -0.021948142 0.07111585 -0.029252393
-0.011117942 -0.045410525 0.05481017 0.07271506 -0.06302895 -0.030412799 -0.014885194 0.04496604
-0.077156074 0.049550854 0.010913594 -0.0041847983 0.071313635 0.03778049 -0.032305438 -0.01858508
-0.0012051592 0.027150622 -0.00088359235 -0.0789778 -0.019330485 -0.018425062 -0.040468346 -0.07570806
-0.0028602958 0.036575004 -0.08278746 -0.016615102 -0.028552506 -0.03250958 0.045518488 0.07284309
-0.009643456 0.0033427603 0.036199518 0.028424032 0.006618189 -0.043707475 -0.06774457 -0.06643685
0.0060243923 -0.03365082 0.05704336 -0.0029505685 0.036171574 -0.05501873 0.038693026 0.056075953
-0.038824216 0.08993381 0.008989615 -0.0839403 0.04677975 0.08522495 -0.017010072 -0.05742718
-0.0126827555 -0.070157476 -0.024185542 -0.06403464 -0.061959106 0.07837424 -0.026538128 0.026877556
-0.06325779 -0.045020405 0.088456996 -0.01705155 0.050023574 -0.06979986 -0.07697403 -0.07106002
-0.0146006085 0.058764372 -0.06396382 -0.07494257 -0.017065205 0.022089003 0.050355557 -0.030461434
-0.030340388 0.050669935 -0.020202052 -0.07362365 0.014696252 -0.014076719 -0.08417231 -0.023859112
-0.06397481 0.037320282 0.031056957 0.050246783 0.04400763 0.08358495 0.05847435 0.006121038
0.03633382 -0.08189434 0.04861217 0.030936282 0.07847906 0.02181101 -0.041885898 -0.045022514
0.034660712 -0.038590264 0.0635101 0.027562328 0.01626166 0.085287176 -0.011890222 -0.01902765
0.066099934 0.01256271 -0.022188058 -0.0009024166 -0.07744886 0.08380764 0.030412225 -0.08597935
0.0357557 0.005431025 -0.020143773 -0.052037675 -0.07645514 0.034139972 0.084249 -0.033588324
-0.070060566 -0.062020313 0.071139485 7.60187e-05 0.082257934 0.085454024 -0.062016882 0.03049046
0.034118783 0.05732043 0.032720417 0.046351284 0.051213834 0.027239429 -0.040706396 -0.0032857182

actor.2.bias f4 [64]
00000000: c480 3c3d 3b28 93bd 85f8 72bc 88f8 043d
00000010: b3df 9ebc 320f 133c 2f4f 983d 4c50 283c
00000020: 42dc 3d3d 4992 8d3d 1e04 54bd 7980 a03b
00000030: 5d23 763c 9bf5 0c3d 7331 bbbd d4dd 60bd
00000040: 4a98 a2bc 02be a1bd 0311 b8bc b93e 943d
00000050: 815c 8cbd 220f bcbb 0161 8a3d 9e25 13bc
00000060: 264b c03c e899 1d3d 0db2 03bb 8338 e2bb
00000070: beeb 05bd 63a8 b8bd 876c f7bc 7f04 83bd
00000080: 0f41 f73c ebc3 87bd 3c2d 8c3c 67c8 6f3d
00000090: 280d fbbc bf1b 2cbc 366e a53d 3dfc 613d
000000a0: b378 1bbd 26ba 633d 9732 90bc f410 93bc
000000b0: 424b b3bc 63a7 4ebd 856c 033d 9cc7 94bd
000000c0: 96e6 dfbc 5334 a6bd 04bf 323d 0dc6 e1bc
000000d0: e93a 8c3d 1295 0dbc be92 863d edad 673d
000000e0: 8a23 94bd cecd 863d 3bc9 173d d75c 5dbd
000000f0: fed5 6e3c 8e7a 9bbd 33f0 91bd 9fb3 89bb
0.046021238 -0.07185408 -0.0148297595 0.03246358 -0.019393777 0.008975791 0.07436978 0.0102730505
0.046352632 0.06912667 -0.05176174 0.0048981276 0.01502308 0.034413915 -0.09140291 -0.05489905
-0.019848008 -0.07897569 -0.02246905 0.07238526 -0.06853581 -0.0057391087 0.06756783 -0.008981137
0.023473334 0.038476855 -0.002009514 -0.0069037094 -0.032695524 -0.09016492 -0.030203117 -0.06397342
0.03018239 -0.06629165 0.017111413 0.058540728 -0.030645922 -0.010504662 0.08077662 0.055172194
-0.037956905 0.055597447 -0.017602248 -0.01795242 -0.021886472 -0.0504526 0.032085914 -0.07264635
-0.027331632 -0.08115449 0.043639198 -0.027560258 0.06847174 -0.008641498 0.065709576 0.056562353
-0.07233341 0.06582223 0.037057143 -0.054043617 0.014577387 -0.07591735 -0.071258925 -0.0042023207

actor.4.weight f4 [32, 64]
00000000: fcfa 973d 59ac 37bd 15e9 f93d fb33 46bd
00000010: ce95 21bd 0c2c eb3d 683e e83b 3ee8 dbbd
00000020: 7462 b13d 6c88 a13b 6364 82bc 9edd f33d
00000030: 91e3 553d 61e2 cabd 30b0 08bd b381 f0bd
00000040: 1cf9 e0bc 13af 2b3d fdac 8b3d 9529 12bd
00000050: 84a7 bc3d e787 cb3d a5a8 693d bfd1 d5bc
00000060: f028 a33d 82f3 9e3d d15f b8bd cf7e 85bd
00000070: 49ef b13d 00c3 02bd b760 a2bd 6b99 6abd
00000080: 6db8 3d3c 26fb 3abd 7a68 1fbd c538 c9bd
00000090: 1b12 18bd a656 223d 3699 ea3d 41eb 7fbd
000000a0: 6b7d 82bd 1eda 143d 2c6a ee3d a909 3c3d
000000b0: a9e5 acbd 1e7d bd3d 6deb 783d 4da2 b23c
000000c0: 5f8f 82bd 6d3d 0cbd eba6 a1bd eece 1dbd
000000d0: 2ae8 873d c118 3d3d 80ee 17bd 68dd 8a3c
000000e0: eba8 3bbc 2095 803d 008d da3d 4107 d83d
000000f0: db3b c0bd 9ddc 8b3d b64d 393d d14c 00bc
00000100: 8915 923d 31a8 883c b05b d43d b8be 643d
00000110: db9e db3d 0391 cb3d d14f 003d fb2b d43d
00000120: 2278 0cbd 86eb 4fbd f709 e5bd 0b09 3ebd
00000130: dfdf 92bd 2e49 32bd 0560 bcbd 2f87 60bd
00000140: b15f 2cbd 6f0e e33d d96d 833d fb4b c5bd
00000150: 230b 84bd 2100 1d3d 1e0e 43bd f8eb ad3d
00000160: 898f c23c 6215 e5bd e75c 1cbd a7a6 d73d
00000170: eb29 54bd 2c6e 4abc 549f acbd c22d 9bbd
00000180: 1cef b73d 6943 b43d 9dc0 8fbc 64d0 f5bd
00000190: ff7c 013d 8f36 c2bd c6b5 4c3d 8c86 43bd
000001a0: 9420 96bc 183c a33d 2f41 e1bd 260f 58bd
000001b0: 9a5c 133c a7d0 8e3d b9ff 01ba 8b64 40bc
000001c0: f030 b8bd a6ac 763d 4393 d1bd d239 ed3d
000001d0: e87c 9a3d 7fee d4bd de87 e53d 0cc6 cdbd
000001e0: 4c0c 64bd 12fd 843d 0558 eabd 2024 a73d
000001f0: c8f4 473d 76a6 e5bd 54db c73d 70e5 f3bc
00000200: 4664 c03d f1fe 8cbd 611e 8abd bb63 f4bd
00000210: d062 a83d 1a50 a4bd 52de d3bd 4e1e 973c
00000220: 70a1 d13d e919 d13d 06a7 f43b 3203 db3d
00000230: 52b4 acbc 2e17 913d ac8d 85bd 93ea 9fbb
00000240: 6df8 b5bd b8aa 11bd 5bd0 a83d 708b a2bd
00000250: 7b65 2dbd d796 e7bc 32c8 50bd 5e8c f13d
00000260: 623c f03d 9f40 ffbd cd10 dc3d 8bd3 ddbd
00000270: e975 aabd 7313 23bd 1057 8f3c 874c f43d
00000280: 02b4 e83d d2ee b83d 2fd5 83bd 1123 d8bc
00000290: c386 5a3d c2af df3d 99d0 d1bd 1c78 a03d
000002a0: 8667 c83d dd30 e6bd cf08 a7bc 6ea2 e73d
000002b0: dbdd 92bd 1ae4 823d f3fb b5bd 5200 f1bd
000002c0: d82a d33d faf7 b7bd b661 ed3d d3cd e4bc
000002d0: a679 84bc 1bde a43d 9eab e03d 64f1 7c3d
000002e0: 57c1 003d ecca 9f3d 9b93 463c e040 1c3d
000002f0: e5d1 c03d 8bab ef3d 1a85 033d 575c eb3d
00000300: 57e7 5bbd f840 af3d 2fe4 05be c379 ac3c
00000310: f7f6 fcbd 6e2e a13c abb7 1ebd 2bec 7dbc
00000320: ff3d a4bc b140 bdbd 9ef6 44bb 037e 813d
00000330: d8b3 cc3d 849e a0bd 98ab 6ebd 877b f3bc
00000340: 4d90 3abd 7c7b b43b e7ae f0bd edce b1bc
00000350: 542f d13d e932 883d eb3b 1b3d b35d 943d
00000360: ecf6 27bc f5d1 d5bd 6791 bebd eba0 7fbd
00000370: da78 51bd 29a3 50bd 900c edbd 1cd7 123d
00000380: 4ded a33d c02e 0fbd 6e75 753d ab38 20bd
00000390: b324 21bd db21 bc3c 44d5 82bd d060 d23d
000003a0: bd08 923d 7d36 41bd 95a1 83bc 3f5b 43bd
000003b0: 0708 30bd 62bd 60bc b14c d0bd aaf5 c63d
000003c0: 5c25 24bd 0296 c03d 24cd ab3d fa95 e83c
000003d0: 50b3 733d dcf3 ad3d c1df bc3d 7eb3 7b3d
000003e0: b250 c43d 680e 08bc b96a e03c 686d c93d
000003f0: dcf3 c63d 2459 eebd 8b20 db3d d52a e63c
0.07420918 -0.044842098 0.1220266 -0.048389416 -0.039449506 0.11483011 0.0070875175 -0.10737656
0.086613566 0.004929593 -0.015917009 0.119075045 0.052218977 -0.099064596 -0.03337115 -0.11743488
-0.027462535 0.04191501 0.06820104 -0.035684187 0.092116386 0.09938031 0.057045598 -0.026100991
0.079667926 0.07761289 -0.090026505 -0.065183274 0.08688218 -0.031924248 -0.07928603 -0.057275217
0.011579615 -0.04564967 -0.038917996 -0.09825281 -0.03712664 0.039633416 0.11455004 -0.062480215
-0.06371578 0.036340825 0.116413444 0.04590765 -0.08442242 0.0925238 0.060771395 0.021805907
-0.06375002 -0.034238268 -0.07893165 -0.03852742 0.06636079 0.046166185 -0.037092686 0.016951278
-0.011453847 0.06278443 0.10671425 0.105482586 -0.093864165 0.06829188 0.045240127 -0.007830814
0.07133014 0.016681762 0.103690505 0.055845946 0.10723659 0.09939768 0.03132612 0.10359951
-0.034294255 -0.050761722 -0.11183541 -0.046395343 -0.07171606 -0.04352682 -0.09198002 -0.05481642
-0.042083446 0.11086737 0.06417436 -0.09633633 -0.06447437 0.0383302 -0.047620885 0.08492273
0.023750084 -0.11185719 -0.038174536 0.10529833 -0.05179779 -0.012355369 -0.08428827 -0.07577087
0.08981153 0.0880192 -0.0175479 -0.12002638 0.031613346 -0.094830625 0.04997804 -0.047735736
-0.018326081 0.07970446 -0.10998761 -0.05274882 0.008994246 0.06973391 -0.0004959065 -0.011742721
-0.08993709 0.060223244 -0.10233166 0.11583294 0.07543355 -0.10397052 0.11207555 -0.1004754
-0.05567579 0.06493582 -0.1144257 0.08161187 0.048817426 -0.112133905 0.097586304 -0.02977249
0.09394126 -0.06884564 -0.067440756 -0.119330846 0.08221972 -0.08023091 -0.103451386 0.018447068
0.1023587 0.1021002 0.0074662 0.10693969 -0.021082077 0.07084499 -0.065211624 -0.0048802583
-0.08885274 -0.0355632 0.08242866 -0.07936752 -0.042333107 -0.028270168 -0.05097217 0.11794351
0.11730267 -0.12463497 0.10745392 -0.10831364 -0.08323271 -0.03981347 0.01749757 0.11928659
0.11362459 0.09029926 -0.06437146 -0.026383908 0.053351175 0.10922195 -0.10244865 0.07835409
0.097853705 -0.11239789 -0.020389942 0.11310278 -0.07171222 0.06391163 -0.08885946 -0.11767639
0.10310906 -0.08982845 0.115909025 -0.027930176 -0.016171288 0.08050176 0.109702334 0.061753646
0.031434383 0.07802376 0.012120153 0.038147807 0.09415034 0.11702641 0.032109357 0.11492222
-0.05368742 0.08557314 -0.13075326 0.021054154 -0.12351792 0.01967546 -0.03874938 -0.015498201
-0.020049093 -0.092408545 -0.0030054222 0.06322863 0.0999524 -0.078427345 -0.058269113 -0.029721988
-0.045547772 0.0055078845 -0.1175211 -0.021705115 0.10214105 0.06650335 0.03789894 0.07244434
-0.010251742 -0.10440437 -0.09305077 -0.062409323 -0.051140644 -0.05093685 -0.11574662 0.035849676
0.08004246 -0.034956694 0.059926443 -0.039116543 -0.03934164 0.022965362 -0.063883334 0.10272372
0.07130573 -0.047171105 -0.01606826 -0.04769444 -0.042976405 -0.013717027 -0.10170878 0.097148255
-0.04007469 0.09403612 0.08388737 0.028391827 0.059497178 0.08493778 0.09222365 0.061450474
0.09585704 -0.008304216 0.02739464 0.09835321 0.09714481 -0.11638096 0.106995665 0.028096596

actor.4.bias f4 [32]
00000000: 3085 a4bb 0951 103d ab24 e2bd 241c 3a3c
00000010: 9b4b 233d 59f8 9bbd 0476 d93d 36c3 b3bd
00000020: 9b3d 84bd e85a aebc b0c2 e7bd 085e f4bd
00000030: 5965 b9bd 983d 863d 77c5 7bbd d04f c7bd
00000040: 02cd 0a3d 9ce6 47bd 8fe4 95bc dd03 f33d
00000050: 11e3 573d 621b d8bc 491f 2fbc 4817 2d3d
00000060: 319a 7a39 d718 cebd 69be 813d f28d 9ebd
00000070: 39cd 9fbd fddb 81bc e88f f23c 75c3 36bd
-0.00502076 0.03523353 -0.1104215 0.011359248 0.039867025 -0.07615728 0.10618213 -0.08777468
-0.06457063 -0.021283582 -0.113164306 -0.119319975 -0.09052534 0.06554717 -0.061467614 -0.0973202
0.033886917 -0.04880391 -0.018297462 0.11865971 0.05270678 -0.026380245 -0.010688611 0.04225853
0.00023899299 -0.100633316 0.06335146 -0.07741918 -0.07802815 -0.015851969 0.029609635 -0.044619996

actor.6.weight f4 [8, 32]
00000000: e5d4 393d ac84 fc3d eee4 953d bc95 363c
00000010: 059d a6bd b404 163d 3856 d7bd bfb9 15be
00000020: ee5b 72bd 8cda bd3d 0810 263e af15 193e
00000030: 8285 f6bc 247d 89bd 1f79 f53d beee da3d
00000040: 9358 19be fa53 06be c008 07be 9ded f5bd
00000050: b1d8 213c 1e7d 86bd ee3d 923c c161 263e
00000060: 8199 053e 7199 cdbd 8ff7 d0bd 2267 febd
00000070: 0530 903d fd03 9ebd 9b7c a03d 8c26 17be
00000080: 523b 0abe 691f f23d fc86 56bd f11f 25be
00000090: afb2 54bd 7f65 803d 532a 9e3c 2545 433c
000000a0: 86db 173e 9192 693c 855f 34be 5199 ba3d
000000b0: 987e 45bd 593d da3d e58d 26bd f028 e43d
000000c0: 52cb 213e 8fc1 8a3d b7bd b6bd 5b72 473d
000000d0: 4602 eb3d d135 36bc e00a b9bd ca16 23be
000000e0: 2eff c3bc 25e2 263e 0666 a63b cd8c 5c39
000000f0: 5225 87bd 09a6 053d c647 173d 7056 8e3d
00000100: f4cd 173e 7820 083e 718f 0f3e f504 063d
00000110: b77c f0bd 009f 0fbe 6dd8 a63d 1594 413d
00000120: bd65 b1bd 4363 b03d 6ad6 1cbe 3555 343e
00000130: 3ca6 1f3e 32f1 143c ed07 703d 3c1f df3d
00000140: c4f9 bfbd a1e1 0a3d 8094 8d3c a166 d43d
00000150: 8c84 1abe 1dd0 a13d cc98 5d3c 0297 a33d
00000160: 2588 b3bd 5d9c 043d 4462 73bd becc 4a3d
00000170: 3ed9 2abe 832d 03be 363a 453d c0e3 df3d
00000180: 06fa 51bd 214d c5bd be4c b23d 472d 213e
00000190: b898 05bd 17c2 e9bd 6660 8fbd 21a4 15be
000001a0: b431 69bd a45c 8cbd 646d 9f3d a380 263e
000001b0: 14c6 993d cb7b 11be 3389 19be 25a0 a6bc
000001c0: 49b1 2e3e 7f47 083d e42e b83d 7e7e 21be
000001d0: 1453 efbd ec6e 383d 1aa1 e5bc 2f92 a6bd
000001e0: baa1 8d3d b619 e3bc 66fd e3bd 77c6 0bbe
000001f0: c980 ff3d 0a63 f23d d881 48bd 74da 0ebe
00000200: c87d 61bd 36b2 df3d eb5f 80bd 0bd4 aabd
00000210: 5f40 033d 6053 08be 1d58 e0bd f450 fdbc
00000220: a006 043e d110 91bd 3beb 213e dff8 613b
00000230: fa91 34bc 7c9d c6bd 6b1e 173e fedc 07bc
00000240: 5137 7abd 76bd ae3d 96a8 12be 214d 0ebe
00000250: 3326 6ebd 517c 9c3d 0999 1ebe 8e65 9b3d
00000260: 27f1 e5bc 4423 cf3d ab20 443d 37c3 acbc
00000270: 8729 fcbd bf90 7a3d 275b 9a3d a0d1 9e3d
00000280: 933b a0bd eb5d 48bd 00a2 febb 814a af3c
00000290: a3d6 d73d f5f9 d8bc 81cb b63c 21b8 5ebd
000002a0: 5530 a63b 7e09 06bd 6f19 adbd b58f 44bd
000002b0: 235b 00be b66b 1e3e 1272 98bd ca04 8b3d
000002c0: 0f08 8b3c 1847 083e e1e3 233e 6881 54bd
000002d0: 30f4 92bd 62b6 f3bd f1a8 2abe e0f3 03be
000002e0: 2d77 283c 267e 183d 11d9 c6bd e93a 253d
000002f0: b004 1d3e 3a8e 263e 86ba a83d 594e 07be
00000300: 0c1c 053e df15 8bbd 1bf8 7cbc ffbf 173b
00000310: f062 813b 6082 2fbe 5895 023d 395d fdbd
00000320: dbb2 12be 9186 49bc dd17 a93b 189d 18be
00000330: b7a9 92bc 14b7 07be 125d 253e ec1e da3d
00000340: c717 ef3c b011 24bd c9db 11be 0dc7 21bd
00000350: 5f31 a0bd 9096 e13d 992c f43d 29cd 15be
00000360: 3b28 ccbd 0751 2fbe 7bf7 a2ba aea5 e1bd
00000370: 372c 5abd 1ae5 ad3d 230f 983d 47b9 dbbd
00000380: aff1 f43d 5e7e 4abd 8aee c33d 281f 03be
00000390: 2e1e 1fbe 2d74 b1bd ab97 143d 96f6 07be
000003a0: 2747 10be 7206 00be c055 0dbe 2747 2cbe
000003b0: a290 f5bd ccb9 91bd ba69 0f3d 5575 19be
000003c0: db22 b13d c145 b93c 754b 05bd 3ecd fe3d
000003d0: 1a86 e1bd 676b c23c a171 e03c cda2 a43b
000003e0: 9a4b ff3d d7b9 aabd c259 bb3d 4284 0f3e
000003f0: fd98 293e 6f4f 27be 7774 0c3e 1cc0 dcb8
0.045369048 0.12329993 0.073190555 0.011144098 -0.08135418 0.03662558 -0.10514492 -0.14621638
-0.059169702 0.092702 0.16217053 0.14949678 -0.030092958 -0.06713322 0.11985993 0.10690068
-0.14975195 -0.13117972 -0.13186932 -0.12008212 0.009878323 -0.06566833 0.017851796 0.16248228
0.13046838 -0.10039032 -0.10203468 -0.12422015 0.07040409 -0.077156045 0.078362666 -0.14760798
-0.13499191 0.11822397 -0.052374825 -0.16125466 -0.05192822 0.06269359 0.019307291 0.011918341
0.14829835 0.014256136 -0.17614563 0.09111274 -0.048216432 0.106562324 -0.040662665 0.11140621
0.15800217 0.067751996 -0.08922904 0.048693042 0.11475043 -0.011121229 -0.09035277 -0.15926662
-0.02392539 0.16297205 0.00507808 0.00021033287 -0.06598915 0.032629047 0.036933683 0.069500804
0.14824659 0.13293636 0.14019562 0.03271957 -0.117425375 -0.14025497 0.08146749 0.047260363
-0.08661983 0.08612683 -0.15316167 0.17610629 0.15590757 0.009090709 0.05860131 0.10894629
-0.09373811 0.033906583 0.017282724 0.103711374 -0.15089625 0.079010226 0.013525199 0.07987787
-0.08766202 0.032375682 -0.059419885 0.049511664 -0.16684434 -0.1281033 0.048151217 0.10932112
-0.05126383 -0.09633852 0.08706044 0.15739928 -0.032616347 -0.11413973 -0.070008084 -0.14613391
-0.056932166 -0.06853607 0.077845365 0.16260009 0.075084835 -0.1420738 -0.14993744 -0.020340035
0.17059816 0.03327131 0.08993319 -0.15770909 -0.11685768 0.04502766 -0.02803092 -0.08133351
0.069156125 -0.02772222 -0.11132316 -0.13649927 0.12475736 0.118352965 -0.048951954 -0.13950521
-0.055051595 0.10922663 -0.06268295 -0.08341225 0.03204381 -0.13313055 -0.10954306 -0.03092239
0.12893152 -0.070832856 0.1581239 0.0034480614 -0.011021132 -0.096980065 0.14757697 -0.008292435
-0.06108791 0.085322306 -0.14322123 -0.1389661 -0.0581419 0.07640899 -0.15488066 0.075877294
-0.028069092 0.10114148 0.047882717 -0.02108918 -0.12312608 0.061173197 0.07536917 0.077548265
-0.07823863 -0.048917692 -0.0077707767 0.02139783 0.105389856 -0.026486376 0.022313835 -0.054374818
0.0050716796 -0.032723896 -0.08452117 -0.047988612 -0.12534766 0.15470776 -0.07443632 0.06788023
0.016971616 0.1330837 0.16004898 -0.051881224 -0.07175481 -0.11900021 -0.16666009 -0.12886
0.01028232 0.03722968 -0.09709371 0.040339384 0.1533382 0.16265193 0.082387015 -0.13213481
0.1299898 -0.06791281 -0.015440012 0.002315521 0.003948562 -0.17139578 0.031880707 -0.123712964
-0.1432604 -0.01230015 0.0051603154 -0.14903677 -0.017903192 -0.13253433 0.16148785 0.10650429
0.029186143 -0.04005593 -0.14243998 -0.03949647 -0.07821917 0.11015046 0.11922569 -0.14629044
-0.09968611 -0.17120753 -0.0012433374 -0.11017929 -0.053264823 0.08490963 0.07424762 -0.10728698
0.1196016 -0.04943692 0.09566982 -0.12804854 -0.15538856 -0.08664737 0.036277454 -0.13277659
-0.14089642 -0.12502459 -0.13802242 -0.16824017 -0.11990477 -0.07115516 0.035012938 -0.14986165
0.08649226 0.022616269 -0.032542665 0.124414906 -0.11011906 0.023732854 0.027397932 0.00502429
0.12465592 -0.083362274 0.09147979 0.14015296 0.16562267 -0.16338895 0.13716303 -0.00010526201

actor.6.bias f4 [8]
00000000: 4289 1fbe 30a0 ebbd d90c c43c 5d5f 113e
00000010: 8c60 cb3c f3b3 223e e5c9 22be e573 cd3d
-0.15579703 -0.11505163 0.023931907 0.14196534 0.02482631 0.15888958 -0.15897329 0.10031871

critic.0.weight f4 [128, 33]
00000000: 79a5 883d 59d6 533d d80b 3f3c b7bc f93d
00000010: 3d9c cfbd 8a77 c23d 9475 d1bd d29c 4fbe
00000020: c5d8 0bbe fa2d 143c ef6c f1bd 8759 803c
00000030: c48c 61bd 984f c53d 80f2 a13c 7ef2 303d
00000040: 457f cfbd 2963 933d fe21 9f3d bc55 efbd
00000050: 5343 0e3e 9c7e 013e 4891 57bd c01a 9fbd
00000060: 2df7 213e f95f 89bd 6233 61be a476 863d
00000070: 58ea 803d 5230 babd 90aa eabd e197 38be
00000080: d0c1 dabc 26b6 9ebd 7ddc 10bd 269a 12bd
00000090: 31e2 ca3b 6a5e 13bd 6a0d 223e 729b 15bd
000000a0: 7b54 ad3c 243e e73d b618 f83c ef8b aebd
000000b0: d5e2 46ba bee6 313e efdd b1bd f4f7 ea3d
000000c0: 4661 e73d a77e 2ebd 0ac2 ee3d 4051 163e
000000d0: e62a 283e 08b7 403e 8361 b5bd e8e5 f8bd
000000e0: 0c80 ae3d ee9a ff3d 3eb1 34bc 9689 f53d
000000f0: cd81 43bd d822 213e cb3d bbbd c02f 263e
00000100: af7d ed3d 24fa 29be 9e7e bc3d a313 eb3d
00000110: 525f 093e 3c7f bbbd cea8 8cbd 4889 d3bd
00000120: 9b92 403c 6504 e33c fb1e 033c 2568 153d
00000130: 3d23 c0bd 2507 1bbe e2f5 a43c 4a8a fcbd
00000140: 42af 9fbd bd8e d0bd 1ffa fc3d a9ae 9b3d
00000150: e96d dd3d 3a84 5ebc 8ddc 823d e609 293e
00000160: 3d6a 3a3e fa97 0abe 76e8 b23c 2866 153d
00000170: d5ff 3fbb cef2 3dbe bf94 27be 0470 e7bd
00000180: 0e86 acbd 2e12 073e 5dc5 3abc 6ee1 91bd
00000190: 3e07 cebd 443c d1bd 987b 86bd e83d 06bd
000001a0: b2e5 013c 6702 df3c ecb2 25be 204f 83bd
000001b0: 8001 513c 7952 543d 4869 0fbd d4d2 01bd
000001c0: c7d6 3ebe e24f 013e b703 87bd 1166 053d
000001d0: f64c a73d dd24 733d ea7c c13d 9835 62bc
000001e0: 082c e8bd f27a c8bd ba28 0b3e f243 173e
000001f0: e5e7 ca3d ec1a 903d 9315 093d 6cb4 90bd
00000200: d03e ea3d 0ba1 fb3b 6800 cdbd 6c05 1b3e
00000210: ce27 3ebd b3be cd3b a8ec 16bd ea04 6dbd
00000220: c372 10be 69a0 3c3e cd77 86bd 0d5d 14be
00000230: 9c72 26be 6d83 82bd a28b 1bbd eac2 623d
00000240: 789b e9bd a11a 173c 245d 18bb 5a10 9b3d
00000250: 1a26 ab3d 3fa1 56bc 7b65 493d f912 183c
00000260: 1953 f43d f8c2 bbbd c219 503e 0179 3bbd
00000270: 0dee dc3d 294c 583b d757 133e 143c 09be
00000280: 837a dbbc 083b e13c faad d23d a59f f83d
00000290: e004 e13d 0412 33be 2ec4 c7bd 31b4 3dbd
000002a0: 148e 3dbe e85d 0abe 6793 b1bd 9456 51bd
000002b0: 3243 d03d 790e 163d ec31 acbd f38f 213e
000002c0: 3c29 183e 7b90 06be 2e34 4b3d 3e08 af3d
000002d0: c81f ea3d 3002 77bd 92f3 02be 1246 39bc
000002e0: 35d4 e63d b734 15be 7633 123e 7dd2 9ebc
000002f0: 5165 293e ded4 8dbd 7ef6 d3bc 675a bc3b
00000300: 1a03 24be efda ecbb 4c95 fe3d 44b3 1a3e
00000310: cb00 863d cc22 6f3c b90a 36bc ace7 393d
00000320: 56ad 8ebd bb94 47bd bb65 03be 365b d63c
00000330: 0e0c 703d da58 423d d717 8e3d cbcf 26bd
00000340: 694b 463d 849c 1e3e 1088 a8bd a8e7 733d
00000350: 5f62 13bd c757 f33d 6d80 2d3e 24a9 0abe
00000360: e041 b5bd 9147 23be 0050 a83d 5049 e0bd
00000370: 0b26 0dbe 4696 09be 8286 eebc a8ad a13d
00000380: ac22 d13c 5038 9cbd d0b4 d1bd 28be 9f3c
00000390: 8e14 a6bc e4bc 1abe ac45 d2bd 82f7 14bd
000003a0: aee1 adbd 0e37 f2bd 0b75 bc3d 92a8 1a3e
000003b0: 262e fb3d f7d3 f03d b26b efbd 8aed 193d
000003c0: 3f7d 253e 46f7 07be be26 12be 5d3e b43d
000003d0: 0847 823d 7d13 99bd bdbe 2d3e 0a66 133e
000003e0: 632d e3bd f3cb d93a bd19 d7bd 1da1 733d
000003f0: bcea 0dbe e253 d9bd 89fd 19be e441 8c3c
0.066721864 0.05171809 0.011660539 0.121941976 -0.10137222 0.094954565 -0.102275044 -0.20274666
-0.1365691 0.009044165 -0.117883556 0.01566769 -0.055065885 0.09634322 0.019768953 0.04320001
-0.101316966 0.07196648 0.07770155 -0.116862744 0.1389287 0.12645954 -0.052628785 -0.07768774
0.15816946 -0.067077585 -0.21992257 0.06565598 0.062946975 -0.090912476 -0.114583135 -0.18026687
-0.026703745 -0.07749586 -0.035366524 -0.03579154 0.006191515 -0.035978712 0.1582543 -0.036525197
0.021158447 0.11291149 0.03028522 -0.08522784 -0.0007586901 0.17373177 -0.086849086 0.114730746
0.1129785 -0.042601254 0.11658104 0.14679432 0.16422614 0.18819821 -0.088564895 -0.12153226
0.08520517 0.12480722 -0.011028586 0.11989133 -0.04773121 0.15735948 -0.091426454 0.16229153
0.11596238 -0.16599327 0.09203838 0.11478355 0.13415268 -0.091551274 -0.068681344 -0.10328919
0.0117537035 0.027712056 0.008002992 0.036476273 -0.09381721 -0.15139444 0.020136777 -0.12331064
-0.077971 -0.10183475 0.12352394 0.07601673 0.10811979 -0.01358133 0.06389723 0.16507682
0.18204589 -0.13534537 0.021839362 0.036474377 -0.0029296775 -0.18549654 -0.16365336 -0.11300662
-0.084240064 0.13190529 -0.011399594 -0.071230754 -0.10059975 -0.10216573 -0.065665424 -0.032773882
0.007928299 0.027222825 -0.16181535 -0.06411576 0.012756705 0.051836465 -0.035012513 -0.031695202
-0.18636619 0.12628129 -0.065925054 0.03256804 0.08168976 0.059361327 0.094476536 -0.013806723
-0.11336523 -0.09789075 0.13589755 0.14772013 0.099075116 0.07036385 0.03346784 -0.07065663
0.11437762 0.00767911 -0.10009843 0.15138787 -0.04642468 0.0062788366 -0.036846787 -0.057866015
-0.14106278 0.18420567 -0.06565819 -0.14488621 -0.16254658 -0.06372724 -0.03797496 0.055361666
-0.114066064 0.009222657 -0.0023248876 0.07571478 0.08356877 -0.0130999675 0.049169045 0.009281867
0.11929912 -0.09168047 0.20322326 -0.045769695 0.10787592 0.003300438 0.14388977 -0.13401824
-0.026791817 0.027493969 0.1028709 0.12139825 0.10987258 -0.17487341 -0.09754215 -0.046314422
-0.1851123 -0.13512385 -0.08670693 -0.051107958 0.101690665 0.036634896 -0.08407959 0.15777569
0.1485948 -0.13141052 0.04961031 0.08546494 0.11431843 -0.06030482 -0.12788227 -0.01130821
0.11270944 -0.1457089 0.14277443 -0.019387478 0.16542555 -0.06925367 -0.025874373 0.0057480815
-0.16016808 -0.0072282474 0.1243082 0.15107447 0.0654312 0.014595699 -0.011110955 0.045386955
-0.06966655 -0.048725825 -0.12831776 0.02616654 0.058605246 0.047448017 0.06938141 -0.04072551
0.04841176 0.15489393 -0.08229077 0.059547096 -0.035982486 0.118819766 0.16943522 -0.13541085
-0.08850455 -0.15945269 0.08218384 -0.10951483 -0.13784043 -0.13436231 -0.029116873 0.078944504
0.025529228 -0.07627928 -0.10239565 0.019499853 -0.020273473 -0.15111119 -0.10267195 -0.036368854
-0.084903106 -0.11826907 0.09202012 0.15103367 0.122646615 0.11759179 -0.11690463 0.03758005
0.16161059 -0.13277921 -0.14272591 0.08800957 0.063612044 -0.0747442 0.16967292 0.14394394
-0.11092641 0.0016616568 -0.10502956 0.05947982 -0.13859075 -0.106117025 -0.15038122 0.017121263

critic.0.bias f4 [128]
00000000: a6b3 b4bd ac67 0ebe 4b00 c93d 492d 00be
00000010: 1d70 143e 5983 b4bd efed 4e3d e157 45bd
00000020: e68b 953d 6a4e dabd edce 3bbc 9512 c5bc
00000030: 83a0 813d 9e77 cfbd e483 06be 8559 0ebe
00000040: 95ac c93d eda3 2cbd 5bf6 9dbc f678 fa3d
00000050: b693 f53d bef6 753c d4f4 943c 4cba 9abd
00000060: 4c48 2dbc 8b86 2d3e 2c94 453c 569b f439
00000070: 3a98 cbb9 aaa6 80bd c997 353e dee7 01be
00000080: 8f88 4fbd 43b8 b7bd d4f8 49bd 409d dfbd
00000090: 9d84 023e dc27 9c3d 843a f4bb 4df3 4fbc
000000a0: 61b3 cd3c 410a debd 11df 08bd be86 de3d
000000b0: 74e8 2e3e e876 87bd f6d0 a53d 9db9 d8bd
000000c0: 5b32 133d 9093 a33d 2402 d33d 23fc acbc
000000d0: 77a9 dd3d cb24 28be 6b43 af3b 831a c3bd
000000e0: cf68 bb3d 41f5 a5bd c0a5 d9bd 7220 ed3b
000000f0: 30ce cf3d 7070 24be ee3c ef3a a9e4 ae3d
00000100: 5ccd 053d 1999 d93d 8795 bfbd f738 35be
00000110: a4b5 d7bd 1cb2 9f3d 9214 0a3b e526 10bd
00000120: 925e 3ebe 5489 2dbc 6d18 0d3e 6456 253d
00000130: 4b3d a7bd ff12 903b 8c25 27be d2ac 0e3e
00000140: a414 c6bd b90c c63d 460d 803d 349a fe3c
00000150: 40fb b83c 2ca7 99bd 063b c8bd d39a 203e
00000160: cd8f 063e 44b1 92bc 884b ae3d 8bdf fdbd
00000170: ecb2 d23d 002c 6a3c 7400 7cbc d5aa ddbc
00000180: 17de e2bd 2e87 c63d 02f4 be3d e01c 303e
00000190: 242f 993d d5a6 253e 2d6c 333e 8e82 253e
000001a0: 5571 27bd 3ac4 1a3e 6548 5e3c 8466 fa3d
000001b0: 768a 02bd 0894 c1bc 689d d03d 6d31 cc3c
000001c0: 1df2 6f3c eda1 07be 7f3a 9fbd 3284 ae3d
000001d0: a635 883d c538 fcba 196d 3d3d f02a 90bd
000001e0: 0795 d6bc bce5 a13d b694 b13d 2257 353d
000001f0: 257f 063e 34d1 d6bd 4e5b b43d e62b ae3d
-0.08823328 -0.13906735 0.09814509 -0.12517275 0.14495893 -0.08814115 0.05051988 -0.04817951
0.07302074 -0.106594875 -0.011462909 -0.024056712 0.06329443 -0.10130237 -0.1313625 -0.13901336
0.098473705 -0.04214852 -0.01928251 0.12230103 0.11991064 0.015012441 0.01818315 -0.075550646
-0.010576319 0.16945855 0.012059253 0.0004665504 -0.00038832595 -0.06281789 0.17733683 -0.12686107
-0.05066734 -0.08970692 -0.049309567 -0.10918665 0.127459 0.0762479 -0.0074532647 -0.012692285
0.025109949 -0.108417995 -0.033415858 0.10865544 0.17080861 -0.066144764 0.08096497 -0.10582278
0.035936695 0.0798713 0.10303143 -0.021116322 0.108233385 -0.16420285 0.005348613 -0.09526541
0.0915085 -0.08103419 -0.106273174 0.007236534 0.10146749 -0.16058517 0.0018252411 0.08539707
0.03266655 0.10624904 -0.09354692 -0.17697512 -0.10532692 0.077976435 0.002106939 -0.035193343
-0.18590763 -0.010591824 0.13778849 0.04036559 -0.081659876 0.0043967958 -0.16322917 0.13933113
-0.09671906 0.096703954 0.06252532 0.03107939 0.022580743 -0.07502589 -0.09776883 0.15684061
0.13140793 -0.017906792 0.085105 -0.12396153 0.10288033 0.014292717 -0.015380967 -0.027058998
-0.110775165 0.09693752 0.093238845 0.17198515 0.074796945 0.16176923 0.17521735 0.16163084
-0.040879566 0.15113917 0.013567065 0.122265846 -0.031870328 -0.023630157 0.10186273 0.024925912
0.014645127 -0.13245364 -0.07774829 0.08521308 0.066508576 -0.0019242993 0.04624662 -0.0703944
-0.026194109 0.079051465 0.086709425 0.04427255 0.1313444 -0.10489121 0.088064775 0.08504467

critic.2.weight f4 [64, 128]
00000000: e59c 0fbc d0ae 983c 7e93 9cbd dadb ecbc
00000010: 3269 30bd 25ca 18bd 88fd 5c3d 534d b6bd
00000020: 13ff 49bd 6127 64bc 4c56 27bb 29a8 20bd
00000030: 4868 7d3a b5a0 8bbd 34bc 853d 554b 623c
00000040: 6637 353d 564a 83bd 4921 993d d673 86bb
00000050: 07de 13bd c4e9 e1bc 0b0c 763d 78bd 2c3c
00000060: 9fb9 453d 4d03 54bd b373 67bd a846 25bd
00000070: 619e babd 2507 a3bd b721 a9bd 4178 5fbd
00000080: 0a27 d63d 3297 0a3c d506 b6bd ec61 f43c
00000090: ab5b c43c a85a 583d c1bf 89bc 9ab4 6dbd
000000a0: e704 8ebc a464 583d c967 8bbd 517f b9bc
000000b0: 2e5b 3cbd e175 bdbd bf65 acbd dcd2 a2bc
000000c0: e9f4 19bc 4472 253d ac3a 123d 0df1 74bd
000000d0: 049c 0fbd 0f69 ce3d ee03 8dbd 783f 993d
000000e0: 3f84 863d 46ba 8e3d 9033 933d 5f17 e4bc
000000f0: 0586 c8bc e13b 1c3d 8a8a cebb 60c0 9e3b
00000100: 5cf1 0b3d 7f2c 88bd 800a 8cba 1919 873d
00000110: 85f4 b6bb d4e6 f2bc 0143 e0bd d082 c23c
00000120: a368 8c3c d620 9a3d 0c7d d0bc fa59 823d
00000130: 8541 9b3c 7b3d 5e3b 29dd af3d 6cf6 003d
00000140: e185 9abc 0c8c 3c3d 8c28 acbd 5ae3 453d
00000150: cdc1 b5bd 85ba cc3c 5dda b9bc c31e 463d
00000160: c4d6 b7bd 5052 cabb e1e9 43bd ce52 813d
00000170: 6923 49bd 0f71 a6bd e65c e93b 037e a33c
00000180: d94e 81bd 8b15 d3bd 4bb3 fc3c 0bf7 ccbd
00000190: 8803 b8bd ce11 b8bb 3dc7 883c 019e 603d
000001a0: d085 55bd 10c0 383d 0996 3f3d a6cc 163c
000001b0: 1b33 17bd 6123 26bd e20d 83bc 07d2 b33c
000001c0: 64a3 93bd 5be8 98bd 3878 7fbd 61f9 8c3d
000001d0: 3305 b5bd 1e7c 243d e113 72bb 9851 c6bd
000001e0: 29f5 803c d57c 8fbb 4a35 bfbc 92e1 c93c
000001f0: a478 30bd 9f98 7d3b cc29 76bd 93ff 1a3d
00000200: 810c 66bd e23f b63c 5df2 83bc 0192 afbd
00000210: 30c7 fcbc 0061 9f3d 3102 6d3d 7468 a33c
00000220: b329 9fbc db28 303d 3812 3cbd ae90 45bc
00000230: 71c2 5fbb a0bd 0dbd 4a00 d33c d5fd 67bd
00000240: 9c25 31bd 71a9 41bd 81cd 2b3d 429c 1abd
00000250: 3a5a d93d 69d6 91bd 054d 39bc e0ec 53bc
00000260: 63b2 76bd 2779 05bd 7102 5bbc 0f7c 88bd
00000270: 0392 c33d 8e6f 7abd 165e 2fbd 6772 35bd
00000280: 71ce 843c 3403 7cbd 7d17 44bc fe40 d9bd
00000290: d1d9 13bb a2c2 cd3b a01f 69bc 0296 8abd
000002a0: d66a 953d 43d2 e7bc 1245 1b3d 6984 c2bc
000002b0: 6d8c 63bc ca50 0ebd ad57 e5bc fde3 babc
000002c0: 9c61 58bd 3f4a 963d 4717 573d 9f2c 753d
000002d0: 7f25 5b3d d8a2 1f3d 2eb0 43bc 60aa c0bd
000002e0: 97f0 863d 46a2 3d3d bab2 8d3c 099c 1c3d
000002f0: c434 aa3d 7ddc 2fbc 5960 273d 8c5d 7dbd
00000300: 1b38 a4bd a1fe d9bc d95e b73c 50da 843c
00000310: 9850 193d e415 88bd 1d4c 523d 4a89 97bc
00000320: 272c 273d 2dcd 6e3c d488 3e3d faeb 8cbd
00000330: af8c 94bd e462 7bbd d255 cebd d43f 573c
00000340: 9075 4dbd d39c 81bd 3a11 f93c 4200 fbbb
00000350: 2116 17bd 8738 35bd 8963 85bd 300a 263d
00000360: bb3f 243d 7961 8fbd 3864 213d c133 943d
00000370: 93b2 343d 5498 b23d 8078 91bd 792a a1bc
00000380: 040b 0fbd 1b7c a23b 3910 06bd 2af7 393d
00000390: 3e39 81bd 652f 1bbd 8287 d43b 5c6b 5c3c
000003a0: 9ec6 9fbd 4e8c e73d 1b42 533d 92b6 1ebd
000003b0: c9fa 0bbc 1eca dc3d 7fcb 8f3c 264d 7dbd
000003c0: 2e85 113d 36a2 55bd 9904 4dbd 0d49 e43c
000003d0: 3081 933d 000a bdbc a35c 923d 50b1 76bd
000003e0: 00fe 463d 6c34 af3d 22ce c83d 9977 6cbb
000003f0: 6c39 e53d 48fb c9bc 80d0 acbc 7887 883d
-0.008765434 0.018638045 -0.076453194 -0.028913427 -0.043069072 -0.037302155 0.053952724 -0.08901467
-0.049315523 -0.013925404 -0.0025533615 -0.03922287 0.0009666723 -0.06817762 0.065300375 0.013811906
0.044242285 -0.06410663 0.07477052 -0.004103164 -0.036100414 -0.027577288 0.06007008 0.01054322
0.048272725 -0.05176096 -0.056506824 -0.040350586 -0.0911224 -0.07960347 -0.08258384 -0.054558042
0.10456665 0.008458899 -0.08888022 0.029831849 0.023969492 0.05282083 -0.016815068 -0.058033563
-0.017336322 0.052830353 -0.06806905 -0.022643717 -0.045985393 -0.09250999 -0.08417844 -0.019875936
-0.00939677 0.040392175 0.035700485 -0.059800196 -0.035060897 0.10078632 -0.06885515 0.07482809
0.06568193 0.069691226 0.07187569 -0.027843175 -0.024477968 0.038143042 -0.0063031362 0.00484471
0.034165725 -0.06649112 -0.0010684282 0.06596584 -0.005583348 -0.029651083 -0.1095028 0.023744017
0.017139738 0.07525794 -0.025450252 0.06364818 0.01895214 0.0033911157 0.08587105 0.031485006
-0.018862667 0.046031997 -0.08406171 0.048312522 -0.08874855 0.024991283 -0.022687132 0.04836918
-0.0897651 -0.006174363 -0.047830466 0.06314622 -0.049106035 -0.08127033 0.00712167 0.019957548
-0.06313867 -0.10306843 0.030847212 -0.10008057 -0.089850485 -0.005617357 0.016696567 0.054838184
-0.052129567 0.04510504 0.046773944 0.009204065 -0.036913972 -0.040561084 -0.01599783 0.021950735
-0.07208899 -0.07466193 -0.06237051 0.06883503 -0.08838882 0.04015743 -0.0036938118 -0.096835315
0.015741901 -0.004378895 -0.02334084 0.024643693 -0.043083802 0.0038695706 -0.060098454 0.03784139
-0.05616427 0.022247259 -0.016106779 -0.0857277 -0.030856699 0.07782173 0.057863418 0.019947268
-0.019429063 0.043007713 -0.045915812 -0.01205842 -0.0034142996 -0.03460467 0.025756974 -0.056638557
-0.043248758 -0.047280733 0.04194403 -0.037746675 0.106129125 -0.071209736 -0.011309867 -0.012934893
-0.060228717 -0.032586243 -0.013367281 -0.06664287 0.09549334 -0.061141543 -0.042814337 -0.044298556
0.01621172 -0.061526492 -0.011968491 -0.106080994 -0.0022560249 0.0062793056 -0.014228731 -0.06766893
0.07295768 -0.028298503 0.037907667 -0.023744779 -0.013888461 -0.034745015 -0.027995909 -0.022813791
-0.052827463 0.0733838 0.052512433 0.059857007 0.053502556 0.03897366 -0.01194386 -0.094074965
0.065888576 0.046297334 0.017297138 0.038234744 0.083108455 -0.010733721 0.04086337 -0.06185679
-0.08018514 -0.026610674 0.022384094 0.01621738 0.037430376 -0.066448 0.05134212 -0.018498082
0.04081359 0.014575285 0.04651721 -0.068809465 -0.07253396 -0.061373606 -0.10074963 0.013137776
-0.050160944 -0.0632874 0.030403722 -0.007659943 -0.03688634 -0.04424336 -0.065131254 0.04053706
0.04009984 -0.07001013 0.039402217 0.07236434 0.044115614 0.087204605 -0.07103062 -0.019673573
-0.034922615 0.004958642 -0.032730315 0.04540173 -0.06309746 -0.037886996 0.0064858804 0.013453331
-0.07801555 0.11306058 0.051576715 -0.03874833 -0.008543679 0.10780738 0.01755309 -0.061841153
0.0355274 -0.05215665 -0.050053213 0.027866865 0.07202375 -0.023076057 0.07146575 -0.060227692
0.048582077 0.085549206 0.09804942 -0.0036082028 0.11192593 -0.024655953 -0.021095514 0.066664636

critic.2.bias f4 [64]
00000000: 0537 be3b ea0a 5f3d 1862 303d 715a 8e3d
00000010: 24ff 8fbd f92f a23b 0280 3fbc 4a5b 6fbc
00000020: fe00 61ba b678 7ebd d6fb 7cbd a8a0 0d3d
00000030: a8bf 1cbc 3a40 8d3d 3829 4c3d 1999 1a3d
00000040: 7d96 a23d 8ccb 7cbd 7ab6 adbd 71d7 64bd
00000050: e663 19bd 5037 473d ae1b 90bd 524a c43c
00000060: 222d de3c d309 c63d fad6 373d eca8 0abd
00000070: 804d 59bd 880b 36bd 8e6a ab3d fe83 a53d
00000080: de48 c33c e778 923d fa7c bb3c bc24 783c
00000090: fbfb e0bc f2c9 a2bc bc07 8a3c 09e5 823d
000000a0: fde3 c53d 3911 983d 55fc 92bd 9bd8 b8bc
000000b0: 68ab 8fbc a053 b7bd 0546 cd3c ba12 443d
000000c0: c0a9 d33c 7fea b93d afb3 383d 1312 28bc
000000d0: ff3b 023d 9c00 723c b96b 6cbd 7047 2e3d
000000e0: 9590 86bd 2eaa 8f3c 4841 e6bc 2ff2 0b3d
000000f0: 12cd d7bd 82c7 69bd 91d5 a2bd b785 0bbd
0.0058048987 0.054453768 0.0430623 0.06950844 -0.07031086 0.0049495664 -0.011688234 -0.014609167
-0.00085832167 -0.062126838 -0.061763607 0.034577042 -0.009567179 0.06897016 0.049843997 0.03774366
0.079388596 -0.061717555 -0.0848207 -0.055869523 -0.037448786 0.048636734 -0.070365295 0.02396122
0.02712113 0.096698426 0.044882752 -0.033852503 -0.053052425 -0.04444459 0.08369933 0.08081816
0.023838457 0.071519665 0.022886742 0.015145477 -0.027463904 -0.019871686 0.016849391 0.06391341
0.09662626 0.0742516 -0.07177035 -0.022564223 -0.017537788 -0.08951497 0.025057802 0.04786942
0.025837779 0.0907793 0.045093235 -0.0102582155 0.031795498 0.014770653 -0.05771992 0.042548597
-0.065705456 0.017537203 -0.0281073 0.03416651 -0.10537161 -0.05707503 -0.07950891 -0.034063067
