legged_gym/logs/tron1/Mar26_09-33-42_track_3.0_feet_contact_force_-0.0035_stand_still_-1.5_base_height+0.1_feet_regulation_-0.15_track_contacts/model_800.pt (torch, 376218 bytes, 48 tensors)

std f4 [8]
0.5886017 0.4495883 0.5572991 0.42668426 0.58261055 0.46513984 0.5594737 0.4654894
00000000: 9aae 163f 7030 e63e 27ab 0e3f 5c76 da3e
00000010: f725 153f cf26 ee3e ab39 0f3f a054 ee3e

actor.0.weight f4 [128, 33]
-0.40895534 0.563697 0.2965645 0.37244827 -0.08577531 0.59211344 -0.16744635 -0.3628382
0.20091568 0.46482217 -0.4597959 -0.7018884 -0.4525536 0.31013617 -0.3838562 0.619145
-0.3547031 0.15451619 0.12562475 -0.70847416 -0.2801831 0.25782165 0.0069583445 0.15189037
-0.019779267 0.049352042 -0.04649314 -0.09707221 0.003491955 -0.07460103 0.37117037 -0.19565731
0.16590546 -0.14047088 -0.7830413 -0.13377441 -0.4311222 0.9196809 0.2913473 -1.010098
-0.60323673 -0.26794815 -0.4902605 0.45907018 -0.17482673 0.18126048 0.15214863 -0.35642815
-1.0284524 0.44366688 0.122092344 0.160293 -0.060998376 -0.12061034 -0.037875544 0.058710292
-0.018939849 -0.046439942 0.11383625 -0.088864505 -0.05923451 0.14346278 0.0847256 0.02312062
0.300793 0.25413647 -0.14566074 -0.40376222 -0.04653341 -0.7494505 -0.2719687 -0.32368904
-1.1142796 -0.4444677 0.21097706 0.15821727 0.71262395 0.38494977 0.22651224 -0.6080682
-0.3822914 -0.6036468 0.16801621 0.34094653 0.048176922 0.26843393 -0.07543257 0.051316872
-0.05449726 0.01788832 0.0010450761 -0.021600131 -0.054198004 -0.009792696 -0.06150629 0.07529258
0.109474696 -0.2620876 -0.20357268 -0.4601517 0.12376026 -0.20311299 0.3004816 0.61437464
-0.17742425 -1.1429226 -0.43525752 0.051909212 0.5960589 0.585452 -0.67638475 0.30576432
-0.053080678 -1.0614039 0.346443 -0.20443772 0.0004753471 -0.24239828 0.25915277 0.10781812
-0.1851235 0.15039848 0.002385889 0.04293466 -0.13549039 -0.022362184 0.055321638 -0.20322211
-0.13874035 0.29861513 -0.0556309 -0.07114358 -0.4965326 0.2483916 0.18369801 1.385881
0.350374 0.6237071 0.105720274 -0.025164004 -0.14529124 0.45974818 0.109676816 -0.3982565
0.5607299 0.18415046 -0.96181154 0.7127758 -0.33809856 -0.09812108 -0.146205 -0.08023115
0.35937622 -0.039640136 -0.02949471 0.045713574 -0.05565567 -0.13620318 -0.0054225624 0.09487087
-0.17568786 -0.053065833 0.16639486 0.010454415 0.25295094 -0.13196844 -0.084227145 -0.061804287
-0.51384044 0.45165968 0.39434215 0.46085778 -0.20746413 0.0008100154 -0.33240622 -0.5520068
0.6891173 -0.81660396 0.29761004 1.1557845 -0.5480236 0.41273984 -0.21231502 -0.64990145
-0.13340911 0.47557756 -0.2510691 -0.08385382 -0.122113205 -0.041958425 0.16725327 -0.09761827
-0.13338165 -0.121343076 0.015195544 -0.13872752 0.16503556 0.12139949 -0.30894515 0.14300811
-0.2953376 -1.199595 -0.08374135 0.24350236 0.38613942 -0.8408429 0.75650895 -0.010054116
-0.557974 0.28953272 0.15780267 0.18356714 0.6147897 -0.42942715 -0.16464444 0.11367113
-0.6319314 0.25296226 -0.743491 -0.27054766 -0.08274894 0.057361707 0.08079853 -0.1378457
-0.052703265 0.044050585 -0.0034729457 0.03790684 -0.003910566 -0.14642115 -0.12147736 -0.27286655
-0.112991445 0.1291695 0.40750396 0.9214947 0.073541895 -0.8455187 -0.5828694 -0.047830343
-0.07210883 -0.2687899 -1.2788943 0.76485425 -0.85297686 -0.2994926 -0.011975414 -0.27263382
0.123944335 -0.37874487 -0.07456684 0.27952376 -0.19549084 -0.036923926 -0.032563888 -0.059757542
00000000: 9862 d1be 724e 103f 4dd7 973e 8ab1 be3e
00000010: f7aa afbd bf94 173f 0e77 2bbe eec5 b9be
00000020: d7bc 4d3e 2cfd ed3e 5e6a ebbe f5ae 33bf
00000030: 1bb5 e7be 2bca 9e3e cd88 c4be 4980 1e3f
00000040: a59b b5be 7e39 1e3e c6a3 003e 905e 35bf
00000050: 2974 8fbe 3301 843e d302 e43b 2689 1b3e
00000060: 2108 a2bc 5e25 4a3d 976f 3ebd cbcd c6bd
00000070: 49d9 643b 6dc8 98bd 0b0a be3e 645a 48be
00000080: 1fe3 293e 99d7 0fbe 6575 48bf 29fc 08be
00000090: 0dbc dcbe 3570 6b3f 792b 953e e44a 81bf
000000a0: b96d 1abf 8030 89be 6d03 fbbe 3f0b eb3e
000000b0: c705 33be 599c 393e dacc 1b3e c07d b6be
000000c0: 54a4 83bf 4e28 e33e 8d0b fa3d d923 243e
000000d0: 6fd9 79bd 8e02 f7bd 6323 1bbd 347a 703d
000000e0: be27 9bbc cf37 3ebd fb22 e93d 98fe b5bd
000000f0: e39f 72bd e8e7 123e 9e84 ad3d 7467 bd3c
00000100: 8a01 9a3e 2d1e 823e 1728 15be ecb9 cebe
00000110: d199 3ebd fddb 3fbf 7b3f 8bbe 92ba a5be
00000120: b7a0 8ebf 4591 e3be 5f0a 583e b503 223e
00000130: 866e 363f 2318 c53e d3f2 673e 5caa 1bbf
00000140: b3bb c3be 9988 1abf 710c 2c3e 8b90 ae3e
00000150: 2a55 453d 2c70 893e 647c 9abd a431 523d
00000160: 8538 5fbd 878a 923c effa 883a c2f2 b0bc
00000170: bafe 5dbd 8b71 20bc 05ee 7bbd ff32 9a3d
00000180: 4534 e03d 5930 86be 5b75 50be 0199 ebbe
00000190: 0576 fd3d dafc 4fbe b9d8 993e a847 1d3f
000001a0: b4ae 35be 4a4b 92bf 13da debe c19e 543d
000001b0: 5197 183f 2fe0 153f 8d27 2dbf 248d 9c3e
000001c0: 206b 59bd 15dc 87bf fa60 b13e 1f58 51be
000001d0: 0238 f939 4137 78be acaf 843e bfcf dc3d
000001e0: 0491 3dbe 0f02 1a3e 935c 1c3b 41dc 2f3d
000001f0: febd 0abe e630 b7bc f198 623d 7519 50be
00000200: f311 0ebe 15e4 983e 3add 63bd bab3 91bd
00000210: 8539 febe 5e5a 7e3e 551b 3c3e 8c64 b13f
00000220: 3964 b33e 45ab 1f3f df83 d83d be24 cebc
00000230: 3ac7 14be 1d64 eb3e 3d9e e03d 47e8 cbbe
00000240: ff8b 0f3f f091 3c3e 4839 76bf 7a78 363f
00000250: 411b adbe b4f3 c8bd c3b6 15be 3b50 a4bd
00000260: 2900 b83e b25d 22bd e49e f1bc 283e 3b3d
00000270: 33f7 63bd d978 0bbe c0af b1bb a94b c23d
00000280: 85e7 33be 8f5b 59bd 6a63 2a3e ff48 2b3c
00000290: c982 813e bc22 07be 487f acbd 7e26 7dbd
000002a0: 0c8b 03bf f03f e73e 37e7 c93e 8df5 eb3e
000002b0: 7a71 54be 3757 543a 2631 aabe 5150 0dbf
000002c0: fe69 303f f50c 51bf 5860 983e bff0 933f
000002d0: 464b 0cbf a352 d33e 1c69 59be f15f 26bf
000002e0: 669c 08be e77e f33e 218c 80be 8dbb abbd
000002f0: 7d16 fabd 99dc 2bbd 7144 2b3e 16ec c7bd
00000300: 3395 08be b882 f8bd bbf6 783c 960e 0ebe
00000310: 15ff 283e 4ca0 f83d 0f2e 9ebe b870 123e
00000320: 7d36 97be 548c 99bf 9680 abbd af58 793e
00000330: 11b4 c53e 7b41 57bf 92aa 413f 05ba 24bc
00000340: 62d7 0ebf a23d 943e 0697 213e 06f9 3b3e
00000350: dc62 1d3f e0dd dbbe 8d98 28be 69cc e83d
00000360: 42c6 21bf 4584 813e 6d55 3ebf 3985 8abe
00000370: 4778 a9bd 1cf4 6a3d b379 a53d 6c27 0dbe
00000380: 61df 57bd 636e 343d 5c9a 63bb 3444 1b3d
00000390: 3524 80bb 6def 15be 1fc9 f8bd 2ab5 8bbe
000003a0: 0f68 e7bd 0245 043e 5ca4 d03e 14e7 6b3f
000003b0: 229d 963d ea73 58bf ee36 15bf c0e9 43bd
000003c0: cbad 93bd d49e 89be cfb2 a3bf 7dcd 433f
000003d0: b15c 5abf 1857 99be 8734 44bc a996 8bbe
000003e0: 87d6 fd3d d9ea c1be 80b6 98bd bd1d 8f3e
000003f0: c02e 48be 8b3d 17bd b661 05bd 53c4 74bd

actor.0.bias f4 [128]
-0.15432648 0.07770038 0.20011877 0.07628588 0.13677238 -0.17799321 -0.06406566 0.11536973
-0.10664162 -0.0053170808 -0.00573107 0.15353662 -0.1076747 0.10205668 0.017084068 -0.12584615
-0.044160992 -0.04664142 -0.11619733 0.104205124 0.01921411 0.02704306 0.16778639 0.11520238
-0.20461349 -0.05662858 -0.16279912 -0.21209319 -0.0065574604 0.047463886 0.16394131 0.2435165
-0.24201962 0.052378826 -0.03554428 -0.015590928 0.09499231 -0.058753453 -0.017294915 0.117969416
0.29213527 -0.19512592 -0.050650828 -0.071528725 0.22012188 0.08422765 -0.006419727 0.17131329
0.2031139 -0.09742789 -0.030289723 0.12334025 0.0055662636 0.1901224 -0.03662631 -0.14534199
-0.06617563 -0.15817954 -0.030795908 -0.15360178 -0.051639438 0.06496644 -0.25128117 -0.04345014
-0.12412692 0.060553286 0.0811032 0.034751132 0.19016446 -0.020023802 0.06072358 -0.20359264
0.053829238 -0.21803062 -0.0720781 -0.313228 0.007097133 0.07210663 -0.12856033 -0.18313038
-0.056631196 0.07581973 0.04170644 -0.095096305 -0.18783444 0.045569047 -0.020715646 -0.20228855
-0.0898741 -0.16554758 -0.07436744 0.16060495 -0.0023545958 -0.1835067 0.12609711 0.047778428
0.086607866 -0.07535896 -0.22450791 -0.056141134 0.05030255 0.013158888 -0.15369931 -0.009150827
0.18582258 0.13907456 -0.037821323 0.034120373 0.02314917 0.0046544382 -0.09656698 -0.054105163
-0.20869039 -0.054613937 0.06421401 0.21309097 -0.2222689 -0.060685407 -0.22519426 -0.013213565
0.014235139 0.04677443 -0.18252768 -0.108943984 -0.07252234 0.05938261 0.04669242 0.07411545
00000000: c307 1ebe 6021 9f3d efeb 4c3e c53b 9c3d
00000010: 0f0e 0c3e da43 36be db34 83bd f746 ec3d
00000020: ec66 dabd e83a aebb b3cb bbbb b438 1d3e
00000030: 8e84 dcbd 1803 d13d e3f3 8b3c d0dd 00be
00000040: 28e2 34bd 130b 3fbd def8 edbd 7f69 d53d
00000050: e966 9d3c 6889 dd3c 32d0 2b3e 3aef eb3d
00000060: 3386 51be 5ff3 67bd d0b4 26be f52e 59be
00000070: f7df d6bb 7e69 423d 3be0 273e 645c 793e
00000080: fed3 77be 2e8b 563d e196 11bd 1771 7fbc
00000090: 548b c23d 76a7 70bd 11ae 8dbc f399 f13d
000000a0: c192 953e 17cf 47be 3e77 4fbd a77d 92bd
000000b0: a167 613e 8c7f ac3d 935c d2bb c06c 2f3e
000000c0: 17fd 4f3e 4688 c7bd 2722 f8bc d099 fc3d
000000d0: 3465 b63b 72af 423e 7805 16bd 88d4 14be
000000e0: 1787 87bd d1f9 21be b347 fcbc c949 1dbe
000000f0: e083 53bd 200d 853d eda7 80be c6f8 31bd
00000100: 4136 febd b906 783d 6f19 a63d 3457 0e3d
00000110: 79ba 423e f508 a4bc 4ab9 783d 977a 50be
00000120: 0c7c 5c3d 6b43 5fbe af9d 93bd 6c5f a0be
00000130: 118f e83b a4ac 933d 52a5 03be 8886 3bbe
00000140: 1df6 67bd 6047 9b3d 5fd4 2a3d dac1 c2bd
00000150: ac57 40be 9ca6 3a3d dcb3 a9bc bb24 4fbe
00000160: ea0f b8bd 4e85 29be f54d 98bd a075 243e
00000170: 904f 1abb 2ee9 3bbe 9a1f 013e 50b3 433d
00000180: 775f b13d cc55 9abd 67e5 65be 3ff4 65bd
00000190: 0c0a 4e3d 6098 573c 5a63 1dbe 5aed 15bc
000001a0: 4648 3e3e 9069 0e3e 88ea 1abd cec1 0b3d
000001b0: 54a3 bd3c 4284 983b e9c4 c5bd 609d 5dbd
000001c0: efb2 55be ddb2 5fbd a382 833d 8534 5a3e
000001d0: 759a 63be 4391 78bd 5399 66be b57d 58bc
000001e0: 803a 693c 8b96 3f3d 89e8 3abe 061e dfbd
000001f0: 9886 94bd 2e3b 733d 8d40 3f3d d7c9 973d

actor.2.weight f4 [64, 128]
0.18394624 -0.07676088 0.097882055 0.19137774 0.18352865 0.0019387001 -0.45483145 0.3093833
0.11594487 -0.13115759 0.08589533 -0.15034948 -0.08275128 0.34263358 -0.01029683 0.16607928
0.011878216 0.4033485 0.012890465 0.17069395 -0.06759163 0.19825552 -0.019894578 -0.039658226
-0.029391041 0.2718997 -0.44240123 0.18478957 0.053863782 0.029462438 0.089994 0.43963584
-0.046615068 -0.3269317 0.07386194 0.14862923 0.01829062 0.3848532 0.047234863 -0.42919993
0.5725348 -0.20680472 0.17008239 0.27028114 0.25801888 -0.10889667 0.20410334 -0.06895641
0.38556394 0.11004433 0.11606795 0.13731794 -0.08907818 0.033418305 -0.059519175 -0.031520884
0.079484686 0.023724131 -0.010300199 -0.16589814 -0.041796494 -0.38906264 -0.29630342 -0.09591199
0.086171865 0.43905643 -0.21561854 0.053674117 0.20520298 -0.020439807 -0.3534727 0.04817144
-0.05476387 0.354948 -0.15306234 -0.073910296 -0.24267028 0.09989085 -0.10184575 -0.07439191
-0.077957794 -0.17148957 0.24968451 0.09798633 -0.025000365 -0.17542674 -0.20484386 -0.016522901
0.11903403 -0.015113353 -0.32803062 -0.07721715 0.07669449 0.35120434 -0.07691916 0.123240545
0.2589806 -0.12671469 0.1126514 0.005090744 0.16313384 0.32381284 -0.087461255 -0.26083183
-0.043333463 0.23045681 -0.007308526 0.03247364 -0.04875396 -0.31110334 -0.04901628 -0.07861084
0.0604867 -0.09976185 0.10141747 -0.06464201 -0.3970798 -0.14553481 0.11159627 -0.100385696
-0.13293552 0.045449946 0.09952249 -0.19978912 0.06459602 0.17059623 0.016055567 -0.39010176
0.020209922 -0.11366528 0.26616687 0.111172035 0.1859926 -0.016440427 0.050621144 0.031967696
-0.042347375 0.19637685 -0.009540648 -0.4751698 0.14605482 -0.6923606 0.17426267 0.15423115
-0.045846067 -0.34832457 0.0785194 -0.19775364 -0.01988094 -0.3789361 -0.026193777 0.034921557
0.1774055 -0.23843661 0.16414039 0.12713599 -0.07059047 -0.46320057 -0.17015365 -0.21289292
-0.013489445 -0.34688345 0.07437659 0.15943651 0.20689297 0.06196282 -0.16540173 0.13596354
0.27393007 -0.35532236 0.26922303 -0.6798904 -0.19893296 -0.004206017 0.06179068 -0.14019112
-0.18319622 -0.22898331 -0.15980712 -0.17616457 -0.66346866 -0.5347426 -0.18140294 -0.10853336
0.011266045 0.60584104 0.26058042 -0.14203869 0.23912245 0.04680935 0.25489017 0.3606587
-0.23041752 -0.17458983 0.5613957 -0.4002562 0.4181397 -0.27227485 0.0066340994 -0.14547816
-0.43743965 -0.008844235 0.25936282 0.05290271 0.055142537 -0.062619634 0.2948089 -0.14852893
-0.08909447 -0.23049876 0.14521876 0.049330745 0.008513961 0.405275 0.034419116 -0.59940934
-0.07168673 0.25793865 0.0146029135 -0.04258857 0.31020188 0.09251901 0.029303094 -0.04834229
-0.10074605 0.1414137 0.11271924 0.34578422 -0.19429569 -0.0037351623 0.27203104 -0.12118934
0.0019134801 0.09315699 0.08699148 0.12845401 0.077846915 -0.05489623 0.09351082 -0.4181254
-0.16095258 -0.1451022 0.4622422 -0.13116145 -0.23202851 0.07378717 0.23880167 -0.073416695
-0.079348676 0.08216504 0.1807555 0.28090885 -0.19766173 0.085618444 -0.1542074 0.16436227
00000000: 675c 3c3e cf34 9dbd 6376 c83d 87f8 433e
00000010: efee 3b3e fb1b fe3a abdf e8be 7d67 9e3e
00000020: 8174 ed3d 2d4e 06be e4e9 af3d 37f5 19be
00000030: 8179 a9bd ab6d af3e 09b4 28bc b010 2a3e
00000040: d99c 423c b283 ce3e 8732 533c 65ca 2e3e
00000050: 7b6d 8abd 7f03 4b3e f4f9 a2bc aa70 22bd
00000060: 7bc5 f0bc 7036 8b3e 6a82 e2be 7a39 3d3e
00000070: 45a0 5c3d 365b f13c c64e b83d f317 e13e
00000080: 71ef 3ebd 9763 a7be ee44 973d 4332 183e
00000090: 36d6 953c 7b0b c53e 5879 413d 18c0 dbbe
000000a0: a491 123f 9ec4 53be 142a 2e3e 4a62 8a3e
000000b0: 0d1b 843e 3805 dfbd 7700 513e 0539 8dbd
000000c0: a368 c53e ec5e e13d 09b5 ed3d 139d 0c3e
000000d0: 9f6e b6bd a2e1 083d 61ca 73bd 0b1c 01bd
000000e0: dec8 a23d 1c59 c23c 2ac2 28bc 34e1 29be
000000f0: cd32 2bbd 3833 c7be 15b5 97be 816d c4bd
00000100: e07a b03d 01cc e03e 1bcb 5cbe 64d9 5b3d
00000110: bb20 523e 6271 a7bc 60fa b4be 6a4f 453d
00000120: 1450 60bd bfbb b53e 60bc 1cbe 485e 97bd
00000130: 8f7e 78be 9393 cc3d 8194 d0bd c95a 98bd
00000140: 56a8 9fbd f69a 2fbe 4cad 7f3e 0fad c83d
00000150: 91cd ccbc 11a3 33be 97c2 51be 095b 87bc
00000160: 1dc8 f33d ff9d 77bc a1f3 a7be 0624 9ebd
00000170: 0012 9d3d 0ed1 b33e cb87 9dbd 8a65 fc3d
00000180: 1b99 843e 7fc1 01be c7b5 e63d 41d0 a63b
00000190: 8f0c 273e ccca a53e e31e b3bd c08b 85be
000001a0: 6e7e 31bd dffc 6b3e 5c7c efbb 1403 053d
000001b0: 3bb2 47bd f048 9fbe 4bc5 48bd b8fe a0bd
000001c0: e7c0 773d f14f ccbd f6b3 cf3d 0863 84bd
000001d0: 0b4e cbbe 1407 15be 968c e43d 0497 cdbd
000001e0: 4020 08be b929 3a3d 72d2 cb3d 8595 4cbe
000001f0: eb4a 843d c7b0 2e3e f786 833c 6bbb c7be
00000200: 478f a53c 58c9 e8bd 0647 883e 2aae e33d
00000210: d874 3e3e 13ae 86bc 1e58 4f3d 8ff0 023d
00000220: 7174 2dbd 0317 493e 6150 1cbc 7549 f3be
00000230: 658f 153e 8b3e 31bf ea71 323e c5ee 1d3e
00000240: 16c9 3bbd 9957 b2be c7ce a03d ee7f 4abe
00000250: 5add a2bc ea03 c2be 5594 d6bc e809 0f3d
00000260: caa9 353e ba28 74be 6b14 283e f02f 023e
00000270: bd91 90bd a028 edbe c23c 2ebe 9a00 5abe
00000280: d502 5dbc b59a b1be c152 983d 5343 233e
00000290: c0db 533e bacc 7d3d 125f 29be 073a 0b3e
000002a0: 9040 8c3e d0ec b5be 9ad7 893e 4c0d 2ebf
000002b0: 15b5 4bbe a1d2 89bb 3918 7d3d 438e 0fbe
000002c0: ca97 3bbe 9a7a 6abe 7aa4 23be 7c64 34be
000002d0: 15d9 29bf e4e4 08bf b1c1 39be bd46 debd
000002e0: 3895 383c 6618 1b3f cc6a 853e 9772 11be
000002f0: 84dc 743e 29bb 3f3d f780 823e 42a8 b83e
00000300: 92f2 6bbe adc7 32be a1b7 0f3f 61ee ccbe
00000310: 6816 d63e 9c67 8bbe dc62 d93b 3af8 14be
00000320: 17f8 dfbe 69e7 10bc 34cb 843e 83b0 583d
00000330: 24dd 613d b93e 80bd 31f1 963e f817 18be
00000340: 2977 b6bd de07 6cbe 3ab4 143e 090f 4a3d
00000350: 247e 0b3c 3480 cf3e 0ffb 0c3d e472 19bf
00000360: 7ed0 92bd 8910 843e 0f41 6f3c 5a71 2ebd
00000370: c8d2 9e3e 9b7a bd3d 0b0d f03c 9102 46bd
00000380: f253 cebd c1ce 103e 58d9 e63d a10a b13e
00000390: 73f5 46be a0c9 74bb a747 8b3e 1e32 f8bd
000003a0: bdcd fa3a 18c9 be3d 9728 b23d 7389 033e
000003b0: 346e 9f3d dfda 60bd 9a82 bf3d 8814 d6be
000003c0: c1d0 24be ac95 14be 02ab ec3e 304f 06be
000003d0: e298 6dbe ba1d 973d 6d88 743e 7e5b 96bd
000003e0: 8f81 a2bd 2546 a83d f817 393e 49d3 8f3e
000003f0: d667 4abe b958 af3d 8be8 1dbe 954e 283e

actor.2.bias f4 [64]
0.043473937 -0.12019907 -0.22900535 -0.03171755 -0.34353876 0.009280132 0.008157392 -0.009498235
-0.04756146 -0.04559776 -0.28261507 -0.20930782 -0.12869067 -0.033985205 -0.12090892 -0.15164652
-0.11097009 -0.25183728 -0.26469502 -0.40142086 -0.1827368 -0.06867127 0.058732677 -0.21941118
-0.33963728 -0.10546001 -0.07065793 -0.25043473 -0.2046697 -0.38774666 -0.38042495 -0.26360148
-0.017521737 -0.28150544 -0.098070644 -0.057100017 0.08133794 -0.13125755 0.0791398 -0.116256885
-0.39192292 -0.17067212 -0.1831706 -0.3302739 -0.1565576 -0.15159138 -0.11911189 -0.05389358
-0.35790402 -0.10420552 0.09322644 0.014401559 -0.24208592 -0.010877738 0.032257132 -0.045626212
-0.31456897 -0.1496911 -0.09406342 -0.25638652 -0.00039478243 -0.24108414 -0.4447463 -0.119145885
00000000: ba11 323d ee2a f6bd 6180 6abe 43ea 01bd
00000010: 50e4 afbe b20b 183c 95a6 053c 7c9e 1bbc
00000020: cecf 42bd b7c4 3abd ecb2 90be ca54 56be
00000030: 7dc7 03be 1234 0bbd 199f f7bd 3a49 1bbe
00000040: 4944 e3bd d1f0 80be 1b86 87be 0987 cdbe
00000050: 5b1f 3bbe 86a3 8cbd ad91 703d 53ad 60be
00000060: f0e4 adbe 6bfb d7bd 1bb5 90bd fb38 80be
00000070: ef94 51be bb86 c6be 0fc7 c2be c6f6 86be
00000080: bf89 8fbc 7b21 90be 43d9 c8bd b5e1 69bd
00000090: 8294 a63d 6168 06be 0c14 a23d 1718 eebd
000000a0: 1faa c8be acc4 2ebe 1391 3bbe a919 a9be
000000b0: a350 20be c53a 1bbe eff0 f3bd 84bf 5cbd
000000c0: 323f b7be b469 d5bd 81ed be3d 84f4 6b3c
000000d0: 5fe5 77be 8a38 32bc 0e20 043d 8de2 3abd
000000e0: 2f0f a1be a048 19be 53a4 c0bd 1845 83be
000000f0: cdfa ceb9 c3de 76be c9b5 e3be c202 f4bd

actor.4.weight f4 [32, 64]
0.11460052 0.079265 0.13903812 -0.041089207 -0.0747339 -0.111236885 -0.26484406 -0.2767251
-0.18404491 0.2571758 0.085793465 -0.21804203 0.31208965 -0.24694988 -0.021033928 -0.25983554
0.15764973 0.008685802 -0.00058241957 -0.17400113 0.13539854 -0.12201589 0.008230431 0.42532167
0.2422812 -0.02925823 -0.15391642 -0.18876615 -0.061821926 -0.20480537 0.1429363 -0.33684355
-0.13362491 0.108424805 -0.25849557 -0.03824209 -0.112221465 -0.1390658 -0.03755343 -0.19825684
-0.18673027 -0.07020474 0.007932568 -0.080614775 0.025382236 -0.099442914 0.10286056 0.17846324
-0.046389107 -0.07883203 -0.23809019 0.064131156 0.19320068 0.061400175 -0.23254822 0.22744054
0.091183245 0.098771915 0.10451786 0.15994713 -0.15026353 0.035048444 -0.072498925 -0.16626537
-0.026756149 -0.15968338 -0.08158418 0.10211128 0.26062736 0.034910668 0.13783525 0.005543595
-0.06087564 0.0005376036 0.027720815 -0.036284268 0.3855171 0.026528364 -0.044812262 -0.2504857
-0.20759845 0.22730671 -0.0012077945 0.0627787 0.009053176 0.11289118 0.055352367 0.10313471
-0.13909772 0.1870153 -0.23569119 0.08431063 0.18981646 0.051727332 -0.54272413 0.20478567
-0.15435405 0.17635877 -0.22059408 -0.2592797 0.13301405 0.16196951 0.059568368 -0.13868186
-0.07567719 0.1047954 -0.14931527 -0.29852253 -0.080408245 0.061623808 0.077040695 -0.34011403
0.027417457 -0.07458179 -0.1748465 -0.053893026 -0.052213497 -0.11263096 0.12138993 0.19279532
-0.1861253 -0.062976055 -0.025810258 0.039996482 0.17468077 -0.07739845 0.13166179 0.028486796
-0.0115758795 -0.119237036 -0.15692014 0.06958937 0.27022952 -0.2098416 0.0003114963 -0.16083713
0.1313556 0.2103099 0.05716236 0.22746882 -0.06496261 -0.038504716 -0.09644574 -0.020810066
-0.3017336 -0.019470828 0.09273683 -0.06687134 -0.04215896 -0.10487505 -0.0114870705 0.1138707
-0.056853384 -0.24782623 -0.06517038 -0.15120645 -0.2760811 -0.012682862 0.10853299 -0.05919712
0.262668 0.12899694 0.16032037 0.037334096 0.14390936 0.13509418 -0.2568933 -0.14549829
0.12811509 -0.058878876 -0.034960296 -0.2874912 0.17104222 0.43345025 -0.22009152 -0.17312625
-0.10607071 -0.01573687 0.09892687 -0.1765699 -0.018288027 -0.038481075 -0.04869193 0.0920769
-0.106142975 -0.17262326 -0.2712092 -0.051400144 -0.30554137 0.534529 0.23261273 0.21123286
-0.07222387 0.24873352 0.029366102 0.029181344 -0.0059780255 0.22453518 -0.2882994 -0.17695819
-0.13669355 -0.15090564 -0.033251498 -0.022984227 0.037399743 -0.22941613 0.04737466 0.092549846
-0.278375 -0.034304272 0.029022545 -0.19015718 0.13549957 0.009765673 -0.1477087 0.28332388
-0.0130588 -0.32506847 -0.14911453 -0.25605622 -0.27011758 0.024164498 0.30228046 -0.00091277424
0.015708234 -0.028333787 -0.014078034 -0.030567927 -0.3546278 -0.20753226 0.027195642 0.31927094
-0.11064413 -0.07730046 -0.16308908 0.193217 -0.035313345 -0.24758658 -0.30875495 -0.019095901
-0.060999524 0.08167274 0.029317241 0.0108603425 0.22714223 -0.26705602 -0.39282742 -0.026987422
0.139342 0.1370215 0.18156523 0.0018950822 -0.16497213 -0.21883567 0.09034226 0.16922362
00000000: adb3 ea3d b055 a23d 0260 0e3e 284d 28bd
00000010: 160e 99bd 2ad0 e3bd a499 87be eaae 8dbe
00000020: 4576 3cbe 8cac 833e 7cb4 af3d 6946 5fbe
00000030: 37ca 9f3e 6ee0 7cbe 584f acbc 2a09 85be
00000040: ee6e 213e e54e 0e3c 84ad 18ba 5a2d 32be
00000050: eaa5 0a3e 78e3 f9bd eed8 063c c3c3 d93e
00000060: 9018 783e f5ae efbc 449c 1dbe ea4b 41be
00000070: fd38 7dbd 80b8 51be e55d 123e c276 acbe
00000080: f8d4 08be d30d de3d 8859 84be bda3 1cbd
00000090: 5ed4 e5bd 4467 0ebe a0d1 19bd d703 4bbe
000000a0: 3836 3fbe 81c7 8fbd 9af7 013c 5c19 a5bd
000000b0: 68ee cf3c baa8 cbbd 8fa8 d23d 11bf 363e
000000c0: 8102 3ebd b072 a1bd eacd 73be 3257 833d
000000d0: 66d6 453e c07e 7b3d 1f21 6ebe 2ce6 683e
000000e0: 48be ba3d ee48 ca3d 760d d63d 2ec9 233e
000000f0: afde 19be f58e 0f3d 517a 94bd 7841 2abe
00000100: b62f dbbc 0a84 23be 9b15 a7bd b81f d13d
00000110: f370 853e 7dfe 0e3d af24 0d3e 0ca7 b53b
00000120: bc58 79bd f8ed 0c3a c316 e33c d09e 14bd
00000130: 7f62 c53e 0352 d93c 108d 37bd a93f 80be
00000140: b094 54be 17c3 683e dc4e 9eba 1e92 803d
00000150: c653 143c 7e33 e73d 2ab9 623d 4a38 d33d
00000160: a26f 0ebe f080 3f3e 0859 71be 0dab ac3d
00000170: 3f5f 423e 0ae0 533d f8ef 0abf 56b3 513e
00000180: fd0e 1ebe 6597 343e 6ae3 61be 4fc0 84be
00000190: d634 083e 56db 253e f6fd 733d 9e02 0ebe
000001a0: a5fc 9abd f89e d63d 1ae6 18be f2d7 98be
000001b0: 14ad a4bd 3f69 7c3d 83c7 9d3d 6d23 aebe
000001c0: 939a e03c 56be 98bd f60a 33be efbe 5cbd
000001d0: d2dd 55bd 10ab e6bd 499b f83d 236c 453e
000001e0: a197 3ebe 97f9 80bd 0970 d3bc 5ad3 233d
000001f0: 84df 323e 1483 9ebd 59d2 063e 245d e93c
00000200: c2a8 3dbc 8c32 f4bd acaf 20be df84 8e3d
00000210: 865b 8a3e b7e0 56be 5350 a339 7db2 24be
00000220: 1582 063e 7a5b 573e 1423 6a3d 96ed 683e
00000230: 1e0b 85bd 1fb7 1dbd 5885 c5bd df79 aabc
00000240: d47c 9abe 4981 9fbc cfec bd3d d7f3 88bd
00000250: e0ae 2cbd bbc8 d6bd 4434 3cbc 0b35 e93d
00000260: 18df 68bd 29c6 7dbe 0c78 85bd ddd5 1abe
00000270: 805a 8dbe c7cb 4fbc 8b46 de3d ae78 72bd
00000280: 6c7c 863e c617 043e 062b 243e a3eb 183d
00000290: fa5c 133e 2156 0a3e 8587 83be 81fd 14be
000002a0: 9a30 033e fa2a 71bd 8732 0fbd 0c32 93be
000002b0: b125 2f3e 31ed dd3e ac5f 61be 0248 31be
000002c0: 9a3b d9bd 9cea 80bc 2c9a ca3d bdce 34be
000002d0: c6d0 95bc 559e 1dbd 3071 47bd d092 bc3d
000002e0: 7d61 d9bd 27c4 30be efdb 8abe f588 52bd
000002f0: eb6f 9cbe e4d6 083f 0832 6e3e 6d4d 583e
00000300: 1cea 93bd 00b4 7e3e 2e91 f03c b70d ef3c
00000310: 50e3 c3bb 8dec 653e fb9b 93be 8734 35be
00000320: 65f9 0bbe 0287 1abe b932 08bd 6b49 bcbc
00000330: 7930 193d 10ec 6abe ee0b 423d c68a bd3d
00000340: 2b87 8ebe a382 0cbd b0c0 ed3c 90b8 42be
00000350: 66c0 0a3e 3400 203c f340 17be d40f 913e
00000360: 94f4 55bc 606f a6be 7bb1 18be cd19 83be
00000370: da4c 8abe a0f4 c53c 81c4 9a3e 3e47 6fba
00000380: 8eae 803c 421c e8bc 8ea7 66bc 9769 fabc
00000390: c691 b5be 5683 54be 65c9 de3c 7b77 a33e
000003a0: 6499 e2bd b44f 9ebd d300 27be adda 453e
000003b0: baa4 10bd 5687 7dbe 2115 9ebe 026f 9cbc
000003c0: a3da 79bd 0a44 a73d b62a f03c 94ef 313c
000003d0: f997 683e 91bb 88be ad20 c9be ba14 ddbc
000003e0: abaf 0e3e 5d4f 0c3e 3cec 393e 6864 f83a
000003f0: 74ee 28be 7516 60be 5d05 b93d f548 2d3e

actor.4.bias f4 [32]
-0.084542684 -0.05995494 -0.3125264 -0.16787317 -0.0046031456 -0.19335578 -0.041510664 -0.25143963
-0.15343381 -0.19803962 -0.27421728 -0.16959487 -0.520745 -0.0032101793 -0.14102739 -0.29962438
0.11396086 -0.21261874 -0.5361043 0.020511847 0.07352003 -0.4628434 0.006042895 -0.024228605
0.028162755 -0.42419335 0.09144736 -0.44922823 -0.14507051 -0.37394613 -0.0013446377 -0.41047716
00000000: b724 adbd 5093 75bd 7603 a0be f2e6 2bbe
00000010: fcd5 96bb 0fff 45be 1607 2abd b2bc 80be
00000020: c11d 1dbe e6ca 4abe 3566 8cbe 47aa 2dbe
00000030: 8b4f 05bf df61 52bb 7c69 10be 5e68 99be
00000040: 5064 e93d bab8 59be 223e 09bf 7608 a83c
00000050: ab91 963d cff9 ecbe 7a03 c63b 117b c6bc
00000060: 94b5 e63c df2f d9be c148 bb3d 3e01 e6be
00000070: 5d8d 14be de75 bfbe 8e3e b0ba 102a d2be

actor.6.weight f4 [8, 32]
0.04176575 0.15028629 -0.24247767 0.15378594 0.106059164 -0.027776524 -0.043186136 -0.26144606
-0.015470003 0.19167337 -0.049306132 0.11391844 -0.2910207 0.23474042 -0.037801627 0.0144241555
0.2816214 -0.15453076 -0.06815911 -0.018182354 -0.0770618 -0.12695293 0.32508343 -0.08564661
0.21828386 -0.23804045 -0.15914056 -0.117721766 0.13147105 -0.2245076 0.077181354 -0.22323999
-0.17518128 -0.04431919 0.0018188433 -0.051095814 0.08918913 0.050098248 -0.14269447 0.05736709
0.12966935 -0.06802154 -0.066287935 0.004354217 -0.27378935 0.043596286 0.0339585 -0.032199413
0.26971346 0.14253043 -0.24802965 0.11417906 0.2655045 0.30226997 -0.090234466 -0.18671265
-0.091466144 0.15054503 0.06621478 -0.10846 0.025234973 0.23196186 0.0146667985 -0.09475442
0.0024021093 -0.21600449 0.087688655 0.061392836 -0.037575018 -0.012605643 0.04575349 0.112426125
-0.28598917 -0.23075294 -0.2988709 0.059822224 -0.11465797 -0.185928 0.12322661 0.017915338
-0.10361255 -0.14991863 -0.038799822 0.54789 -0.2915492 -0.03987662 -0.010310024 -0.123486854
-0.07092688 -0.0060723717 -0.41412526 0.03483363 0.18667822 0.01440111 -0.31724653 -0.037815746
0.030157251 -0.019097349 0.0038623507 0.21029921 -0.09478997 -0.17627995 0.36533254 0.30257362
0.21775348 0.033029538 -0.20083714 0.12063281 -0.083374694 -0.05722304 -0.0600479 -0.33709878
0.028628312 -0.037398305 0.008632759 -0.19748582 -0.0023942182 0.15915066 -0.04789371 -0.087329835
-0.011223874 -0.081205435 -0.09514157 -0.10754397 0.08371251 -0.039168198 0.065058306 0.052388355
-0.08542858 0.1055161 0.08719173 -0.05313503 -0.3176859 -0.121075384 -0.09901419 -0.019983334
0.06905639 0.109703936 0.18021865 0.0675575 0.1441771 -0.18923637 -0.088651314 0.025140256
-0.05702491 0.19923931 -0.055224914 -0.2815083 0.010872257 0.12397351 -0.14550076 0.13621685
0.14243014 0.31253612 -0.25592452 0.09523475 0.008694845 0.103446275 0.21940896 0.18051547
0.100124925 -0.032556195 -0.03801751 0.13137229 0.20603383 0.13149615 -0.060674302 -0.044233885
0.08069611 -0.06828238 -0.19771643 -0.0016935009 -0.21964984 0.044712137 0.06600874 0.121728025
-0.16173682 0.14874622 0.20325248 -0.075019486 0.19337247 -0.21593297 -0.27898318 -0.17299135
0.07027122 0.2197332 -0.010834436 0.0076062134 -0.054039013 0.25755203 -0.0011919657 -0.05952996
0.22032806 0.08754534 0.27211922 -0.22179951 -0.058881238 -0.091134496 0.026888147 0.24647748
0.12418511 -0.23666608 0.2172725 -0.36435914 -0.057751957 -0.34022605 0.4056683 0.008045804
0.063192785 -0.102545395 -0.005061529 -0.023986423 -0.15984772 0.023313578 0.009262109 0.23699908
0.08558606 -0.07647591 0.24929868 -0.05586103 -0.3593152 0.23618424 -0.173899 0.002452488
-0.017074471 -0.06800597 0.20137148 0.03854008 0.16108578 -0.083877325 -0.10925541 -0.16655964
-0.010960945 0.26750568 0.0052919597 -0.06953353 0.02593847 -0.20063521 -0.050694175 -0.30169192
0.030790666 0.0037227874 0.12957126 -0.096890025 0.25539362 0.07187859 -0.1967654 -0.00083865435
0.11452625 0.036952555 0.00043658627 -0.001947358 -0.06823045 -0.09416681 -0.07425751 -0.22683708
00000000: 9012 2b3d a6e4 193e 114c 78be 107a 1d3e
00000010: 8c35 d93d 988b e3bc f2e3 30bd 42dc 85be
00000020: e575 7dbc 0646 443e 3af5 49bd 124e e93d
00000030: aa00 95be cb5f 703e e1d5 1abd 4b53 6c3c
00000040: ae30 903e 503d 1ebe 0197 8bbd 29f3 94bc
00000050: 94d2 9dbd f3ff 01be 5671 a63e 7d67 afbd
00000060: ce85 5f3e e0c0 73be bef5 22be 1c18 f1bd
00000070: 59a0 063e 52e5 65be 4211 9e3d 0699 64be
00000080: b962 33be 0a88 35bd 4166 ee3a d849 51bd
00000090: caa8 b63d d233 4d3d 801e 12be c1f9 6a3d
000000a0: 0bc8 043e e14e 8bbd f8c1 87bd d2ad 8e3b
000000b0: 1e2e 8cbe 0592 323d 1118 0b3d 88e3 03bd
000000c0: e217 8a3e 7ff3 113e 7cfb 7dbe b6d6 e93d
000000d0: 35f0 873e 21c3 9a3e d9cc b8bd 9a31 3fbe
000000e0: 9a52 bbbd 7a28 1a3e 9d9b 873d 4720 debd
000000f0: 93b9 ce3c 6987 6d3e 034d 703c 9b0e c2bd
00000100: b56c 1d3b 4830 5dbe 1c96 b33d 0e77 7b3d
00000110: 43e8 19bd e687 4ebc 0368 3b3d ab3f e63d
00000120: 2c6d 92be 804a 6cbe 9b05 99be 2608 753d
00000130: ccd1 eabd e963 3ebe 3c5e fc3d 30c3 923c
00000140: d132 d4bd 4584 19be 90ec 1ebd 8542 0c3f
00000150: f045 95be ab55 23bd 60eb 28bc ade6 fcbd
00000160: 1d42 91bd bffa c6bb 3a08 d4be b5ad 0e3d
00000170: 9328 3f3e a2f2 6b3c 236e a2be afe4 1abd
00000180: 570c f73c 0b72 9cbc 7e1f 7d3b ad58 573e
00000190: 3e21 c2bd bb82 34be de0c bb3e eeea 9a3e
000001a0: c5fa 5e3e fb49 073d 40a8 4dbe 560e f73d
000001b0: 5ac0 aabd b562 6abd c9f4 75bd 3698 acbe
000001c0: ec85 ea3c f72e 19bd 6a70 0d3c b939 4abe
000001d0: 51e8 1cbb 64f8 223e 322c 44bd fcd9 b2bd
000001e0: 57e4 37bc 094f a6bd 95d9 c2bd 0340 dcbd
000001f0: 7771 ab3d d56e 20bd 4a3d 853d 2c95 563d
00000200: 2ef5 aebd d318 d83d 9491 b23d 1ea4 59bd
00000210: baa7 a2be 5ff6 f7bd f4c7 cabd 17b4 a3bc
00000220: 706d 8d3d 75ac e03d 3d8b 383e 965b 8a3d
00000230: 29a3 133e 2ec7 41be d28e b5bd f0f2 cd3c
00000240: f492 69bd 6405 4c3e 8533 62bd db21 90be
00000250: 8d21 323c d3e5 fd3d 27fe 14be 6e7c 0b3e
00000260: 35d9 113e bc04 a03e 8a08 83be 700a c33d
00000270: d374 0e3c a4db d33d beac 603e 0cd9 383e
00000280: 4c0e cd3d a559 05bd 40b8 1bbd 7586 063e
00000290: 88fa 523e eda6 063e 9e85 78bd 972e 35bd
000002a0: 0144 a53d a2d7 8bbd 2d76 4abe 76f8 ddba
000002b0: e3eb 60be 1324 373d 972f 873d 8b4c f93d
000002c0: 569e 25be ee50 183e 6b21 503e d1a3 99bd
000002d0: 6f03 463e 881d 5dbe e2d6 8ebe a524 31be
000002e0: 5bea 8f3d bd01 613e eb82 31bc 8b3d f93b
000002f0: 0358 5dbd dcdd 833e bb3b 9cba b0d5 73bd
00000300: ae9d 613e f94a b33d 3653 8b3e 691f 63be
00000310: 742d 71bd b9a4 babd 8844 dc3c 9864 7c3e
00000320: c354 fe3d 9858 72be af7c 5e3e 488d babe
00000330: 518d 6cbd 1c32 aebe c1b3 cf3e 8cd2 033c
00000340: 386b 813d 5203 d2bd 2fdb a5bb 2d7f c4bc
00000350: 1faf 23be 1efc be3c 1ac0 173c e3af 723e
00000360: bf47 af3d 679f 9cbd 2748 7f3e 89ce 64bd
00000370: 29f8 b7be 48da 713e 9412 32be ecb9 203b
00000380: c3df 8bbc b746 8bbd 5334 4e3e 34dc 1d3d
00000390: acf3 243e e0c7 abbd 4dc1 dfbd 9c8e 2abe
000003a0: 8995 33bc 81f6 883e 2d68 ad3b 9867 8ebd
000003b0: ea7c d43c 5173 4dbe b2a4 4fbd 5d77 9abe
000003c0: b53c fc3c 02fa 733b 54ae 043e 476e c6bd
000003d0: f4c2 823e 1535 933d de7c 49be 24d9 5bba
000003e0: bd8c ea3d 905b 173d 9ee5 e439 7e3e ffba
000003f0: 68bc 8bbd 87da c0bd 5214 98bd fb47 68be

actor.6.bias f4 [8]
0.28700122 0.016185751 -0.18650077 0.16825496 -0.29903197 0.02303535 -0.013967163 0.33259615
00000000: d3f1 923e fb97 843c 0ffa 3ebe 074b 2c3e
00000010: b81a 99be a1b4 bc3c 87d6 64bc 0b4a aa3e

critic.0.weight f4 [128, 33]
0.34863243 0.35783806 0.44758648 0.061528325 -0.5087922 0.5205771 0.11555979 -0.7232176
0.45339116 0.9975664 -0.016868295 -0.16553828 -0.3908942 0.13847026 1.2207958 1.0304651
-0.3066185 0.18959112 0.078681804 -0.14723364 -0.09805769 -0.14005856 -0.004769688 0.090138294
-0.10031807 -0.0145436665 0.032087024 0.10947174 -0.011718939 0.001245754 0.12993446 -0.2175137
3.012411 0.2625462 0.38531488 0.31244102 -0.018272644 -0.19985335 0.820769 0.29158416
-0.29169577 0.52473116 0.9870615 -0.29847267 0.3817918 0.42533022 -0.56791157 0.17554648
2.395531 -0.9785888 -0.09498124 -0.48194975 0.89876586 0.3623462 -0.19959022 0.019748775
0.07645397 -0.0719097 -0.17020136 0.059120145 0.0357079 0.073990405 -0.007058199 0.22104207
0.17253429 -1.8165661 0.39541426 -0.25538823 0.14806086 -0.15058231 0.07507717 -0.39505807
-0.81938297 0.39326698 -0.3320993 -0.47940293 0.17492008 0.2782515 -0.1936017 0.52868414
0.5359097 -2.4543464 1.239233 -0.031359337 0.38248265 -0.86768126 1.3134922 0.27071685
0.001409824 -0.11138973 -0.08152528 0.048352197 0.078636535 -0.2392655 -0.2787653 0.12830727
-0.25649747 0.20656405 -0.033822276 -0.07309489 0.507322 0.022504821 -0.41282606 -0.362744
0.053430665 0.31144637 1.2926276 -0.3420196 0.090467684 -0.7604527 1.0273854 -0.5798579
0.5728005 0.115854494 0.8868827 -0.90307254 0.10126913 0.33375046 0.0064226626 -0.5458802
-0.18717246 0.010462048 0.1611339 0.07466642 0.24564916 -0.026820935 0.05291018 0.030770045
0.1937111 0.30530548 -0.2548733 0.694974 0.15262419 -0.11995301 -0.027513532 -0.70429015
-0.082682006 0.05783953 -0.5372334 -0.68737894 -0.0998542 -0.039310757 0.4343622 -0.06230076
-0.04167559 0.16200215 -0.33104062 -0.24230118 -0.0007710123 0.0008506362 0.2883682 -0.32493338
0.2260233 -0.06034982 0.08964239 0.007945759 0.046013564 -0.029678065 0.035713185 -0.10692756
-0.003302094 -0.11572064 0.512219 0.07673304 -0.06403716 -0.23484136 -0.30629492 -0.22356959
-0.6287186 -0.014123276 -0.5549444 0.016865464 -0.34498268 0.4059203 0.2611328 0.23268932
0.78799963 -0.09535458 -0.049483005 -0.64082134 -0.654431 -0.07441844 0.02474995 -0.36267087
0.45466962 0.10509245 0.012034034 0.038355656 0.051953543 0.06007146 0.045363586 -0.07000057
0.019640986 0.022436392 0.0532649 0.3889587 -0.24221425 -0.10288139 0.20401599 -0.3448811
-0.34598616 -0.508197 -0.12818451 -0.31454435 -0.30298144 -0.12875812 0.17944928 -0.211039
0.43969724 0.6001589 -0.16690938 -0.4565914 -0.24376434 -1.0383586 0.9848066 -0.027326182
-0.07016919 0.25827307 0.23024713 -0.0099628335 -0.10416152 -0.009507908 -0.057519373 0.041781496
0.040440172 0.09081273 -0.03644717 -0.035117622 -0.29744893 -0.23239826 0.17159684 -0.1807877
0.36254394 -0.5980878 0.9914822 0.3115342 1.4051552 0.44211745 -0.58153486 -0.07163877
-0.36099923 -0.3103436 -0.65255415 -1.064016 0.1489166 0.47924948 0.219227 -0.2886852
-0.28077504 -0.19176276 -1.0727401 -0.26048043 0.124846905 -0.037917443 -0.089997925 0.14620252
00000000: f37f b23e 8d36 b73e 0e2a e53e 2005 7c3d
00000010: 3540 02bf 8a44 053f 9caa ec3d ca24 39bf
00000020: e322 e83e 8360 7f3f 612f 8abc de82 29be
00000030: 4923 c8be 26cb 0d3e 0943 9c3f 48e6 833f
00000040: 1afd 9cbe 2d24 423e ed23 a13d 6ac4 16be
00000050: 78d2 c8bd 836b 0fbe 0b4b 9cbb 6d9a b83d
00000060: 8f73 cdbd 8f48 6ebc af6d 033d b832 e03d
00000070: cb00 40bc 9148 a33a 8a0d 053e e9bb 5ebe
00000080: 58cb 4040 756c 863e fe47 c53e 45f8 9f3e
00000090: 83b0 95bc 5ba6 4cbe eb1d 523f 854a 953e
000000a0: 2659 95be c854 063f 10b0 7c3f 69d1 98be
000000b0: 377a c33e e2c4 d93e a762 11bf 75c2 333e
000000c0: 6150 1940 cc84 7abf 8685 c2bd 1ec2 f6be
000000d0: 8515 663f 7185 b93e 6161 4cbe 2fc8 a13c
000000e0: e693 9c3d 6545 93bd 4449 2ebe f727 723d
000000f0: 7242 123d 4888 973d 7748 e7bb da58 623e
00000100: d4ac 303e 3d85 e8bf bd73 ca3e 3fc2 82be
00000110: 449d 173e 4032 1abe 0fc2 993d 0d45 cabe
00000120: 15c3 51bf 4a5a c93e eb08 aabe 4d74 f5be
00000130: 401e 333e fb76 8e3e 863f 46be d857 073f
00000140: 6131 093f 0314 1dc0 309f 9e3f a672 00bd
00000150: c4d4 c33e 5c20 5ebf 8320 a83f 669b 8a3e
00000160: d8c9 b83a 4c20 e4bd baf6 a6bd f40c 463d
00000170: 310c a13d 0402 75be 53ba 8ebe fb62 033e
00000180: a353 83be 8785 533e 3a89 0abd c6b2 95bd
00000190: dbdf 013f 085c b83c f05d d3be 95b9 b9be
000001a0: 1dda 5a3d e675 9f3e d274 a53f 311d afbe
000001b0: 1f47 b93d 07ad 42bf 5d81 833f 9171 14bf
000001c0: 0ea3 123f 1f45 ed3d bf0a 633f c32f 67bf
000001d0: 3166 cf3d 57e1 aa3e 3375 d23b cebe 0bbf
000001e0: 23aa 3fbe 0369 2b3c 4900 253e b5ea 983d
000001f0: 748b 7b3e 94b7 dbbc 58b8 583d 7611 fc3c
00000200: 345c 463e 0051 9c3e c17e 82be d1e9 313f
00000210: 8449 1c3e eca9 f5bd 0f64 e1bc 5c4c 34bf
00000220: 2f55 a9bd 25e9 6c3d 2188 09bf 11f8 2fbf
00000230: 5c80 ccbd 5104 21bd b964 de3e 152f 7fbd
00000240: 06b4 2abd e4e3 253e 287e a9be cd1d 78be
00000250: c21d 4aba 3bfd 5e3a ffa4 933e ab5d a6be
00000260: a772 673e 5f31 77bd 6e96 b73d ee2e 023c
00000270: b878 3c3d 6a1f f3bc fd47 123d d6fc dabd
00000280: f267 58bb f1fe ecbd c920 033f 3626 9d3d
00000290: ea25 83bd 417a 70be b0d2 9cbe 6def 64be
000002a0: b4f3 20bf 5065 67bc d610 0ebf 7129 8a3c
000002b0: 92a1 b0be c9d4 cf3e 33b3 853e 1c46 6e3e
000002c0: 58ba 493f 4349 c3bd b1ae 4abd de0c 24bf
000002d0: ca88 27bf b268 98bd 68c0 ca3c ffaf b9be
000002e0: 75ca e83e b63a d73d 662a 453c d21a 1d3d
000002f0: 3dcd 543d 7e0d 763d 2bcf 393d 755c 8fbd
00000300: 22e6 a03c 86cc b73c 4c2c 5a3d 9825 c73e
00000310: 0307 78be 7ab3 d2bd 91e9 503e 4194 b0be
00000320: 1925 b1be 3319 02bf cd42 03be f50b a1be
00000330: 6220 9bbe 2bd9 03be 8dc1 373e 9c1a 58be
00000340: ff1f e13e 03a4 193f 4bea 2abe 59c6 e9be
00000350: 5c9d 79be efe8 84bf 491c 7c3f 28db dfbc
00000360: ddb4 8fbd 5e3c 843e e7c5 6b3e 273b 23bc
00000370: a352 d5bd 0ec7 1bbc 6f99 6bbd 1323 2b3d
00000380: 98a4 253d 06fc b93d a149 15bd 7fd7 0fbd
00000390: 3a4b 98be cff9 6dbe 15b7 2f3e 6920 39be
000003a0: 5c9f b93e 481c 19bf c7d1 7d3f 6981 9f3e
000003b0: 20dc b33f 385d e23e 78df 14bf 59b7 92bd
000003c0: e4d4 b8be 5be5 9ebe ca0d 27bf ad31 88bf
000003d0: 987d 183e 3060 f53e 0b7d 603e 8cce 93be
000003e0: bfc1 8fbe 755d 44be 8c4f 89bf b15d 85be
000003f0: bcaf ff3d 524f 1bbd d550 b8bd 1db6 153e

critic.0.bias f4 [128]
-0.4123879 -0.481151 0.06882471 -0.119301364 0.5116298 -0.32997772 0.18160586 -0.3093205
0.29731414 -0.37825307 0.15420388 0.0823065 -0.05334521 -0.33155286 -0.16601074 -0.47498277
0.3097759 -0.092549056 -0.17693448 0.38317716 0.46138462 0.17444281 0.08231705 -0.38490558
-0.1270715 0.5125161 -0.09194907 -0.29346076 -0.10225869 -0.10602723 0.38087907 -0.37138677
-0.37283963 -0.33259583 -0.46866325 -0.14633118 0.4033906 -0.00222047 0.061242875 0.12273362
0.11343102 -0.47044584 -0.30386204 0.24046335 0.3806547 0.014091189 0.10714818 -0.38892975
0.030241102 -0.21607682 0.27979696 -0.088006824 0.05738086 -0.6239545 0.048051883 -0.0782989
0.30014357 -0.5190758 -0.0010394341 -0.12504554 0.28294742 -0.5021717 -0.3884329 0.35198334
0.07482574 0.20269349 -0.110267706 -0.50938445 0.041427407 0.0071408227 -0.16650078 0.06291448
-0.56260484 -0.22529939 0.35922384 -0.2826505 -0.22602108 -0.35444328 -0.6010156 0.44517282
-0.35949346 -0.053310126 0.01430387 0.32864633 0.21935047 0.02579825 -0.3349407 0.28897914
0.4379941 -0.34288728 0.2257802 -0.16021009 0.15542711 -0.32478884 0.0002005539 -0.074849375
-0.4274999 0.3888901 -0.2565227 0.38758433 0.095918395 0.47831562 0.40824014 0.48895934
-0.053846568 0.21857932 0.19601303 0.25111812 0.32204723 0.06549095 0.39147532 0.038678415
0.24162583 -0.249127 -0.02240679 0.038103566 0.18418731 0.0058531216 -0.1426462 -0.40815654
0.035261527 0.108772695 0.20192829 -0.41813043 0.1299448 -0.27078566 0.10491326 0.3083373
00000000: 8224 d3be 6d59 f6be f8f3 8c3d 4654 f4bd
00000010: 2cfa 023f d7f2 a8be e3f6 393e 425f 9ebe
00000020: 8f39 983e 63aa c1be 9fe7 1d3e 4f90 a83d
00000030: 8280 5abd 4cc1 a9be b8fe 29be f130 f3be
00000040: f29a 9e3e 5c8a bdbd 502e 35be cc2f c43e
00000050: 9b3a ec3e 23a1 323e d795 a83d 5812 c5be
00000060: 081f 02be 4134 033f cb4f bcbd 7d40 96be
00000070: 016d d1bd ce24 d9bd 9502 c33e 6826 bebe
00000080: d6e4 bebe 004a aabe a1f4 efbe d7d7 15be
00000090: 3689 ce3e 4e85 11bb cfd9 7a3d c45b fb3d
000000a0: 864e e83d 47de f0be ce93 9bbe 063c 763e
000000b0: 2ce5 c23e bbde 663c 8170 db3d cd21 c7be
000000c0: 30bc f73c 3e43 5dbe 8c41 8f3e ec3c b4bd
000000d0: 3108 6b3d 7bbb 1fbf 0dd2 443d 2c5b a0bd
000000e0: 6bac 993e 27e2 04bf 9f3d 88ba f00b 00be
000000f0: 7cde 903e 538e 00bf ade0 c6be 2937 b43e
00000100: 3d3e 993d e28e 4f3e 09d4 e1bd 0567 02bf
00000110: c9af 293d 90fd e93b 2e7f 2abe 4fd9 803d
00000120: df06 10bf e2b4 66be 30ec b73e 91b7 90be
00000130: 1272 67be 9779 b5be 29dc 19bf b1ed e33e
00000140: 870f b8be b85b 5abd c75a 6a3c 5544 a83e
00000150: 699d 603e da56 d33c 597d abbe 13f5 933e
00000160: c340 e03e ec8e afbe ed32 673e 1d0e 24be
00000170: 4928 1f3e b94a a6be c74b 5239 a14a 99bd
00000180: 44e1 dabe 9a1c c73e f156 83be 7471 c63e
00000190: dd70 c43d c9e5 f43e da04 d13e e158 fa3e
000001a0: 388e 5cbd 42d3 5f3e a4b7 483e 8e92 803e
000001b0: 60e3 a43e 1f20 863d 746f c83e 426d 1e3d
000001c0: c36c 773e 261b 7fbe 728e b7bc 7c12 1c3d
000001d0: 999b 3c3e 8bcb bf3b d811 12be e5f9 d0be
000001e0: 646e 103d 38c4 de3d 4ac6 4e3e 3115 d6be
000001f0: 4010 053e 6ba4 8abe c3dc d63d 63de 9d3e

critic.2.weight f4 [64, 128]
0.31952116 0.26719326 -0.21329537 -0.07323127 -0.2002073 0.17940657 0.085899524 0.27708083
-0.2734265 0.008176301 -0.17336486 -0.12975408 -0.13946001 0.48171818 0.1236855 -0.021791631
0.3157789 0.124571964 0.14965545 -0.32859245 -0.32340303 0.022941062 0.14493726 0.34111696
0.22283766 -0.22373588 -0.10458733 -0.0913905 -0.5749412 -0.16719112 0.0726119 0.030655997
0.3626552 0.1664575 -0.38768202 0.07366948 -0.25791338 0.41760966 -0.08602955 -0.0836702
-0.03960369 0.41212296 -0.056381777 0.17266852 -0.40727797 -0.2131507 0.33339292 0.16843337
-0.16893193 -0.08728606 -0.1091697 -1.6069136 0.037857052 0.49602637 0.29818135 -0.14528985
0.17459957 -0.12022814 -0.10872206 -0.27975667 0.083301984 0.026661921 -0.037339397 0.17728879
0.10749059 -0.010316354 -0.094020545 0.15080538 -0.22490413 -0.21976668 0.01172872 -0.33639765
0.27496514 -0.053261437 -0.29119134 0.17246646 0.2859103 -0.16733658 0.06975907 -0.005646387
0.056355167 -0.11763661 -0.113642335 -0.095106244 -0.1890744 -0.08826816 -0.12986243 -0.21329197
-0.0016526734 0.16226742 0.0791777 0.20487201 -0.058808744 0.39661697 -0.08506989 0.19764014
0.11030892 0.105500475 0.3653941 -0.093838885 -0.06780902 -0.118052036 0.00870997 -0.06580212
-0.37683073 -0.5216076 0.037748817 -0.17729244 -0.4627848 -0.30912253 -0.0031435948 0.017148808
-0.26406017 0.0065607186 -0.033751294 -0.61395454 -0.17332596 0.23590687 0.524258 -0.011756123
0.099972814 -0.026900722 -0.24099025 0.20267831 0.26719156 0.110891946 -0.44864592 0.085048914
0.10138237 -0.052039977 -0.30034456 -0.21129249 0.22316556 -0.26538172 -0.20628959 0.3228487
-0.11724018 -0.0005656804 0.047227193 0.008064702 -0.17427295 -0.3368763 0.110519744 0.23637313
-0.07173385 -0.48524272 0.072198085 -0.2725545 0.33026034 -0.33113757 -0.20782518 -0.18376832
-0.26476556 -0.081455596 -0.0760402 -0.0598377 -0.047797233 -0.16173226 0.19915715 -0.6899479
0.25592515 -0.6979516 -0.450793 0.004053273 0.14322639 0.10699202 0.48055336 -0.16812707
0.70245445 0.27187005 -0.9100525 -0.2510515 0.23643218 -0.3670418 0.21118626 -0.4909112
-0.20399457 -0.14614053 0.16652104 -0.4198282 -0.10908709 0.3170578 0.16332637 -0.0011315882
0.21097432 0.2527987 -0.16009733 0.3023756 -0.08434296 -0.30024946 -0.32565078 0.38347232
0.18332726 0.20486082 -0.3787309 0.20547186 -0.08811511 0.24480312 0.3914983 0.106329076
0.26519775 -0.4701672 0.16788968 -0.21703339 -0.43221086 -0.35794523 0.0806147 0.078010194
-0.6125446 -0.055246934 -0.12858084 0.8659223 0.09803537 -0.3496793 0.12002086 0.07147568
-0.087388985 -0.451245 0.08653213 -0.008945979 0.15667029 0.44031617 -0.5076273 -0.044624504
-0.2049276 -0.043726776 0.22661033 0.27927253 0.1371798 -0.12924863 0.023343321 0.02916495
-0.3625056 0.21683234 -0.68127704 0.22352731 0.038761858 0.50031155 0.1680621 -0.052225623
-0.02499854 -0.17601949 -0.05838608 -0.09502902 -0.30148965 0.022586074 0.7334635 0.29249647
-0.101021454 0.3849534 -0.088755116 0.46453622 0.32042375 -0.032460555 -0.41085705 0.30130017
00000000: 4798 a33e 8ecd 883e 1a6a 5abe 47fa 95bd
00000010: 2403 4dbe 5bb6 373e 17ec af3d 8add 8d3e
00000020: 8ffe 8bbe e4f5 053c 8f86 31be 41de 04be
00000030: 9bce 0ebe c4a3 f63e d34e fd3d 5d84 b2bc
00000040: c6ad a13e 961f ff3d 473f 193e 453d a8be
00000050: 1595 a5be e5ee bb3c 6f6a 143e e2a6 ae3e
00000060: 8e2f 643e 051b 65be e231 d6bd f12a bbbd
00000070: 592f 13bf 2634 2bbe 8cb5 943d 4922 fb3c
00000080: f1ad b93e d673 2a3e 427e c6be 06e0 963d
00000090: 390d 84be efd0 d53e 4330 b0bd 485b abbd
000000a0: 7b37 22bd c801 d33e 94f0 66bd 04d0 303e
000000b0: bd86 d0be 2d44 5abe 7ab2 aa3e cc79 2c3e
000000c0: 7efc 2cbe 09c3 b2bd 5d94 dfbd 58af cdbf
000000d0: ff0f 1b3d 2bf7 fd3e 3aab 983e ddc6 14be
000000e0: 3bca 323e 2c3a f6bd aca9 debd 443c 8fbe
000000f0: 3b9a aa3d 1a6a da3c 32f1 18bd 318b 353e
00000100: 0724 dc3d ed05 29bc d88d c0bd ba6c 1a3e
00000110: 454d 66be 840a 61be d129 403c 503c acbe
00000120: 3bc8 8c3e aa28 5abd 0817 95be 0c9b 303e
00000130: d662 923e 485a 2bbe d8dd 8e3d 5405 b9bb
00000140: add4 663d 77eb f0bd 50bd e8bd 10c7 c2bd
00000150: b89c 41be f0c5 b4bd a8fa 04be 3669 5abe
00000160: 849e d8ba 6e29 263e eb27 a23d f8c9 513e
00000170: 70e1 70bd 6111 cb3e 1f39 aebd 2d62 4a3e
00000180: a5e9 e13d a210 d83d ef14 bb3e 9a2e c0bd
00000190: 75df 8abd 44c5 f1bd 43b4 0e3c 43c3 86bd
000001a0: f5ef c0be 1388 05bf 819e 1a3d 268c 35be
000001b0: 21f2 ecbe 4f45 9ebe c504 4ebb a87b 8c3c
000001c0: e532 87be 4cfb d63b cc3e 0abd 202c 1dbf
000001d0: 5c7c 31be 9291 713e c635 063f c19c 40bc
000001e0: 8cbe cc3d e75e dcbc 26c6 76be e78a 4f3e
000001f0: 55cd 883e 511b e33d ebb4 e5be 202e ae3d
00000200: 8fa1 cf3d df27 55bd c3c6 99be 0f5d 58be
00000210: 8385 643e 1de0 87be 943d 53be 6d4c a53e
00000220: 9f1b f0bd 2b4a 14ba 4d71 413d d021 043c
00000230: 9c74 32be 0d7b acbe 2d58 e23d cc0b 723e
00000240: 32e9 92bd bc71 f8be 97dc 933d 438c 8bbe
00000250: e217 a93e dd8a a9be 20d0 54be c32d 3cbe
00000260: 5a8f 87be 31d2 a6bd f7ba 9bbd 6018 75bd
00000270: 08c7 43bd 249d 25be daef 4b3e 6da0 30bf
00000280: 9f08 833e f5ac 32bf 57ce e6be 51d1 843b
00000290: f0a9 123e a21e db3d 170b f63e 8129 2cbe
000002a0: 0ed4 333f 8d32 8b3e 33f9 68bf d289 80be
000002b0: 471b 723e e7ec bbbe 3641 583e b658 fbbe
000002c0: f4e3 50be dda5 15be 7e84 2a3e b9f3 d6be
000002d0: 0d69 dfbd 6655 a23e 073f 273e cd51 94ba
000002e0: a709 583e d56e 813e 8ef0 23be fad0 9a3e
000002f0: 00bc acbd 4cba 99be b3bb a6be 7c56 c43e
00000300: 24ba 3b3e 09c7 513e 04e9 c1be 3767 523e
00000310: b275 b4bd abad 7a3e 7772 c83e 0fc3 d93d
00000320: 00c8 873e c1b9 f0be 46eb 2b3e 003e 5ebe
00000330: be4a ddbe 9944 b7be 5219 a53d cfc3 9f3d
00000340: b9cf 1cbf 9c4a 62bd b2aa 03be 15ad 5d3f
00000350: c5c6 c83d 2a09 b3be 7fcd f53d d761 923d
00000360: fff8 b2bd 9609 e7be c237 b13d 2892 12bc
00000370: 2d6e 203e 1f71 e13e ddf3 01bf 2fc8 36bd
00000380: 8ad8 51be d91a 33bd 8a0c 683e cffc 8e3e
00000390: dd78 0c3e c159 04be 7e3a bf3c 55eb ee3c
000003a0: 569a b9be 4c09 5e3e 2c68 2ebf 58e4 643e
000003b0: c1c4 1e3d 6b14 003f 7918 2c3e 89ea 55bd
000003c0: bdc9 ccbc 743e 34be 3e26 6fbd 939e c2bd
000003d0: da5c 9abe 6e06 b93c 44c4 3b3f 19c2 953e
000003e0: 56e4 cebd 9d18 c53e 3ec5 b5bd b1d7 ed3e
000003f0: 950e a43e 5cf5 04bd db5b d2be 0444 9a3e

critic.2.bias f4 [64]
-0.25132063 -0.18716377 0.20822272 0.32134268 -0.066395886 -0.4345065 -0.5045614 -0.5096428
-0.17616203 -0.34883428 -0.27129346 -0.05085397 -0.30484545 0.25129622 0.229954 0.108942665
0.24057682 -0.23842204 -0.21071655 -0.40112758 -0.1479082 0.21183252 -0.31624734 0.062494364
0.12330405 0.19422586 0.028042631 -0.3028594 -0.13977261 -0.13992265 0.4076207 0.25286484
0.098457366 0.06892104 0.55998766 -0.17491147 0.07748627 -0.43278122 0.06235411 0.20328934
0.23405814 0.25915304 -0.2549015 -0.04658268 0.04403676 -0.4299819 -0.48075733 -0.13002436
0.04181074 0.34263602 0.059043422 0.10272469 -0.11434519 -0.03648105 -0.3403911 -0.012326335
-0.1871769 -0.08116487 -0.45310932 0.29317895 -0.2059565 -0.44380817 -0.50474703 0.0031765022
00000000: 19ad 80be dca7 3fbe 5638 553e 0787 a43e
00000010: 91fa 87bd a377 debe f02a 01bf f377 02bf
00000020: d263 34be 689a b2be fae6 8abe 414c 50bd
00000030: b414 9cbe e6a9 803e 1079 6b3e 551d df3d
00000040: c559 763e e824 74be 14c6 57be 9860 cdbe
00000050: 3f75 17be a0ea 583e 2ceb a1be 17fa 7f3d
00000060: d586 fc3d 25e3 463e a9b9 e53c 6310 9bbe
00000070: 8d20 0fbe e247 0fbe a9b3 d03e 8077 813e
00000080: 04a4 c93d 7926 8d3d 5a5b 0f3f fe1b 33be
00000090: 1fb1 9e3d 8095 ddbe 0667 7f3d 152b 503e
000000a0: f0ac 6f3e b5af 843e 7382 82be 7bcd 3ebd
000000b0: e45f 343d 9626 dcbe d325 f6be 1b25 05be
000000c0: bd41 2b3d fd6d af3e 84d7 713d 5361 d23d
000000d0: d02d eabd 276d 15bd be47 aebe 65f4 49bc
000000e0: 4dab 3fbe c439 a6bd f2fd e7be 8d1b 963e
000000f0: 43e6 52be d33a e3be 1a37 01bf dd2c 503b
