legged_gym/logs/tron1/Mar26_09-33-42_track_3.0_feet_contact_force_-0.0035_stand_still_-1.5_base_height+0.1_feet_regulation_-0.15_track_contacts/model_200.pt (torch, 376218 bytes, 48 tensors)

std f4 [8]
0.7360449 0.5829544 0.7617793 0.7190022 0.75106555 0.5827048 0.75373137 0.6692578
00000000: 706d 3c3f 803c 153f f803 433f 8710 383f
00000010: d545 403f 242c 153f 8af4 403f 7b54 2b3f

actor.0.weight f4 [128, 33]
-0.38192564 0.4185287 0.2188194 0.05135523 -0.043337364 0.63586134 -0.25860596 -0.34225088
0.16772264 0.29969126 -0.4287131 -0.46111983 -0.2535752 0.42232552 0.15822361 0.15676747
-0.1839623 0.22046323 -0.14697526 -0.51165295 0.0070614084 -0.005731931 -0.008801735 0.12773323
-0.002629917 -0.04312448 -0.11819251 0.0005128471 0.013325328 -0.05044173 0.093103506 -0.17917092
0.0686861 -0.18840316 -0.42650387 -0.07853094 -0.29830033 0.94266564 0.30141583 -0.8628315
-0.7715293 -0.3495308 -0.49603093 0.3816016 -0.2432578 0.25515452 0.0237211 -0.57033074
-0.5670322 0.1807593 0.0864014 0.12961318 -0.049499016 -0.31438154 0.036070082 0.034849003
-0.030499313 -0.05116386 0.13639018 -0.11601324 0.018598724 0.079803295 0.13468416 0.0914192
0.33743277 0.27637574 -0.17778464 -0.39070314 0.009733597 -0.45107508 -0.35173744 -0.32729906
-1.0197067 -0.3365507 0.15654948 0.027130319 0.51169604 0.55753773 0.2385947 -0.48543498
-0.376404 -0.48559183 0.25243363 0.38285133 0.2964244 0.15640134 0.013101372 0.09924399
-0.00817741 -0.037783016 0.03341232 0.013638864 -0.07912516 0.009445157 -0.059977822 0.09255442
0.051879138 -0.13610202 -0.22988005 -0.35790968 -0.14371525 -0.15482584 0.02671802 0.5740303
-0.18184642 -1.0766002 -0.257697 -0.048919704 0.385349 0.4119869 -0.34953803 0.11968978
0.12907594 -0.8632514 0.13393852 -0.092835136 0.055755485 0.037645943 -0.17707253 0.090092845
-0.08883244 0.16525963 0.055160653 0.11157023 -0.027355477 -0.025330596 0.013456828 -0.20988947
-0.19712035 0.10822625 -0.07465963 -0.33066735 -0.24954523 0.19343051 0.14105688 1.0191065
0.26462427 0.64311093 -0.0035831206 0.10307608 -0.21435994 0.42904517 0.14673859 -0.021449324
0.45626876 0.22061664 -0.39025047 0.24204654 -0.28798446 -0.07544259 -0.11243061 -0.18996367
0.2886471 -0.045034494 0.03735513 0.030216204 -0.008227945 -0.014896024 -0.06563494 0.039223995
-0.085353576 -0.065882385 0.031039761 -0.116489395 -0.18769856 -0.41145352 0.09074724 -0.0886731
-0.4580628 0.24702327 0.40796033 0.49648568 -0.21943708 0.033140082 -0.18782276 -0.42724606
0.34675735 -0.49104616 0.15139298 0.41759598 -0.19136621 0.027170409 -0.23710395 -0.55464756
-0.1561916 0.2297486 -0.22534962 -0.09604242 -0.075790964 -0.03029964 0.20193414 -0.066920765
-0.10508557 -0.13498981 -0.015750477 -0.124529265 0.1108777 0.28796238 -0.21127221 0.19420666
-0.21026725 -1.0448803 -0.15979874 0.24756192 0.336189 -0.6214501 0.37570408 0.13447793
-0.5530968 0.27393094 0.041950252 0.27019697 0.5808703 -0.28782278 -0.09089616 0.13032931
-0.5356108 -0.029991405 -0.60733 -0.25841814 -0.08341403 -0.057172623 0.07672556 -0.023394464
-0.036803674 -0.037295073 0.037595145 0.016112702 -0.08044756 -0.15309863 0.026947191 -0.22412229
-0.09230417 0.062711604 0.21932596 0.7981649 0.07719774 -0.8228151 -0.46747944 -0.031822722
-0.35418707 -0.38379544 -0.724189 0.55604327 -0.399998 -0.32675874 -0.19015472 -0.15957141
0.11561172 -0.37132674 -0.27788985 -0.019803738 -0.26463938 -0.0054059154 -0.031254537 -0.021901263
00000000: c28b c3be 6549 d63e 3112 603e dd59 523d
00000010: 8582 31bd cfc7 223f 0068 84be 823b afbe
00000020: 7cbf 2b3e 2271 993e 4980 dbbe e617 ecbe
00000030: 9cd4 81be 0d3b d83e 5f05 223e a787 203e
00000040: 9d60 3cbe 1dc1 613e af80 16be b0fb 02bf
00000050: 6363 e73b ecd2 bbbb 2735 10bc 80cc 023e
00000060: b05a 2cbb 4ba3 30bd ea0e f2bd 9670 063a
00000070: 7a52 5a3c fd9b 4ebd 0dad be3d 9578 37be
00000080: 4cab 8c3d c2ec 40be b75e dabe d4d4 a0bd
00000090: d2ba 98be 8952 713f 2d53 9a3e 86e2 5cbf
000000a0: f282 45bf b3f5 b2be c4f7 fdbe 4961 c33e
000000b0: 9318 79be 9da3 823e c152 c23c 3201 12bf
000000c0: 0629 11bf f718 393e 38f3 b03d 51b9 043e
000000d0: 7bbf 4abd 9ef6 a0be 39be 133d d4bd 0e3d
000000e0: b2d9 f9bc 3291 51bd dea9 0b3e 5998 edbd
000000f0: 5a5c 983c e96f a33d a5ea 093e fd39 bb3d
00000100: fdc3 ac3e 1f81 8d3e 2d0d 36be 3e0a c8be
00000110: aa79 1f3c 50f3 e6be ee16 b4be be93 a7be
00000120: c085 82bf 6050 acbe 824e 203e 6740 de3c
00000130: 83fe 023f cbba 0e3f 2b52 743e ef8a f8be
00000140: 06b8 c0be 7e9f f8be fb3e 813e 1705 c43e
00000150: f0c4 973e ac27 203e 23a7 563c 6f40 cb3d
00000160: 8bfa 05bc 5dc2 1abd 5bdb 083d 8b75 5f3c
00000170: 5f0c a2bd dcbf 1a3c 4eab 75bd 2c8d bd3d
00000180: 387f 543d 545e 0bbe ad65 6bbe f03f b7be
00000190: 172a 13be aa8a 1ebe c0df da3c a6f3 123f
000001a0: f335 3abe 09ce 89bf dcf0 83be 0760 48bd
000001b0: 774c c53e f2ef d23e a6f6 b2be ea1f f53d
000001c0: 7c2c 043e 0bfe 5cbf 2e27 093e 5920 bebd
000001d0: dd5f 643d a232 1a3d 8052 35be 9982 b83d
000001e0: c8ed b5bd d239 293e 23f0 613d ef7e e43d
000001f0: 9818 e0bc 1c82 cfbc 077a 5c3c 44ed 56be
00000200: ebd9 49be b9a5 dd3d 26e7 98bd 3b4d a9be
00000210: c988 7fbe a612 463e 3771 103e 1572 823f
00000220: d57c 873e eba2 243f cad2 6abb 8d19 d33d
00000230: 2c81 5bbe cfab db3e a442 163e 7eb6 afbc
00000240: 0f9c e93e 54e9 613e e9ce c7be 0cdb 773e
00000250: b372 93be a581 9abd 0542 e6bd d685 42be
00000260: 8dc9 933e 1776 38bd b101 193d f987 f73c
00000270: 81ce 06bc 740e 74bc 9d6b 86bd 57a9 203d
00000280: dbcd aebd 58ed 86bd 1947 fe3c fe91 eebd
00000290: 0d34 40be 09aa d2be b0d9 b93d 3e9a b5bd
000002a0: 3587 eabe abf3 7c3e 2de0 d03e 5f33 fe3e
000002b0: 1db4 60be e5bd 073d 9c54 40be ffbf dabe
000002c0: 2e8a b13e 676a fbbe c306 1b3e 24cf d53e
000002d0: 81f5 43be 7a94 de3c 61cb 72be 62fd 0dbf
000002e0: b1f0 1fbe 3843 6b3e 0dc2 66be e3b1 c4bd
000002f0: 4b38 9bbd f336 f8bc d3c7 4e3e c10d 89bd
00000300: 1a37 d7bd c53a 0abe 2507 81bc 3309 ffbd
00000310: d913 e33d ce6f 933e be57 58be 1cde 463e
00000320: 4c50 57be a3be 85bf 48a2 23be df80 7d3e
00000330: f720 ac3e 5b17 1fbf 495c c03e 95b4 093e
00000340: c097 0dbf ad40 8c3e 07d4 2b3d 4257 8a3e
00000350: eab3 143f 825d 93be c427 babd 0c75 053e
00000360: ca1d 09bf 89b0 f5bc fb79 1bbf 624f 84be
00000370: fad4 aabd d72d 6abd 4a22 9d3d bfa5 bfbc
00000380: 73bf 16bd b8c2 18bd 5efd 193d c9fe 833c
00000390: b1c1 a4bd e3c5 1cbe 5bc0 dc3c 5080 65be
000003a0: f809 bdbd f16e 803d fc96 603e 8954 4c3f
000003b0: d919 9e3d 03a4 52bf 7759 efbe 8b58 02bd
000003c0: 0258 b5be d680 c4be 7364 39bf da58 0e3f
000003d0: 8acc ccbe ec4c a7be ebb7 42be b066 23be
000003e0: d6c5 ec3d 8a1e bebe 9447 8ebe 733b a2bc
000003f0: d07e 87be 1b24 b1bb c204 00bd 476a b3bc

actor.0.bias f4 [128]
-0.1986845 0.06427061 0.18955885 0.06546507 0.08934138 -0.18063699 -0.0608953 0.098965436
-0.0938224 -0.046199024 0.014584247 0.15607831 -0.102839686 0.10791065 0.03387078 -0.13197374
0.023622839 -0.072010785 -0.034262948 0.09923036 -0.056599796 0.01716841 0.19007266 0.13091242
-0.21391164 -0.047574766 -0.17198947 -0.22276194 -0.02228222 0.070582755 0.13312641 0.21201
-0.24141441 0.088715084 -0.011004283 -0.033558603 -0.010895497 -0.07424261 -0.009049181 0.10200417
0.26407963 -0.19300196 -0.06987092 -0.06854243 0.19041191 0.12379999 -0.00940628 0.11631988
0.1770552 -0.1856726 -0.029452516 0.11608457 0.010408877 0.16056304 0.01069838 -0.121688485
-0.071383916 -0.19403064 -0.020909104 -0.12513241 -0.06931051 0.08432071 -0.21766065 -0.088015415
-0.15813239 0.012086033 0.07446979 0.08409036 0.16757551 0.0042840205 0.09703363 -0.18343937
0.02505729 -0.20785412 -0.08028956 -0.28617033 0.032530375 0.1287384 -0.10097167 -0.14642945
-0.06590755 0.1043249 -0.0032165123 -0.06546753 -0.22106561 0.026573831 -0.05742292 -0.14940785
-0.10923721 -0.1434338 -0.020164127 0.19816133 -0.052118737 -0.26111522 0.15596937 0.008839154
-0.060322214 -0.034441136 -0.2745056 -0.04214383 0.0035972886 -0.022189356 -0.1671984 0.014511813
0.18305573 0.11201878 -0.054903686 0.07485867 0.06766871 0.051078122 -0.1106129 -0.08131292
-0.2604766 -0.02449894 0.06357002 0.22341914 -0.21825649 -0.05788263 -0.21007651 -0.020147737
0.08204368 0.07819195 -0.17501256 -0.16325001 -0.088370964 0.072957814 0.015327969 0.07019619
00000000: f373 4bbe 4fa0 833d b71b 423e 8d12 863d
00000010: 9df8 b63d e7f8 38be 5a6d 79bd 64ae ca3d
00000020: f525 c0bd 303b 3dbd c4f2 6e3c fed2 1f3e
00000030: 9d9d d2bd 4200 dd3d 16bc 0a3d 2024 07be
00000040: af84 c13c 647a 93bd 4e57 0cbd 4939 cb3d
00000050: 30d5 67bd c4a4 8c3c 68a2 423e e80d 063e
00000060: a70b 5bbe c2dd 42bd 021e 30be b51b 64be
00000070: 3489 b6bc b18d 903d 4a52 083e 2619 593e
00000080: 5735 77be 41b0 b53d 4f4b 34bc bf74 09bd
00000090: 0783 32bc 820c 98bd 0443 14bc 90e7 d03d
000000a0: 7235 873e 4ea2 45be 7c18 8fbd f95f 8cbd
000000b0: 57fb 423e d98a fd3d cc1c 1abc 1e39 ee3d
000000c0: f54d 353e f520 3ebe 6746 f1bc bfbd ed3d
000000d0: ff89 2a3c a36a 243e 4248 2f3c d037 f9bd
000000e0: bb31 92bd f8af 46be 9249 abbc b622 00be
000000f0: abf2 8dbd 56b0 ac3d 6fe2 5ebe 6d41 b4bd
00000100: 75ed 21be 7f04 463c 9e83 983d 9137 ac3d
00000110: ea98 2b3e f860 8c3b 91b9 c63d 88d7 3bbe
00000120: f244 cd3c b6d7 54be da6e a4bd eb84 92be
00000130: 923e 053d 00d4 033e 3cca cebd 9af1 15be
00000140: 8afa 86bd 4ba8 d53d 1fcc 52bb d713 86bd
00000150: 065f 62be 5db1 d93c 4c34 6bbd 5ffe 18be
00000160: c2b7 dfbd 4fe0 12be 3d2f a5bc ceea 4a3e
00000170: 757a 55bd e5b0 85be 6fb6 1f3e 19d2 103c
00000180: 6d14 77bd 2612 0dbd ff8b 8cbe 029f 2cbd
00000190: 7dc0 6b3b 74c6 b5bc 0f36 2bbe f5c2 6d3c
000001a0: f672 3b3e 1a6a e53d b0e2 60bd 814f 993d
000001b0: e595 8a3d 4b37 513d 0489 e2bd 6387 a6bd
000001c0: 305d 85be 00b2 c8bc 0031 823d fdc7 643e
000001d0: a17e 5fbe 5616 6dbd 4c1e 57be de0c a5bc
000001e0: 8406 a83d 1a23 a03d 7e36 33be 032b 27be
000001f0: d6fb b4bd e86a 953d 2922 7b3c 05c3 8f3d

actor.2.weight f4 [64, 128]
0.18277253 -0.12386516 -0.055591192 0.21896127 0.21719201 -0.15538648 -0.27281976 0.18402193
0.022342121 -0.12408803 -0.030639553 -0.015429432 -0.08683553 0.24085593 -0.11832859 0.20372736
-0.026016228 0.291317 0.066141576 0.072322145 -0.05134728 0.07786665 0.08058933 -0.16748273
-0.0691908 0.37851188 -0.28734168 0.12840885 -0.02245031 0.08863405 0.23809692 0.0793885
0.013522414 -0.082189344 -0.1450524 0.082777865 0.057552118 0.42927963 -0.07523037 -0.32375625
0.3616338 -0.12992102 0.30186287 0.31478265 0.19575545 0.05940824 0.11597467 0.0689826
0.30276483 0.24223444 0.15582484 0.08983959 -0.06555354 0.10885108 0.038992893 -0.17064863
-0.015786476 0.09013761 0.02589925 -0.10364202 0.074328564 -0.2233638 -0.29761022 0.1121402
0.0032188285 0.47324076 -0.16478287 0.06016847 0.12586805 -0.10436534 -0.27490535 0.114558384
-0.01298609 0.47839668 -0.09770496 -0.010263625 -0.22967777 0.066039965 -0.059188113 -0.1912671
0.027228415 -0.19498923 0.17027871 0.0083721755 -0.07343864 -0.14459322 -0.18229687 0.021611799
0.03468675 0.052583095 -0.27051657 -0.06039061 0.071237296 0.30165705 -0.20377369 0.3215901
0.25119588 -0.20327233 0.042542256 -0.09013905 0.1886563 0.25353572 0.03370083 -0.2574113
-0.16516499 0.34963173 0.15340602 0.010287092 -0.053369302 -0.2073963 -0.0974189 -0.024671288
0.07653784 -0.26275524 0.014831429 0.031458296 -0.24237417 -0.1384184 0.21104185 0.09626163
-0.16423218 -0.034382362 0.09274854 -0.1772051 0.1368779 0.08207961 0.0410455 -0.25283247
0.028251091 -0.007858679 0.18603449 0.11811724 0.029747155 -0.0151624745 0.11607472 -0.062633924
0.06278378 0.100029394 -0.10777133 -0.1579819 0.096958786 -0.4647836 0.10538507 0.12513
0.017224167 -0.31381643 0.026468383 -0.07309796 -0.023789372 -0.32460234 -0.09506589 0.058820736
0.1459461 -0.17918046 0.15100804 0.030217182 0.09198868 -0.26791096 -0.18601987 -0.048155364
0.024961334 -0.05270881 0.11762542 -0.00954072 0.19140507 0.08942162 -0.005732847 -0.048662156
0.15215525 -0.109644674 0.09977343 -0.40037906 0.04806627 0.10288692 0.12808575 -0.2170351
-0.11198414 -0.043354765 -0.03459393 -0.05546189 -0.46506637 -0.19981767 -0.15126117 -0.117191516
-0.047044773 0.31342924 -0.04692556 -0.08017313 0.113057494 -0.024126688 0.18139854 0.05029537
-0.21743982 -0.08719629 0.4430233 -0.22006615 0.26981255 -0.09399294 -0.04277776 -0.30176783
-0.23915693 0.025910914 0.101976246 0.042126257 0.07069073 -0.02275437 0.2731965 -0.01327648
0.037732672 -0.22172399 -0.018031843 0.1290349 -0.00926826 0.20422782 -0.14402843 -0.16752079
-0.030437019 0.21469773 -0.005639477 0.0091983415 0.071798176 0.07163858 0.008034171 -0.03823174
-0.0895422 0.031131223 0.009275045 0.2576123 -0.16428657 -0.0663612 0.15427491 -0.10404011
0.008684124 0.061780095 0.07203676 -0.025573242 -0.04970956 0.011165878 0.13601649 -0.22775348
-0.20660235 -0.16365936 0.3670083 -0.09595205 -0.10542925 -0.0511944 0.19020343 -0.025385698
-0.02259251 0.14027633 0.14488512 0.10471954 -0.08238939 0.06602654 -0.094162606 -0.0048606726
00000000: b928 3b3e 04ad fdbd 97b3 63bd 6237 603e
00000010: 9567 5e3e a21d 1fbe 08af 8bbe 3f70 3c3e
00000020: d306 b73c dd21 febd cdff fabc bacb 7cbc
00000030: d4d6 b1bd f0a2 763e 4356 f2bd e89d 503e
00000040: fc1f d5bc 8027 953e 3c75 873d a21d 943d
00000050: 8751 52bd 8d78 9f3d 050c a53d 9880 2bbe
00000060: e8b3 8dbd 4fcc c13e 731e 93be 9c7d 033e
00000070: b6e9 b7bc c585 b53d aecf 733e 7096 a23d
00000080: 1d8d 5d3c e352 a8bd 9e88 14be 7187 a93d
00000090: c5bb 6b3d 8aca db3e 6112 9abd 61c3 a5be
000000a0: 1128 b93e 040a 05be c58d 9a3e 312b a13e
000000b0: 1e74 483e 0e56 733d 2184 ed3d c046 8d3d
000000c0: fe03 9b3e 4e0c 783e 8c90 1f3e d2fd b73d
000000d0: ef40 86bd 51ed de3d 03b7 1f3d 84be 2ebe
000000e0: a452 81bc 119a b83d aa2a d43c 4442 d4bd
000000f0: 9339 983d 7bb9 64be 5e60 98be c3a9 e53d
00000100: fbf2 523b 9d4c f23e d7bc 28be 3773 763d
00000110: 8ee3 003e 7fbd d5bd 65c0 8cbe 969d ea3d
00000120: 9cc3 54bc 69f0 f43e 8a19 c8bd c328 28bc
00000130: a630 6bbe f63f 873d 3c6f 72bd 86db 43be
00000140: 200e df3c 42ab 47be 8b5d 2e3e 732b 093c
00000150: ff66 96bd 3f10 14be 08ac 3abe 3a0b b13c
00000160: b213 0e3d 5f61 573d 2681 8abe 255c 77bd
00000170: dce4 913d cb72 9a3e 0daa 50be 75a7 a43e
00000180: bf9c 803e 9f26 50be ca40 2e3d d29a b8bd
00000190: 1e2f 413e 6fcf 813e e209 0a3d 6acb 83be
000001a0: 0321 29be ee02 b33e 7816 1d3e 318b 283c
000001b0: c599 5abd b25f 54be 8f83 c7bd 711b cabc
000001c0: dfbf 9c3d db87 86be 86ff 723c 6ada 003d
000001d0: ef30 78be 8ebd 0dbe 5b1b 583e d124 c53d
000001e0: 7b2c 28be 85d4 0cbd f2f2 bd3d 4175 35be
000001f0: b829 0c3e 5b19 a83d 541f 283d 4273 81be
00000200: d56e e73c b0c1 00bc d37f 3e3e 74e7 f13d
00000210: 4eb0 f33c 076c 78bc 95b8 ed3d 3746 80bd
00000220: c894 803d 36dc cc3d 37b7 dcbd 02c6 21be
00000230: 5492 c63d 1ef8 edbe 21d4 d73d 1422 003e
00000240: b219 8d3c 8cac a0be 39d4 d83c 62b4 95bd
00000250: eee1 c2bc 4732 a6be e8b1 c2bd 03ee 703d
00000260: e572 153e 157b 37be daa1 1a3e 068a f73c
00000270: 9064 bc3d a02b 89be fe7b 3ebe 8f3e 45bd
00000280: b67b cc3c 31e5 57bd 99e5 f03d ae50 1cbc
00000290: b1ff 433e af22 b73d 9bda bbbb f851 47bd
000002a0: 96ce 1b3e 638d e0bd 0356 cc3d 7cfe ccbe
000002b0: 23e1 443d 61b6 d23d e928 033e 733e 5ebe
000002c0: f157 e5bd c494 31bd 5db2 0dbd 022c 63bd
000002d0: 2e1d eebe 019d 4cbe 35e4 1abe 1b02 f0bd
000002e0: 05b2 40bd cc79 a03e 0435 40bd cf31 a4bd
000002f0: b08a e73d 55a5 c5bc 8ac0 393e 8502 4e3d
00000300: 8ba8 5ebe f893 b2bd f3d3 e23e 0559 61be
00000310: df24 8a3e 5f7f c0bd bc37 2fbd 5081 9abe
00000320: 8ee5 74be 2043 d43c ecd8 d03d 958c 2c3d
00000330: 4dc6 903d 5f67 babc 69e0 8b3e 9885 59bc
00000340: 938d 1a3d 9d0b 63be 84b7 93bc ba21 043e
00000350: e6d9 17bc 1921 513e 307c 13be 928a 2bbe
00000360: 0e57 f9bc b9d9 5b3e 5dcb b8bb a4b4 163c
00000370: ec0a 933d 3fb7 923d c1a1 033c e398 1cbd
00000380: e761 b7bd e806 ff3c 5cf6 173c c2e5 833e
00000390: bd3a 28be 61e8 87bd 3efa 1d3e fb12 d5bd
000003a0: db47 0e3c 200d 7d3d 0288 933d fa7e d1bc
000003b0: 409c 4bbd 16f1 363c e847 0b3e 3538 69be
000003c0: 918f 53be 5296 27be 83e8 bb3e 8282 c4bd
000003d0: 4aeb d7bd 38b1 51bd b0c4 423e abf5 cfbc
000003e0: ed13 b9bc 99a4 0f3e c45c 143e 3377 d63d
000003f0: c5bb a8bd ec38 873d 53d8 c0bd 4746 9fbb

actor.2.bias f4 [64]
0.07719475 -0.11286853 -0.14311798 -0.023497703 -0.33357677 0.0030605434 0.07036453 0.0103137065
-0.050226778 -0.028836727 -0.2602104 -0.19623739 -0.099699974 -0.027035266 -0.17587437 -0.22823665
-0.09095693 -0.21412589 -0.19687992 -0.10003561 -0.15136243 -0.09402775 0.06956552 -0.2177196
-0.27984843 -0.07545691 -0.109927796 -0.14478166 -0.19206494 -0.3668733 -0.34493765 -0.2489483
-0.015074094 -0.2704533 -0.09270992 -0.031012332 0.05655104 -0.09644119 0.08222756 -0.12505889
-0.33860186 -0.20291482 -0.13146584 -0.22301424 -0.15243472 -0.1258885 -0.11953546 -0.06046806
-0.30952165 -0.08317333 0.06014255 -0.028944967 -0.1739308 -0.016653318 0.07181552 0.0074917697
-0.24408613 -0.13197482 -0.08699475 -0.23447995 -0.0063200323 -0.21217403 -0.33486205 -0.1387084
00000000: 4818 9e3d 9e27 e7bd 858d 12be 417e c0bc
00000010: 93ca aabe 6693 483b 471b 903d d2fa 283c
00000020: 98ba 4dbd 003b ecbc 4c3a 85be 74f2 48be
00000030: 802f ccbd 1079 ddbc 6918 34be deb6 69be
00000040: a047 babd d143 5bbe e49a 49be 78df ccbd
00000050: c1fe 1abe 9f91 c0bd 5e78 8e3d e3f1 5ebe
00000060: 4b48 8fbe 2789 9abd d321 e1bd a541 14be
00000070: acac 44be d1d6 bbbe ab9b b0be 4eec 7ebe
00000080: 55f9 76bc db78 8abe b3de bdbd 930d febc
00000090: 10a2 673d f582 c5bd ec66 a83d 700f 00be
000000a0: 395d adbe e7c8 4fbe fb9e 06be d85d 64be
000000b0: d917 1cbe eae8 00be 02cf f4bd 5bad 77bd
000000c0: 9f79 9ebe c756 aabd 0958 763d ff1d edbc
000000d0: ea1a 32be 8a6c 88bc 0414 933d 857d f53b
000000e0: b7f1 79be 6824 07be 4e2a b2bd 831b 70be
000000f0: 4618 cfbb 2644 59be 0a73 abbe 9309 0ebe

actor.4.weight f4 [32, 64]
0.028389398 0.04978277 0.00029725564 -0.059455007 -0.09826613 -0.0921701 -0.213939 -0.07819617
-0.022179004 -0.015948797 -0.030259578 -0.0498692 0.19440898 -0.17274387 -0.11664072 -0.38890183
0.22288454 0.058281716 0.028711533 -0.21416783 0.16571935 0.018341012 -0.016653797 0.28758794
0.15827613 -0.1260503 0.0894244 -0.2265168 -0.04726591 -0.18209894 -0.028356923 -0.28316903
-0.1690693 0.059173293 -0.047812358 -0.07018383 -0.10841418 -0.051264733 0.10779896 -0.119433396
-0.19942792 -0.05883476 0.10806749 -0.05849911 -0.10783572 -0.21926741 0.012253961 0.061666597
-0.0057075773 0.03170548 -0.2835066 0.14708498 0.17719486 0.1283465 -0.12802137 0.07569227
0.08638429 0.14370549 0.19787107 0.1997244 -0.120072 0.06280145 -0.105626516 -0.09860601
-0.064035475 0.20467351 -0.012562591 -0.010104509 0.12721251 0.05899911 0.09893193 0.17717633
-0.086449504 -0.04429553 -0.061862312 -0.123998486 0.28195286 -0.039793015 0.049283598 -0.08750184
-0.041215234 0.15317066 -0.07534379 0.0066875615 -0.12484717 0.074415475 0.07600626 0.09308462
-0.08883751 0.0252559 -0.16468856 0.04419122 0.05827774 0.04992924 -0.5470849 0.05927425
0.0055074384 0.22894031 -0.2099535 -0.339631 0.12225648 0.14695987 0.09319918 -0.22749323
-0.110622704 0.16876951 -0.08813792 -0.32786077 -0.03923329 0.0075282166 0.00044442253 -0.17680396
-0.0137373125 0.023936305 -0.15538874 -0.022610843 -0.09795126 -0.001723796 0.041405063 -0.016495138
-0.23539728 -0.11437704 -0.18275735 -0.008738944 0.11882927 0.057521317 0.11739239 -0.09902815
0.02860105 -0.08122626 -0.062185332 0.008518544 0.23159659 -0.19346385 0.05287145 -0.13670865
0.14722021 0.13926694 0.11584668 0.23014629 -0.023515075 -0.009484876 -0.16589148 0.02930933
-0.33965245 -0.041309584 0.21024726 -0.102822505 -0.112993345 -0.029580854 -0.093091995 0.05889614
-0.0851032 -0.13009451 0.09859575 -0.21682616 -0.31749132 0.011050564 0.1528666 0.093427055
0.04088283 0.14111547 0.12083006 0.08088668 0.17449059 0.12181758 -0.18477009 0.03951409
0.10821347 -0.16795877 -0.119699895 -0.3243017 0.09276708 0.27636817 -0.27930737 -0.20385909
0.019104509 -0.07084357 0.13764025 -0.13382168 -0.05336269 0.077929825 0.112498164 0.0078527825
-0.13483395 -0.14999586 -0.17029649 -0.007938154 -0.23356044 0.34660655 0.19049302 0.2636081
-0.11505411 0.21483985 -0.053003464 0.10492026 -0.11561865 0.19514294 -0.27008867 0.0067613916
-0.0065510916 -0.14619945 -0.07544887 0.006058849 0.04386853 -0.09935989 -0.14593539 -0.019246714
-0.18326163 0.022880536 0.012295608 -0.2043856 0.09158165 0.08446455 -0.0602798 0.14081886
0.030220674 -0.3721611 -0.07549885 -0.27395695 -0.057528995 -0.04351132 0.27870697 -0.25359112
0.055658408 -0.058928814 0.10800521 0.007074182 -0.3275052 -0.21239485 -0.0371195 0.2766264
-0.11944475 -0.08626479 -0.124480456 0.17488171 -0.059135344 -0.13859756 -0.22266483 0.06319111
-0.006053929 0.04332884 0.10057965 0.0355236 0.22882596 -0.2573071 -0.38264346 0.047286846
0.15770179 0.11929939 0.23940459 0.22943321 -0.05679717 -0.22828887 0.06422006 0.09457072
00000000: e290 e83c 05e9 4b3d fad8 9b39 1887 73bd
00000010: c13f c9bd adc3 bcbd d312 5bbe 5025 a0bd
00000020: beb0 b5bc 0da7 82bc efe2 f7bc a543 4cbd
00000030: 2613 473e c5e3 30be 54e1 eebd 241e c7be
00000040: d83b 643e cfb8 6e3d 7334 eb3c d04e 5bbe
00000050: 55b2 293e e43f 963c 8b6d 88bc ba3e 933e
00000060: 2313 223e 5413 01be 2424 b73d 05f4 67be
00000070: e699 41bd 2578 3abe c74c e8bc 88fb 90be
00000080: 8120 2dbe b25f 723d e4d6 43bd 8abc 8fbd
00000090: 4108 debd f8fa 51bd b3c5 dc3d 7f99 f4bd
000000a0: d536 4cbe b8fc 70bd 7d52 dd3d c39c 6fbd
000000b0: f9d8 dcbd a387 60be d6c4 483c 1d96 7c3d
000000c0: a106 bbbb 9bdd 013d c727 91be 729d 163e
000000d0: 9272 353e 446d 033e 0918 03be 8d04 9b3d
000000e0: 3fea b03d 8827 133e b79e 4a3e 8e84 4c3e
000000f0: 4fe8 f5bd 0c9e 803d b752 d8bd f3f1 c9bd
00000100: 0825 83bd ef95 513e 53d3 4dbc 628d 25bc
00000110: ff43 023e 0da9 713d d39c ca3d b66d 353e
00000120: 700c b1bd 3b6f 35bd 5663 7dbd ebf2 fdbd
00000130: 205c 903e 00fe 22bd 99dd 493d 2a34 b3bd
00000140: 4ed1 28bd c5d8 1c3e d84d 9abd 5523 db3b
00000150: e0af ffbd 2467 983d 2ca9 9b3d 26a3 be3d
00000160: 71f0 b5bd 76e5 ce3c 1ea4 28be da01 353d
00000170: a4b4 6e3d 9a82 4c3d c20d 0cbf 8ec9 723d
00000180: be77 b43b 546f 6a3e 0dfe 56be 1de4 adbe
00000190: 9b61 fa3d a67c 163e 36df be3d fcf3 68be
000001a0: 288e e2bd ead1 2c3e a781 b4bd 5edd a7be
000001b0: 16b3 20bd 42af f63b 6201 e939 190c 35be
000001c0: 7712 61bc 1216 c43c 3a1e 1fbe 603a b9bc
000001d0: ac9a c8bd fff0 e1ba 5b98 293d d020 87bc
000001e0: fc0b 71be 823e eabd be24 3bbe ca2d 0fbc
000001f0: c35c f33d 799b 6b3d 6c6b f03d 45cf cabd
00000200: c04c ea3c f459 a6bd 0cb6 7ebd 5d91 0b3c
00000210: a827 6d3e 631b 46be bc8f 583d 5afd 0bbe
00000220: e5c0 163e fe9b 0e3e 0641 ed3d 78ab 6b3e
00000230: b0a2 c0bc 7466 1bbc 75df 29be 1f1a f03c
00000240: ede6 adbe 3d34 29bd 0f4b 573e 9b94 d2bd
00000250: 0e69 e7bd 8c53 f2bc 04a7 bebd 143d 713d
00000260: 964a aebd 7f37 05be 92ec c93d ad07 5ebe
00000270: 398e a2be 6d0d 353c 1089 1c3e af56 bf3d
00000280: c174 273d 9380 103e c075 f73d eaa7 a53d
00000290: a9ad 323e 7f7b f93d 5f34 3dbe 87d9 213d
000002a0: 069f dd3d 62fd 2bbe 3825 f5bd df0a a6be
000002b0: abfc bd3d 2180 8d3e 6001 8fbe 70c0 50be
000002c0: 0f81 9c3c 6f16 91bd 91f1 0c3e 8d08 09be
000002d0: d692 5abd ac99 9f3d 7065 e63d f5a8 003c
000002e0: e911 0abe 8498 19be 3462 2ebe 080f 02bc
000002f0: 782a 6fbe 6a76 b13e 9a10 433e a4f7 863e
00000300: 7da1 ebbd fafe 5b3e 291a 59bd 6fe0 d63d
00000310: 79c9 ecbd 8dd3 473e 1049 8abe aa8e dd3b
00000320: 8aaa d6bb 4fb5 15be f084 9abd 4f89 c63b
00000330: 7daf 333d 337d cbbd 1670 15be 49ab 9dbc
00000340: f0a8 3bbe f66f bb3c 8573 493c 754a 51be
00000350: 298f bb3d c0fb ac3d f4e7 76bd d232 103e
00000360: 5991 f73c e68b bebe 249f 9abd 1644 8cbe
00000370: 86a3 6bbd ed38 32bd aeb2 8e3e b2d6 81be
00000380: 12fa 633d 575f 71bd d631 dd3d 8ace e73b
00000390: c3ae a7be 097e 59be 9e0a 18bd faa1 8d3e
000003a0: 739f f4bd 98ab b0bd 9cef febd 3114 333e
000003b0: e737 72bd 85ec 0dbe 4002 64be 576a 813d
000003c0: 0a60 c6bb 9579 313d b4fc cd3d 3281 113d
000003d0: 5a51 6a3e c2bd 83be d8e9 c3be daaf 413d
000003e0: 947c 213e 3d53 f43d 7a26 753e 8af0 6a3e
000003f0: 26a4 68bd 8fc4 69be cf85 833d 4bae c13d

actor.4.bias f4 [32]
-0.04728796 -0.013075496 -0.26220563 -0.14495473 -0.008996173 -0.2254011 0.0009356092 -0.23252523
-0.15503216 -0.16056797 -0.27210468 -0.23307815 -0.5096059 0.015941862 -0.111163504 -0.28970698
0.117169835 -0.13194875 -0.2130171 0.050809868 0.08948185 -0.07944934 -0.0002344894 -0.034061782
0.06791327 -0.38757545 0.095455185 -0.4375622 -0.12750952 -0.29609236 0.028926916 -0.34627602
00000000: 05b1 41bd 9b3a 56bc d13f 86be 036f 14be
00000010: af64 13bc 8ccf 66be ac43 753a 181b 6ebe
00000020: c0c0 1ebe ee6b 24be 4e51 8bbe 0aac 6ebe
00000030: 8875 02bf 8298 823c b1a9 e3bd 7954 94be
00000040: bdf6 ef3d 931d 07be 2821 5abe 021e 503d
00000050: 4342 b73d 56b6 a2bd 45e1 75b9 5e84 0bbd
00000060: 1d16 8b3d 4a70 c6be 027e c33d 2708 e0be
00000070: db91 02be 6b99 97be 24f8 ec3c 174b b1be

actor.6.weight f4 [8, 32]
0.059613388 0.05251408 -0.17747232 -0.018143028 -0.054368973 -0.085320614 -0.095463656 -0.08774737
-0.13506275 0.060129106 0.051986005 0.08761604 -0.28734222 0.09939659 -0.008030584 -0.07621788
0.19850585 -0.143581 -0.040640865 0.028981097 0.012598491 -0.11450966 0.15097472 -0.05582597
0.15810493 -0.300022 -0.2458806 -0.19141814 0.18008639 -0.30532992 0.06054743 -0.29556012
-0.12964171 -0.02405182 -0.013369869 -0.17067282 0.070168674 -0.004602237 -0.06488778 0.03954645
0.21300562 -0.12889086 -0.06676563 0.025400095 -0.21675025 0.036755685 0.02012674 -0.09153005
0.3068776 0.09413661 -0.2512479 0.010884498 0.24766047 0.31279856 -0.04293839 -0.18791033
-0.07078099 0.1706051 0.05401958 -0.12442234 -0.10888241 0.18986563 0.042861428 0.02066199
0.15187909 -0.1316899 0.23468447 0.021573124 0.010734158 -0.12074533 -0.043482188 0.07251423
-0.17729527 -0.14881077 -0.235348 0.08816454 -0.03770206 -0.13772187 0.1997343 0.026554018
-0.06027066 -0.039463196 -0.06484368 0.2596176 -0.14619033 0.0021310567 0.0057167527 -0.23934388
-0.08962017 -0.0047478573 -0.3484099 0.004710767 0.12987976 -0.071136735 -0.29513973 -0.022049237
0.04064606 -0.10946753 -0.041957427 0.22028127 -0.032245036 -0.14290778 0.28277543 0.30222094
0.13257074 0.16287859 -0.20413233 0.14152828 0.04350523 0.026330639 0.027932558 -0.36600408
0.057976115 -0.1563352 -0.07408882 -0.09672173 -0.14047696 0.10589404 0.015913296 -0.08486708
-0.010186667 -0.1280785 -0.13603532 -0.19185624 -0.057194564 0.016051926 0.056456078 0.018646525
-0.10673229 0.2148687 0.05821009 -0.042854667 -0.28101504 -0.0256951 -0.017785298 0.012640954
0.077371575 0.12064479 0.41808206 -0.0053120535 0.07026157 -0.22904561 0.00014506865 0.120493405
-0.025310224 0.17136636 -0.006526216 -0.21577772 -0.051534027 0.068385854 -0.048250865 0.19925822
0.085792355 0.33396044 -0.24020275 0.033761952 -0.03246175 0.053221393 0.12829131 0.15185486
0.13317199 -0.05667275 -0.07476189 0.1618408 0.10598505 0.1697316 -0.06531262 -0.012861037
0.045326244 -0.080262356 -0.20682798 0.04398635 -0.1961825 0.078583024 0.09336365 0.08598674
-0.2022443 0.16580468 0.20853826 -0.09227052 0.16617703 -0.20539656 -0.24034175 -0.192213
0.029980026 0.21552566 -0.074371465 0.023352738 -0.027653897 0.2547845 0.051102094 -0.075625174
0.13116078 0.08544743 0.10467276 -0.15385443 -0.019336449 -0.04062006 0.12752327 0.15262276
0.06767261 -0.17019966 0.13065505 -0.30580682 -0.033350557 -0.0764756 0.2626983 0.1161968
0.025780886 -0.023573093 0.011914753 0.027939994 -0.047631625 -0.03965243 -0.019227056 0.18914278
0.14903305 -0.09668005 0.2820434 -0.063302234 -0.0907099 0.2802378 -0.081471145 0.060173247
0.0359261 -0.08410901 0.20066683 0.048844453 0.18891887 -0.07857108 -0.08784743 -0.11720239
-0.0747517 0.31416637 -0.043592256 -0.050988607 0.008120343 -0.24670526 -0.06341611 -0.43268552
0.06498386 -0.024853932 0.108008556 -0.16307281 0.29433328 0.03322582 -0.12193649 -0.1067479
0.18299714 0.066109315 0.0028223628 -0.054048717 -0.02371902 -0.03526197 -0.02279318 -0.28467658
00000000: 2b2d 743d 0119 573d 4ebb 35be b0a0 94bc
00000010: 00b2 5ebd 93bc aebd 7382 c3bd e5b4 b3bd
00000020: e44d 0abe f049 763d 47ef 543d 0a70 b33d
00000030: 851e 93be 7090 cb3d b692 03bc 1f18 9cbd
00000040: 1e45 4b3e e606 13be 0977 26bd c469 ed3c
00000050: e769 4e3c 0a84 eabd 1e99 1a3e c6a9 64bd
00000060: 42e6 213e 7c9c 99be 20c8 7bbe 1e03 44be
00000070: 9168 383e 3454 9cbe 9500 783d a853 97be
00000080: ccc0 04be 5308 c5bc 4c0d 5bbc dbc4 2ebe
00000090: 98b4 8f3d 5dce 96bb e2e3 84bd 75fb 213d
000000a0: 251e 5a3e f7fb 03be 6bbc 88bd dc13 d03c
000000b0: c7f3 5dbe 218d 163d d5e0 a43c 1b74 bbbd
000000c0: 101f 9d3e b2ca c03d 91a3 80be e554 323c
000000d0: b59a 7d3e 2227 a03e 2ae0 2fbd 916b 40be
000000e0: a0f5 90bd 1ab3 2e3e a343 5d3d 24d1 febd
000000f0: befd debd 236c 423e 778f 2f3d 5543 a93c
00000100: 3186 1b3e b8d9 06be 2051 703e 1fba b03c
00000110: 52de 2f3c 5449 f7bd 611a 32bd 5782 943d
00000120: e48c 35be da61 18be 11ff 70be 9c8f b43d
00000130: 7a6d 1abd f606 0dbe 2687 4c3e d087 d93c
00000140: 5ede 76bd 29a4 21bd c3cc 84bd 99ec 843e
00000150: ebb2 15be 33a9 0b3b 9953 bb3b 9016 75be
00000160: c88a b7bd ea93 9bbb c862 b2be c75c 9a3b
00000170: 33ff 043e 23b0 91bd 8e1c 97be 9aa0 b4bc
00000180: 7c7c 263d 8330 e0bd 8ddb 2bbd 6a91 613e
00000190: 5f13 04bd 6b56 12be f1c7 903e b4bc 9a3e
000001a0: a0c0 073e a5c9 263e 1108 51be caec 103e
000001b0: 8a32 323d 5ab3 d73c d2d2 e43c e364 bbbe
000001c0: 5d78 6d3d 5616 20be e1bb 97bd 0b16 c6bd
000001d0: 31d9 0fbe f9de d83d 9a5c 823c cbce adbd
000001e0: fae5 26bc 0327 03be d84c 0bbe f675 44be
000001f0: d944 6abd 547f 833c 7d3e 673d 99c0 983c
00000200: 7596 dabd 8a06 5c3e b46d 6e3d 6088 2fbd
00000210: 34e1 8fbe 887e d2bc 79b2 91bc 011c 4f3c
00000220: fd74 9e3d 9e14 f73d da0e d63e bc10 aebb
00000230: 4ce5 8f3d ef8a 6abe 921d 1839 3fc5 f63d
00000240: 6357 cfbc aa7a 2f3e ded9 d5bb d6f4 5cbe
00000250: 5815 53bd e20d 8c3d b3a2 45bd 590a 4c3e
00000260: e7b3 af3d ddfc aa3e b6f7 75be f949 0a3d
00000270: 9df6 04bd adfe 593d cc5e 033e d77f 1b3e
00000280: 3d5e 083e af21 68bd c31c 99bd 98b9 253e
00000290: b10e d93d 1fce 2d3e 9fc2 85bd 19b7 52bc
000002a0: 03a8 393d 9760 a4bd b7ca 53be 082b 343d
000002b0: 11e4 48be 23f0 a03d 7135 bf3d d119 b03d
000002c0: 2119 4fbe b4c8 293e 0e8b 553e 54f8 bcbd
000002d0: 502a 2a3e 7a53 52be 261c 76be 7cd3 44be
000002e0: ac98 f53c c2b2 5c3e 1150 98bd 3e4e bf3c
000002f0: 6d8a e2bc 1d73 823e 6e50 513d 5fe1 9abd
00000300: 034f 063e 10ff ae3d ac5e d63d 048c 1dbe
00000310: 7967 9ebc 3861 26bd 7695 023e 2449 1c3e
00000320: f097 8a3d d248 2ebe 70ca 053e b692 9cbe
00000330: 989a 08bd 3d9f 9cbd 6480 863e 96f8 ed3d
00000340: 7032 d33c 5c1c c1bc 1936 433c 6ae2 e43c
00000350: 6119 43bd 966a 22bd 0f82 9dbc a5ae 413e
00000360: 1f9c 183e 3100 c6bd fe67 903e 9aa4 81bd
00000370: 1dc6 b9bd 547b 8f3e 58da a6bd 3978 763d
00000380: 3f27 133d 5841 acbd 9b7b 4d3e 1f11 483d
00000390: f373 413e e0e9 a0bd 5ae9 b3bd cf07 f0bd
000003a0: 6b17 99bd 6ada a03e cb8d 32bd 6ed9 50bd
000003b0: 300b 053c 4ea0 7cbe 4ee0 81bd f588 ddbe
000003c0: 4216 853d 799a cbbc 9733 dd3d 8ffc 26be
000003d0: dab2 963e cc17 083d d7b9 f9bd a59e dabd
000003e0: 9a63 3b3e 5264 873d 64f7 383b 3062 5dbd
000003f0: 644e c2bc db6e 10bd c3b8 babc 21c1 91be

actor.6.bias f4 [8]
0.24455348 0.034227528 -0.14871557 0.21932063 -0.28334367 0.021925036 0.013775996 0.37320966
00000000: 3a6c 7a3e 2a32 0c3d e548 18be 9695 603e
00000010: 6c12 91be 229c b33c b7b4 613c 5615 bf3e

critic.0.weight f4 [128, 33]
-0.08926044 0.36322057 -0.029257214 0.16497244 0.13494523 0.6924597 0.0551839 -0.8690799
0.3967157 0.498034 0.059936576 -0.11949696 -0.48104516 0.40416095 0.4334923 0.014717303
-0.10046231 0.3020484 0.30303076 -0.017875418 -0.12640284 0.15100452 0.04600388 0.052440394
-0.009303741 0.021195486 0.04743984 -0.045136765 -0.011899272 -0.018767616 0.17857978 -0.4653451
0.45032507 -0.1120389 0.1199851 -0.08133979 0.20652507 -0.3037535 0.95554584 0.08474232
0.5466119 0.45166156 0.4152744 -0.31464994 0.8135936 0.48595864 -0.010070771 0.19623205
0.5682535 -0.35126647 0.1029372 0.14588389 0.2778605 0.63259995 -0.023526847 -0.10915157
0.05607978 -0.0037608338 -0.08101472 0.041684363 0.034989998 0.043831773 -0.047615305 0.15873647
0.4874871 -0.3962743 0.16623656 -0.093945354 0.37008902 -0.56830263 -0.27219504 -0.44686034
-0.48259154 -0.11485843 0.0007250091 -0.22280814 0.10435875 -0.0421745 -0.002102882 -0.23806405
-0.32789254 -0.5321683 0.35946557 0.026064761 0.39347354 0.32814762 0.36699384 0.16531743
0.05956075 -0.16374594 0.018859474 0.002832716 0.066317536 -0.17933102 -0.24260494 -0.058672767
-0.26116258 0.18604772 0.19845773 0.023336336 0.11812841 -0.049462218 0.28801933 -0.59083164
0.12566723 0.541478 0.754833 -0.3351704 0.24042405 -1.0320809 0.13096905 0.17210473
0.011188069 -0.12187329 0.3560209 -0.023407362 0.28000218 -0.2447886 0.22669731 0.16248345
-0.11806099 -0.049604192 0.17379928 0.20721167 0.1660682 -0.064994074 -0.02821038 0.04705572
0.038310755 0.334242 -0.09713765 0.26745126 0.07808647 -0.1835338 0.108717084 -0.62538457
-0.30553895 0.02031721 -0.570154 -0.42766216 -0.05035862 0.052600995 0.40829617 0.20572394
-0.2016853 -0.092730746 -0.32857972 -0.30537844 0.21649511 0.06004661 0.042157803 0.2356015
0.29991248 -0.090436995 0.13385685 -0.03845252 0.06470853 0.0054263626 0.06905949 -0.127668
-0.001567915 -0.010829041 0.40709254 -0.0011252298 0.09851762 -0.23015992 -0.13757016 -0.040354714
-0.6712586 0.09881494 -0.52219987 0.06859433 -0.5466909 0.33074388 0.09048896 0.2195586
0.5903141 -0.3519773 0.02060053 -0.06222988 -0.39321584 0.07602162 -0.036429558 0.07013446
0.28163823 -0.05176564 -0.015349404 0.004019518 0.046343584 -0.0076330104 0.006141161 -0.07238465
-0.045506153 0.037167184 0.018674243 0.38763908 -0.17343391 0.027574243 -0.055494133 -0.1949448
-0.06641556 -0.5453004 -0.3293882 -0.27305698 -0.2590683 -0.2536877 0.2162037 -0.30856922
0.43531504 0.37743017 -0.13969637 -0.31243405 0.067516394 -0.23198931 0.6077214 -0.09922601
0.07075414 0.11060453 0.27397642 -0.07728241 -0.12792853 -0.11227469 -0.06261701 0.08631386
-0.005314696 0.0009887058 -0.06025985 0.030813564 -0.2843275 -0.25566122 -0.09788734 0.010985562
0.19645447 -0.09231021 0.5550803 0.46940985 1.3314303 0.47739846 -0.609826 -0.007831066
-0.039989118 -0.38135055 -0.65562224 -0.30775723 0.21292184 0.08819148 0.55009454 -0.18920636
-0.33629978 -0.25131035 -0.4437724 0.19655566 -0.16170046 -0.07201066 -0.08374106 0.06243479
00000000: 2dce b6bd 0cf8 b93e d3ac efbc 89ee 283e
00000010: 152f 0a3e 0a45 313f 8308 623d 057c 5ebf
00000020: 521e cb3e 50fe fe3e 0e80 753d d2ba f4bd
00000030: 8d4b f6be 2fee ce3e b4f2 dd3e d820 713c
00000040: 2fbf cdbd 16a6 9a3e d926 9b3e 786f 92bc
00000050: bf6f 01be eea0 1a3e 916e 3c3d bdcb 563d
00000060: b86e 18bc 28a2 ad3c 4750 423d 54e1 38bd
00000070: 2af5 42bc 8bbe 99bc 9edd 363e b741 eebe
00000080: 0291 e63e a774 e5bd c0ba f53d 7a95 a6bd
00000090: 4f7b 533e 9485 9bbe a79e 743f 628d ad3d
000000a0: c2ee 0b3f 2f40 e73e d99e d43e cc19 a1be
000000b0: ac47 503f 92cf f83e e0ff 24bc 0ef1 483e
000000c0: 1079 113f 33d9 b3be bdd0 d23d 9662 153e
000000d0: bb43 8e3e 12f2 213f 60bb c0bc dc8a dfbd
000000e0: e9b3 653d 5278 76bb 0ceb a5bd 39bd 2a3d
000000f0: ac51 0f3d f288 333d 4408 43bd d08b 223e
00000100: e997 f93e 77e4 cabe eb39 2a3e 6c66 c0bd
00000110: 4f7c bd3e 487c 11bf 265d 8bbe e1ca e4be
00000120: 3d16 f7be e63a ebbd 890e 3e3a d127 64be
00000130: 0aba d53d 2bbf 2cbd 81d0 09bb 10c7 73be
00000140: 88e1 a7be 2f3c 08bf df0b b83e c485 d53c
00000150: 5d75 c93e f702 a83e 9ee6 bb3e f948 293e
00000160: f9f5 733d 04ad 27be 2f7f 9a3c 17a5 393b
00000170: 7dd1 873d 8da2 37be 6e6d 78be db52 70bd
00000180: 1ab7 85be 4b83 3e3e 8138 4b3e d82b bf3c
00000190: 4fed f13d e598 4abd 4577 933e be40 17bf
000001a0: e9ae 003e 4d9e 0a3f bc3c 413f 749b abbe
000001b0: b931 763e 3a1b 84bf c01c 063e 393c 303e
000001c0: 2a4e 373c b498 f9bd 5f48 b63e ccc0 bfbc
000001d0: 725c 8f3e dda9 7abe 5723 683e 1062 263e
000001e0: f6c9 f1bd c42d 4bbd 70f8 313e 4c2f 543e
000001f0: c80d 2a3e 9d1b 85bd 7419 e7bc 80bd 403d
00000200: bdeb 1c3d c421 ab3e 1bf0 c6bd 5fef 883e
00000210: cdeb 9f3d 49f0 3bbe 10a7 de3d 3419 20bf
00000220: 9a6f 9cbe 4770 a63c 9df5 11bf 89f6 dabe
00000230: d744 4ebd 2474 573d 320c d13e 4ca9 523e
00000240: 9786 4ebe 9ee9 bdbd 9a3b a8be 905a 9cbe
00000250: e5b0 5d3e 6ff3 753d a9ad 2c3d 8541 713e
00000260: 218e 993e 0837 b9bd c511 093e 6480 1dbd
00000270: e885 843d a1cf b13b 106f 8d3d 66bb 02be
00000280: 7f82 cdba 4a6c 31bc 6f6e d03e 727c 93ba
00000290: 9bc3 c93d 0baf 6bbe 31df 0cbe fc4a 25bd
000002a0: 9bd7 2bbf 7d5f ca3d e4ae 05bf 2f7b 8c3d
000002b0: eff3 0bbf 4357 a93e 4752 b93d f8d3 603e
000002c0: d31e 173f 5e36 b4be 71c2 a83c c2e4 7ebd
000002d0: 9653 c9be 39b1 9b3d 2937 15bd a8a2 8f3d
000002e0: e332 903e 3508 54bd 117c 7bbc 29b6 833b
000002f0: c5d2 3d3d 551e fabb cb3b c93b 673e 94bd
00000300: a964 3abd 9e3c 183d bafa 983c a178 c63e
00000310: a998 31be 61e3 e13c d14d 63bd 9c9f 47be
00000320: e204 88bd cf98 0bbf 92a5 a8be 20ce 8bbe
00000330: 9aa4 84be 5be3 81be 8164 5d3e c9fc 9dbe
00000340: 9de1 de3e 873e c13e 910c 0fbe 5bf7 9fbe
00000350: 0946 8a3d 9b8e 6dbe a193 1b3f 0237 cbbd
00000360: 8ce7 903d a184 e23d a346 8c3e 3d46 9ebd
00000370: b2ff 02be 46f0 e5bd 593d 80bd 52c5 b03d
00000380: e726 aebb 7697 813a 08d3 76bd ba6c fc3c
00000390: 6093 91be 07e6 82be 2879 c8bd c9fc 333c
000003a0: 5c2b 493e 230d bdbd be19 0e3f 7d56 f03e
000003b0: 4f6c aa3f 926d f43e 8f1d 1cbf df4d 00bc
000003c0: a1cb 23bd 6140 c3be dcd6 27bf 5b92 9dbe
000003d0: 2f08 5a3e bc9d b43d ffd2 0c3f 50bf 41be
000003e0: 7c2f acbe c0ab 80be 2336 e3be e345 493e
000003f0: ce94 25be 537a 93bd 6f80 abbd 9fbb 7f3d

critic.0.bias f4 [128]
-0.44386008 -0.4986206 0.18487109 -0.14186044 0.44242018 -0.3296984 0.20222497 -0.15879603
0.32028908 -0.35887036 0.18113849 0.10766244 0.00034796735 -0.31043148 -0.19973694 -0.30977023
0.28658572 -0.015552142 -0.1473493 0.36315402 0.42139125 0.21946703 0.066021234 -0.36226308
-0.06879198 0.45404324 -0.046307936 -0.25305587 -0.0956183 -0.12565957 0.43773374 -0.26676136
-0.28076315 -0.25454542 -0.31732932 -0.18086042 0.3525595 0.058836382 0.032241646 0.13945006
0.2107189 -0.49877137 -0.27610797 0.37494853 0.338136 0.047533397 0.091048546 -0.34188646
-0.0053328318 -0.043958116 0.23056072 -0.09148552 0.03926891 -0.5447249 0.1856605 -0.09238014
0.33188516 -0.43444747 0.045892335 -0.15631415 0.25354877 -0.43478727 -0.2757771 0.2894018
0.08476335 0.24696764 0.06565169 -0.5642095 0.014691242 0.10098075 -0.068696804 0.23261851
-0.6514173 -0.12712932 0.33008257 -0.15601964 -0.1746333 -0.25726795 -0.57324827 0.41039443
-0.3192977 -0.014071775 -0.02649755 0.33044556 0.12963198 0.11491868 -0.2970166 0.4128103
0.40842587 -0.26943445 0.1575588 -0.15358017 0.13839586 -0.22614866 0.061854646 0.008941946
-0.37661654 0.3679749 -0.17494951 0.4775876 0.10268414 0.46557286 0.44245994 0.48149768
-0.053160388 0.18500343 0.2244296 0.2718996 0.31429327 0.18544558 0.37102506 0.101689614
0.2770446 -0.25646004 -0.024121203 0.047504295 0.17241417 0.04279772 -0.0024672283 -0.28827256
0.038593277 0.09740504 0.30747673 -0.07603454 0.31588954 -0.20831758 0.123921074 0.36415258
00000000: a141 e3be 334b ffbe d94e 3d3e dd43 11be
00000010: e684 e23e 3bce a8be 1014 4f3e 6d9b 22be
00000020: eefc a33e dbbd b7be 5e7c 393e 207e dc3d
00000030: 636f b639 e0f0 9ebe d787 4cbe 349a 9ebe
00000040: 5dbb 923e 69ce 7ebc bce2 16be 53ef b93e
00000050: 98c0 d73e f7bb 603e 2436 873d 8c7a b9be
00000060: cfe2 8cbd 5b78 e83e 64ad 3dbd 8a90 81be
00000070: 87d3 c3bd e7ac 00be a31e e03e f294 88be
00000080: 30c0 8fbe c753 82be fd78 a2be 7933 39be
00000090: ae82 b43e 6bfe 703d d10f 043d ffcb 0e3e
000000a0: b2c6 573e f65e ffbe 065e 8dbe 41f9 bf3e
000000b0: 2920 ad3e 61b2 423d a977 ba3d be0b afbe
000000c0: 09bf aebb 6d0d 34bd 1c18 6c3e c35c bbbd
000000d0: 70d8 203d 1773 0bbf c91d 3e3e cd31 bdbd
000000e0: daec a93e e66f debe 9af9 3b3d d110 20be
000000f0: 25d1 813e 709c debe a832 8dbe 792c 943e
00000100: 6898 ad3d 16e5 7c3e 6574 863d 0970 10bf
00000110: 89b3 703c ffce ce3d e9b0 8cbd 8c33 6e3e
00000120: 49c3 26bf 302e 02be 9500 a93e 9dc3 1fbe
00000130: 12d3 32be a0b8 83be 66c0 12bf 381f d23e
00000140: fd7a a3be 4d8d 66bc 6411 d9bc 2930 a93e
00000150: 3fbe 043e 7c5a eb3d 8f12 98be df5b d33e
00000160: 321d d13e 50f3 89be 1857 213e 1f44 1dbe
00000170: a5b7 0d3e 8493 67be 4c5b 7d3d 3d81 123c
00000180: e2d3 c0be 3567 bc3e f725 33be 5d86 f43e
00000190: 104c d23d 915f ee3e 1c8a e23e dd86 f63e
000001a0: b5be 59bd 8a71 3d3e e0d0 653e 6d36 8b3e
000001b0: 0ceb a03e 72e5 3d3e fff6 bd3e a542 d03d
000001c0: cad8 8d3e bb4e 83be d499 c5bc dd93 423d
000001d0: 578d 303e a94c 2f3d 39b1 21bb 7698 93be
000001e0: fc13 1e3d 4b7c c73d 976d 9d3e ffb7 9bbd
000001f0: 46bc a13e 3451 55be 55ca fd3d 3572 ba3e

critic.2.weight f4 [64, 128]
0.23613612 0.19538282 -0.04180811 -0.16364928 -0.20809607 -0.0009977232 -0.012548616 0.24123032
-0.22333047 0.022547793 0.0822171 -0.14251564 -0.1770344 -0.13836789 -0.03485723 -0.089677915
0.29990712 0.01600777 0.18918046 -0.11795019 -0.07003376 -0.06004297 0.057897016 -0.0024049736
0.10512537 -0.31141105 0.051948313 9.904744e-05 -0.004099413 -0.07562344 -0.2509193 0.0967485
0.27995372 -0.013487021 -0.25767618 0.07392304 -0.20706458 0.05292078 -0.22864753 0.093937114
0.009932875 0.33221793 0.047667254 -0.11690076 -0.13109411 -0.15124129 -0.112364225 -0.14265858
-0.042011734 -0.28708953 -0.07291473 -0.1628789 -0.119752035 0.4467684 0.07814566 0.0063246684
0.0037254244 -0.1377821 0.034848258 0.0586259 0.13009058 0.32087782 -0.098444596 0.1417046
0.06742981 -0.09664134 -0.19113328 0.096372224 -0.17045003 -0.23140424 0.07912771 -0.1157707
0.14159681 -0.03402564 -0.2883722 0.025778018 0.26663846 -0.2092693 0.06160196 -0.0037619022
0.013620693 0.049164083 -0.056137934 0.055141415 -0.35180622 -0.072894685 -0.11735063 -0.04865586
-0.0630008 0.06118682 0.02173821 0.19284704 0.07303635 0.3683511 -0.13373698 0.019403737
-0.08882428 0.01924257 0.28667742 -0.171601 -0.09620983 -0.10464417 -0.06514724 -0.048428528
-0.28236875 -0.057408266 -0.080782324 -0.22860153 -0.23921981 -0.34943214 -0.24347836 0.1605966
-0.23884355 -0.17866296 0.0052085645 -0.47023132 -0.15279233 -0.0023064883 0.3352849 -0.08801948
0.08488366 -0.034512833 -0.20258865 0.11998067 0.01762117 0.035920095 -0.20673816 0.16588965
0.02418766 0.28099737 -0.13324645 -0.19121732 0.32202214 -0.1441455 -0.0247393 0.24891089
-0.12582974 -0.042739827 -0.0062519354 -1.1172747e-05 -0.33387423 -0.2833844 0.107225604 0.111457236
0.098721996 -0.28880897 0.2686347 -0.09886852 0.14268844 -0.13067278 -0.19952154 -0.07918108
-0.17506048 0.04011322 -0.26403844 0.14541154 -0.009482219 -0.035335932 0.09841287 -0.5552031
0.14680491 -0.39295828 -0.30187732 0.043474995 0.28435346 0.3115256 0.3824486 -0.19676006
0.48957726 0.18936545 -0.09706945 -0.15970917 0.16794723 -0.26889458 0.32999524 -0.20300645
-0.05656413 -0.14896855 0.16558766 0.012507784 -0.036717158 0.29233527 0.095654525 -0.01279387
0.027364729 0.0934817 -0.09651376 0.29595008 0.2199217 -0.19195317 -0.2147216 0.31907395
0.18691716 0.22370203 -0.16140829 0.047683626 0.04421736 -0.034918908 0.3144443 0.020724423
0.1635714 -0.23337337 0.050986893 0.14272921 -0.34559754 -0.31813136 -0.13183376 0.15068445
-0.4527832 0.16357669 -0.016783485 0.4479811 -0.23245388 -0.27674925 -0.083781235 -0.052940782
-0.011311473 -0.008662294 0.09733354 0.14811486 0.2675051 0.14008905 -0.5640814 0.09276327
0.009060755 0.015963687 -0.071252115 0.08755687 0.1527079 -0.16382924 -0.14535427 0.12984875
-0.0517476 0.1654813 -0.17040056 0.24952032 -0.024343647 0.1543111 0.049620066 0.08656196
0.06826722 -0.046954054 0.21236217 -0.23535855 -0.099423304 0.16389461 0.68302035 0.28937694
-0.13534072 0.16077392 0.15288848 0.29001182 0.16457988 -0.1978689 -0.06755517 0.31137696
00000000: abcd 713e 6f12 483e fb3e 2bbd ad93 27be
00000010: 2317 55be 09c6 82ba b698 4dbc 1505 773e
00000020: beb0 64be 26b6 b83c 7061 a83d 9fef 11be
00000030: 8148 35be 50b0 0dbe 74c6 0ebd 0ea9 b7bd
00000040: 6d8d 993e ba22 833c 86b8 413e df8f f1bd
00000050: dc6d 8fbd 9eef 75bd 6c25 6d3d c39c 1dbb
00000060: f84b d73d 4571 9fbe c1c7 543d b0b7 cf38
00000070: 5e54 86bb 76e0 9abd 7f78 80be 1424 c63d
00000080: 1856 8f3e abf8 5cbc 22ee 83be f664 973d
00000090: bd08 54be 76c3 583d 9422 6abe 1a62 c03d
000000a0: 7fbd 223c 7818 aa3e bd3e 433d aa69 efbd
000000b0: 893d 06be ffde 1abe 371f e6bd 1715 12be
000000c0: 7f14 2cbd 66fd 92be 5154 95bd bac9 26be
000000d0: 8e40 f5bd d4be e43e d50a a03d 2a3f cf3b
000000e0: 4026 743b c016 0dbe 0cbd 0e3d b621 703d
000000f0: 7736 053e 194a a43e 529d c9bd 031b 113e
00000100: a418 8a3d e5eb c5bd 71b8 43be cd5e c53d
00000110: 748a 2ebe 3cf5 6cbe b50d a23d 3019 edbd
00000120: c1fe 103e 785e 0bbd 85a5 93be 6c2c d33c
00000130: d684 883e b14a 56be 5652 7c3d 3f8a 76bb
00000140: 5429 5f3c 4760 493d e4f0 65bd f7db 613d
00000150: f21f b4be cf49 95bd 8755 f0bd 5e4b 47bd
00000160: 9006 81bd 089f 7a3d 5514 b23c b279 453e
00000170: 1594 953d 8498 bc3e 59f2 08be 96f4 9e3c
00000180: 81e9 b5bd 98a2 9d3c 62c7 923e 2cb8 2fbe
00000190: a909 c5bd af4f d6bd eb6b 85bd fe5c 46bd
000001a0: a392 90be ee24 6bbd 3471 a5bd 8516 6abe
000001b0: 0af6 74be c5e8 b2be 6452 79be 6f73 243e
000001c0: 6793 74be 6cf3 36be 9bac aa3b 29c2 f0be
000001d0: 9875 1cbe 7428 17bb 76aa ab3e 8f43 b4bd
000001e0: 7cd7 ad3d 545d 0dbd 6673 4fbe 6db8 f53d
000001f0: 465a 903c f320 133d 2bb3 53be fade 293e
00000200: 3325 c63c e3de 8f3e c271 08be 79ce 43be
00000210: 16e0 a43e e19a 13be 13aa cabc 7fe2 7e3e
00000220: 83d9 00be f50f 2fbd 09dd ccbb 9572 3bb7
00000230: 90f1 aabe c317 91be 1999 db3d b143 e43d
00000240: c22e ca3d c5de 93be 7d8a 893e 947b cabd
00000250: eb1c 123e 16cf 05be 604f 4cbe b129 a2bd
00000260: 0e43 33be c34d 243d 0c30 87be c3e6 143e
00000270: 4f5b 1bbc 69bc 10bd b08c c93d ca21 0ebf
00000280: 0754 163e d431 c9be aa8f 9abe d612 323d
00000290: c796 913e 4980 9f3e 4ed0 c33e 787b 49be
000002a0: dfa9 fa3e 04e9 413e 59cc c6bd cd8a 23be
000002b0: 5cfa 2b3e 8dac 89be 23f5 a83e ece0 4fbe
000002c0: caaf 67bd 368b 18be d08f 293e 73ed 4c3c
000002d0: bb64 16bd f8ac 953e 85e6 c33d 619d 51bc
000002e0: ff2b e03c 5573 bf3d 02a9 c5bd c586 973e
000002f0: 2733 613e 5f8f 44be fbdf 5bbe a95d a33e
00000300: 3667 3f3e 2512 653e 3748 25be e84f 433d
00000310: 431d 353d 2107 0fbd d8fe a03e 44c6 a93c
00000320: 437f 273e 6ef9 6ebe a2d7 503d 9b27 123e
00000330: 29f2 b0be 1de2 a2be 6eff 06be 064d 1a3e
00000340: 33d3 e7be a680 273e 857d 89bc c75d e53e
00000350: 6408 6ebe 14b2 8dbe 7f95 abbd 6fd8 58bd
00000360: c253 39bc 4bec 0dbc cf56 c73d 6cab 173e
00000370: 6ef6 883e 8173 0f3e a367 10bf abfa bd3d
00000380: 9073 143c 47c6 823c a1ec 91bd 0451 b33d
00000390: 765f 1c3e dac2 27be c0d7 14be 12f7 043e
000003a0: 4bf5 53bd ee73 293e 7c7d 2ebe 4182 7f3e
000003b0: 546c c7bc bb03 1e3e 693e 4b3d 6647 b13d
000003c0: afcf 8b3d e552 40bd 7875 593e d501 71be
000003d0: 729e cbbd fdd3 273e 6cda 2e3f 3729 943e
000003e0: c296 0abe eba1 243e cc8e 1c3e 6e7c 943e
000003f0: a187 283e 259e 4abe 5d5a 8abd cd6c 9f3e

critic.2.bias f4 [64]
-0.16885996 -0.038311157 0.18303537 0.24606319 -0.06964978 -0.22787352 -0.49101502 -0.35009098
-0.1988357 -0.28305125 -0.2259552 -0.023786308 -0.22287667 0.2582744 0.24506035 0.06701551
0.31286615 -0.15815625 -0.20341578 -0.28827336 -0.13379109 0.17999403 -0.34621564 0.09880217
0.17431289 0.22435936 0.010989294 -0.22228967 -0.10746616 -0.08653394 0.33797866 0.30183542
0.16833085 0.12793995 0.5669819 -0.16534269 0.11994307 -0.38910875 0.11789698 0.24789578
0.25150895 0.25446302 -0.18424118 -0.02144707 0.072815284 -0.48643637 -0.19392788 -0.06001068
0.07042128 0.3127477 0.09364573 0.099482365 -0.03242931 -0.0095842 -0.3063618 0.02804398
-0.06728118 -0.044858884 -0.41228285 0.23362947 -0.2143121 -0.38627678 -0.3515209 -0.023839934
00000000: a0e9 2cbe 29ec 1cbd a06d 3b3e fdf7 7b3e
00000010: 8ba4 8ebd ad57 69be 5266 fbbe 203f b3be
00000020: 969b 4bbe 18ec 90be cd60 67be 81db c2bc
00000030: c839 64be 8b3c 843e 1af1 7a3e 6d3f 893d
00000040: fe2f a03e b6f3 21be 3a4c 50be 9198 93be
00000050: 8800 09be 5b50 383e 2d43 b1be cb58 ca3d
00000060: 147f 323e 76be 653e 710c 343c e79f 63be
00000070: 3817 dcbd b538 b1bd 8a0b ad3e 2c8a 9a3e
00000080: ec5e 2c3e b102 033e ba25 113f 984f 29be
00000090: b6a4 f53d 4339 c7be f973 f13d 64d8 7d3e
000000a0: c8c5 803e fa48 823e b8a9 3cbe c4b1 afbc
000000b0: 2e20 953d 300e f9be 0895 46be c2cd 75bd
000000c0: 0839 903d 7720 a03e 55c9 bf3d 69bd cb3d
000000d0: 99d4 04bd 0c07 1dbc 74db 9cbe 7dbc e53c
000000e0: b7ca 89bd f3bd 37bd bd16 d3be 903c 6f3e
000000f0: a274 5bbe 12c6 c5be 8cfa b3be f74b c3bc
