legged_gym/logs/tron1/Mar26_09-33-42_track_3.0_feet_contact_force_-0.0035_stand_still_-1.5_base_height+0.1_feet_regulation_-0.15_track_contacts/model_1400.pt (torch, 376290 bytes, 48 tensors)

std f4 [8]
000000 88 31 06 3f 9c 9f de 3e 13 f2 06 3f 6d ab cf 3e
       0.5241933 0.43481147 0.52713126 0.40560475
000010 3d f8 08 3f 43 b2 e3 3e f4 ef 05 3f 23 7e d4 3e
       0.5350378 0.4447194 0.52319264 0.41502485

actor.0.weight f4 [128, 33]
000000 e1 67 d5 be c5 5a 47 3f 6a 22 8c 3e 87 1e 15 3f
       -0.41680816 0.7787288 0.27370006 0.58249706
000010 35 c0 96 bd 56 16 11 3f 98 40 54 be ad 5d e1 be
       -0.07360879 0.56674707 -0.20727766 -0.4401678
000020 3f e6 e8 3e 1e 3d ca 3e c7 0f fc be 3b 54 31 bf
       0.45488164 0.39499754 -0.49230787 -0.6926915
000030 65 6c f4 be 8c 4a 71 3e 11 13 38 bf 4e c2 19 3f
       -0.47738948 0.23563594 -0.71904093 0.6006211
000040 21 2e 18 bf 70 95 51 3e 5b 3a 96 3e e2 60 45 bf
       -0.5944539 0.20467162 0.29341397 -0.77100956
000050 d1 99 d1 be df 97 ec 3d f2 06 bf 3b de 60 07 3e
       -0.40937665 0.115524046 0.0058296854 0.13220546
000060 10 ff 36 bd ca fd f8 3d 76 c8 97 bc 2a 80 14 be
       -0.04467684 0.121577814 -0.018528204 -0.14502016
000070 d3 e9 c9 3c 98 fc 96 bd be bd bc 3e 0a ef 3d be
       0.024647629 -0.07372397 0.36863512 -0.18548217
000080 cc ce 91 3d 47 14 01 be 20 19 65 bf 4f a8 db bd
       0.071195215 -0.12605391 -0.8949146 -0.10725462
000090 de bc be be f2 f2 87 3f 15 66 9c 3e 5a 00 99 bf
       -0.3725347 1.0621016 0.30546632 -1.1953232
0000a0 bf 42 d8 be 41 41 65 be a1 7c e7 be 08 15 fc 3e
       -0.42238423 -0.22388174 -0.45212272 0.49234796
0000b0 09 83 a1 bd c4 1e 63 3e fc e6 de 3d 7c 8f 81 be
       -0.07886321 0.22179705 0.108839005 -0.25304782
0000c0 01 05 a0 bf 60 26 ea 3e f9 15 11 3e 57 65 c6 3d
       -1.2501527 0.45732403 0.14168538 0.09687298
0000d0 ca e6 b5 bd e8 91 55 bd 31 83 07 bd 4d a6 bf 3d
       -0.0888191 -0.0521411 -0.0330841 0.09357891
0000e0 ac 31 40 bc b7 6b f0 bc 76 81 1a 3e 1a 98 d6 bd
       -0.011730593 -0.029348237 0.15088448 -0.1047823
0000f0 2d fb 9d bd 8d c9 21 3e a8 75 c9 3d 47 14 12 bd
       -0.077139236 0.15799542 0.09836894 -0.03566387
000100 81 71 95 3e b9 5e a3 bd 7c 88 21 be 45 6d a5 be
       0.2918816 -0.07977051 -0.15774721 -0.3230993
000110 f4 c9 4f 3d dc 4c 4d bf 72 50 1e 3d 45 82 89 be
       0.050729707 -0.80195403 0.038650937 -0.268572
000120 08 79 a4 bf eb f2 e3 be 88 46 6c 3e 4b 9d 0b 3e
       -1.2849436 -0.4452127 0.2307378 0.13634221
000130 e2 0c 54 3f 94 e1 0a 3f 79 6e 82 3e ad 78 07 bf
       0.8283216 0.54250455 0.2547491 -0.5291851
000140 dc 5c 8c be e8 34 21 bf eb 77 31 3e 60 c3 9b 3e
       -0.27414596 -0.62971354 0.17330901 0.30422497
000150 1b 6d 84 3c 29 45 2d 3d ce 7f b6 bd 67 a8 b6 3d
       0.016165307 0.042302284 -0.089110956 0.08918839
000160 72 94 d9 bd 69 42 40 3d d9 ac a3 3c 2c 0a d6 bc
       -0.10624017 0.046938334 0.019979881 -0.026127897
000170 02 d8 a7 bc ef 2e 04 3d aa 5a 87 bd be 9b a8 3d
       -0.020488743 0.032271322 -0.0660909 0.082328305
000180 4f de b3 3d 2d 7e ab be 6d ae b8 be 8b e5 03 bf
       0.087826364 -0.33494702 -0.36070576 -0.5152213
000190 cb ca 06 3e d7 60 4a be 92 16 8f 3d 60 15 48 3f
       0.13163297 -0.19763504 0.06986727 0.78157616
0001a0 24 aa fe bd c0 b3 9f bf 5d 1a f7 be ae 6e bc 3d
       -0.124347955 -1.247673 -0.482623 0.09200798
0001b0 f0 9f 08 3f ff eb 36 3f ac ca 21 bf de 18 ab 3e
       0.53369045 0.7145385 -0.6319988 0.3341741
0001c0 54 1f 2e be 2d e3 3d bf 7a 20 15 3f a2 0f 8b be
       -0.17004138 -0.7417477 0.5825268 -0.27160364
0001d0 5d a8 fb bc 39 5e 0a be 03 55 9e 3e e3 8c c1 3d
       -0.03071993 -0.13512506 0.30924234 0.094507
0001e0 90 f5 13 be c7 8f 0e 3e b6 35 51 bb 22 0b 8a 3d
       -0.14449143 0.13922034 -0.0031922883 0.06740405
0001f0 13 ec 3b be 4a d8 bc bc 03 66 e9 bc ab 62 44 be
       -0.18351774 -0.023052353 -0.028491026 -0.19178264
000200 fc 34 c4 bd b0 cf 9a 3e 54 b7 f8 bd 8f 33 a5 bd
       -0.095804185 0.30236578 -0.12144342 -0.08066475
000210 9a e8 05 bf 40 36 a2 3e df c9 d5 3c 36 ce ba 3f
       -0.52308047 0.31682014 0.026097236 1.459418
000220 18 98 de 3d 3e 07 1d 3f 92 94 08 3e 17 f6 d2 bc
       0.10868853 0.61339176 0.13337925 -0.02575211
000230 9d b6 86 3d c7 e8 c1 3e ff d4 ed 3d 43 22 34 bf
       0.065777995 0.37872908 0.116128914 -0.7036478
000240 2f 31 1f 3f ea a4 d0 bc 3e 4c 92 bf e6 ab 36 3f
       0.62184423 -0.025469262 -1.1429517 0.71356046
000250 fb 58 08 bf b2 86 8d be b9 2c 78 bd c5 06 a8 bd
       -0.53260773 -0.27641827 -0.060589526 -0.08204416
000260 80 bb 73 3e 0d 2f ae bd 6c 3f f6 bc 49 53 d5 3d
       0.23801994 -0.08505068 -0.030059539 0.10416276
000270 6b be 34 bd 0d da 16 be 9f 46 31 3c f0 55 c3 bc
       -0.04412691 -0.14731617 0.01082006 -0.02384469
000280 d1 7b 20 be c8 6d 33 be 10 a0 6a 3e aa 4d a9 3d
       -0.15672232 -0.17522347 0.22912621 0.08266766
000290 ba 43 0a 3f 76 cb 8d bd f9 e7 51 3b 35 33 c9 bd
       0.5400959 -0.06923573 0.0032029136 -0.0982422
0002a0 d2 61 d5 be 50 7d b9 3e b2 c8 bd 3e 6f bc fa 3e
       -0.41676193 0.36228418 0.3706718 0.48971888
0002b0 1a fc 80 be 38 23 d3 bd e2 c4 cc be 30 dd 1c bf
       -0.25192338 -0.10309452 -0.3999396 -0.61275005
0002c0 82 4e 34 3f e7 24 79 bf 25 3d 98 3e 18 12 9c 3f
       0.70432293 -0.97321934 0.2973415 1.2193022
0002d0 ac 6d 27 bf 5b 40 16 3f 4a 6a 8d be 4e 08 35 bf
       -0.6540172 0.5869195 -0.27620155 -0.70715797
0002e0 e2 d9 e3 bc c7 78 09 3f 55 b7 f7 bd d6 96 81 bd
       -0.027813856 0.53699917 -0.12095515 -0.06327598
0002f0 8f 79 27 be f2 06 c3 bc b0 f1 44 3e 3d a8 68 bd
       -0.16354965 -0.023807023 0.19232821 -0.05680107
000300 ed b2 23 be 9e 56 6b bd 49 8d 88 3d a4 e2 80 bd
       -0.15986224 -0.05745565 0.06667573 -0.06293228
000310 42 4e 0c 3e 18 22 c3 3e 84 08 a0 be c2 80 b6 3d
       0.13701728 0.3811195 -0.31256497 0.08911277
000320 58 df 20 be 95 3c 9a bf 3c 1b 80 be 77 60 63 3e
       -0.15710199 -1.2049738 -0.25020778 0.22204767
000330 59 7b f4 3e af 3f 85 bf 6f 84 63 3f 8f d5 4a bd
       0.47750357 -1.041006 0.8887395 -0.04952007
000340 f1 57 15 bf 9b b7 95 3e 6f 60 42 3e 8f f3 64 3e
       -0.5833731 0.29241642 0.18982099 0.22358535
000350 f0 30 13 3f 5d bf c5 be ab 5e 33 be 3a 86 f0 3d
       0.5749655 -0.3862256 -0.17516582 0.11744352
000360 bb a1 2b bf 50 76 8a 3e df ba 53 bf a6 92 49 be
       -0.67043656 0.2704339 -0.8270702 -0.19684848
000370 64 e0 02 bd 22 d8 22 3d d7 f3 0e 3d b5 a7 0c be
       -0.031952277 0.0397569 0.034900513 -0.1373585
000380 c7 c9 5c bd af 12 68 3d f8 0e fa bc 8e 70 82 3d
       -0.053903367 0.056658443 -0.030524716 0.06369124
000390 03 ac a1 3c 73 bf 31 be ae ef 11 bd 93 69 72 be
       0.019735342 -0.17358188 -0.035628967 -0.23673086
0003a0 7c b4 1e 3b b6 ef e1 3d 1e 86 da 3e a5 87 68 3f
       0.0024216464 0.11032049 0.42680448 0.9083198
0003b0 d6 b2 a4 3d e1 61 72 bf 1c 0c f5 be 8e 51 53 3d
       0.08041923 -0.946806 -0.478608 0.05159145
0003c0 78 e0 8a bd 03 a5 8c be 0e 72 be bf 8b 28 55 3f
       -0.06781095 -0.27469644 -1.4878557 0.8326499
0003d0 d0 c7 91 bf 0e 05 9c bd 92 a4 16 be df 4d a9 be
       -1.1389103 -0.076181516 -0.14711216 -0.33067223
0003e0 fe 5a 73 3d 07 89 7e be c3 74 1f 3d 29 03 29 3e
       0.05941295 -0.2485696 0.038929712 0.16505112
0003f0 05 f6 30 be ae e9 74 bd b8 76 85 bc 29 da a5 bc
       -0.17281349 -0.059793167 -0.016291961 -0.020245628

actor.0.bias f4 [128]
000000 b3 bc 0d be ba ed 8f 3d 3e fe 25 3e f7 fb 0f 3d
       -0.13841514 0.070277646 0.16210267 0.0351524
000010 64 0d 08 3e c5 56 2f be 01 6a 4b bd 3e 33 d7 3d
       0.13286358 -0.17122944 -0.04966164 0.105078205
000020 16 8f f8 bd 20 9e 0a 3d 76 e9 30 3b 59 48 22 3e
       -0.121366665 0.033842206 0.0026994622 0.15847911
000030 2c 69 db bd 79 c0 02 3e e3 69 8e 3c ea 33 15 be
       -0.10713419 0.12768735 0.017384475 -0.14570585
000040 02 87 83 bd d2 8b 52 bd 23 a6 36 be dc 0b e1 3d
       -0.06422235 -0.051402874 -0.17836814 0.1098859
000050 ae d8 e9 3c fe 80 33 3d 05 11 f6 3d ee ee e8 3d
       0.028545704 0.04382419 0.12014965 0.11373697
000060 4d 48 59 be 47 e2 8d bd 11 2e 08 be c7 d4 39 be
       -0.21218987 -0.069279246 -0.13298823 -0.18147574
000070 18 e3 1a 3b b6 30 23 3d 7b 93 2c 3e f4 3e 65 3e
       0.0023633894 0.039841376 0.16853134 0.22387296
000080 4f c4 65 be 4c 32 b2 3d 4d 7d 58 bd b3 c3 0b bd
       -0.22438167 0.087009996 -0.05285387 -0.03412218
000090 3b 08 db 3d 6b 40 60 bd f9 d0 02 bd 59 4c da 3d
       0.10694929 -0.054748934 -0.031937573 0.106590934
0000a0 c7 37 86 3e 84 59 2a be fc 34 95 bd 4f 86 ad bd
       0.2621443 -0.1663571 -0.072854966 -0.08472883
0000b0 e9 37 5d 3e 6b ba 35 3d 3c 93 98 3b 94 c6 3b 3e
       0.2160336 0.044367235 0.0046562236 0.1833747
0000c0 2c 32 54 3e 3b 18 99 bd 67 b2 38 bc 86 f7 c3 3d
       0.20722264 -0.07475325 -0.011273003 0.09568696
0000d0 98 1c 4c 3c f4 fe 4b 3e 92 11 3d bd 8a 53 16 be
       0.012457989 0.19921476 -0.046159334 -0.14680305
0000e0 9b 02 44 bd b9 22 23 be a2 67 2f bd 47 de 1b be
       -0.047854047 -0.15931214 -0.04282344 -0.15221511
0000f0 5d 80 5f bd 50 16 c0 3d f6 58 81 be 5d b2 fa bc
       -0.054565776 0.09379256 -0.25263184 -0.030602628
000100 53 9f a3 bd a9 48 96 3d d5 3e 9b 3d af 51 20 bc
       -0.07989373 0.073380776 0.07580344 -0.0097851
000110 50 7d 45 3e c8 8a 91 bb 0d a8 46 3d c9 a8 5e be
       0.19286084 -0.004441593 0.04850011 -0.21744074
000120 19 f8 2e 3d df 73 76 be 3e 0b f5 bc d4 d9 a5 be
       0.042717073 -0.24067639 -0.029912587 -0.32392752
000130 c1 07 82 3c af ac 91 3d 3e a3 20 be 58 84 3e be
       0.015872838 0.07113015 -0.15687272 -0.18605173
000140 98 be ee bc ab 42 a9 3d cd 5c 88 3d c2 1a f9 bd
       -0.029143617 0.08264669 0.06658325 -0.12163307
000150 d5 af 19 be a3 e8 8e 3d da f2 23 bd d1 89 52 be
       -0.15008481 0.06977966 -0.040026523 -0.20560385
000160 10 1b b2 bd 34 5c 22 be f9 2c a4 bd 14 11 41 3e
       -0.08696568 -0.15855485 -0.0801639 0.18854171
000170 0a a9 73 ba 6c 1b 16 be 89 0d 05 3e 10 41 f9 3c
       -0.0009294903 -0.14658898 0.12993445 0.030426532
000180 ce d4 11 3e a3 39 a1 bd 71 f1 1b be 10 dc 8f bd
       0.14241335 -0.078723215 -0.15228821 -0.070243955
000190 cd 7a 7c 3d b7 e6 96 3c 08 4a 28 be 55 cf e9 bc
       0.06164055 0.01842056 -0.1643449 -0.028541246
0001a0 49 fd 3c 3e 27 f6 18 3e ad e5 4c bd bf 89 c1 3c
       0.18455996 0.1493765 -0.050023723 0.023625253
0001b0 9f 80 12 3d 61 51 06 3c e3 ef 1f be 46 b3 03 bd
       0.035767194 0.008198113 -0.15618853 -0.03215339
0001c0 0c 25 51 be e8 27 67 bd 8b 4c 34 3d 3c a5 50 3e
       -0.20424289 -0.056434542 0.04401831 0.20375532
0001d0 82 03 54 be 43 68 4d bd 8a 64 71 be 35 8b 0d bd
       -0.20704463 -0.05014826 -0.23573509 -0.034556586
0001e0 b6 c9 30 bc 27 e7 a5 3c 66 e5 55 be 47 88 bf bd
       -0.010790279 0.020251824 -0.2088829 -0.09352165
0001f0 2d ea 8f bd 13 e7 80 3d 84 6a ba 3d 41 2a 8d 3d
       -0.07027087 0.06294074 0.091023475 0.06892825

actor.2.weight f4 [64, 128]
000000 ee 75 1e 3e 52 77 e0 3d eb 97 43 3e 7c 1e 39 3e
       0.15474674 0.109602585 0.19100921 0.18078035
000010 34 bb d3 3d 8c 5f fc bc 04 ba e7 be d5 90 46 3e
       0.103384405 -0.030807279 -0.45259106 0.19391187
000020 de a5 89 3d 50 19 d7 bd 45 02 a2 3b c3 79 19 be
       0.0672109 -0.10502875 0.004944118 -0.14987855
000030 59 29 cb bd 37 91 96 3e 2d 77 e9 3d 24 eb bf 3d
       -0.09919996 0.29407665 0.11399684 0.093710214
000040 cf eb 9a 3d 0a eb ee 3e 89 2e bd bb f9 aa 89 3d
       0.07564508 0.46663696 -0.0057733697 0.067220636
000050 5c 06 b7 bd d3 98 67 3e 2a c4 d8 bc 1a 90 a7 bc
       -0.0893676 0.22616892 -0.026460726 -0.020454455
000060 bd a9 03 bd 84 03 5c 3e c1 ca bc be 14 c2 76 3e
       -0.032144297 0.21485716 -0.3687344 0.24097472
000070 b4 e6 d2 3b 13 4f 1f 3d 27 a7 29 3c ec bd 1e 3f
       0.0064361934 0.03889377 0.010354794 0.6200855
000080 94 28 8d bd 7f 50 b8 be 3b 90 0a 3e 4f ad 42 3e
       -0.06892505 -0.35998914 0.13531582 0.19011424
000090 9f 61 ff 3b 93 10 ad 3e 29 97 ae 3d 9d 57 c4 be
       0.0077936198 0.33801708 0.08524925 -0.38348094
0000a0 5f 93 15 3f 30 c8 42 be 66 f8 85 3e bb 10 90 3e
       0.58427995 -0.19021678 0.26166075 0.28137764
0000b0 c8 51 ab 3e 6f 75 ad bd 5c a2 88 3e c2 97 3f be
       0.33460832 -0.08469664 0.2668637 -0.18710235
0000c0 8c df bb 3e 60 c7 23 3e a7 37 10 3e 16 8d b9 3d
       0.3669399 0.15994024 0.1408373 0.09060113
0000d0 19 bf b9 bd 92 be d3 3c 22 6c a9 bd 0d 85 2e bd
       -0.09069652 0.025847707 -0.08272578 -0.042607356
0000e0 28 8a c6 3d 0e d0 aa 3d 39 2c 04 bd 58 e5 bf bd
       0.0969432 0.083404645 -0.032268737 -0.09369916
0000f0 e1 23 0f bd 99 07 aa be e1 ac 86 be 32 41 da bc
       -0.034946326 -0.33208922 -0.2630377 -0.026642416
000100 ce e9 07 3e 72 6b ae 3e bc 7a 11 be 97 c8 ef 3d
       0.13272783 0.3406635 -0.14206976 0.11708181
000110 32 3d 8c 3e be 89 59 bd 54 ab bf be c4 fd 6a ba
       0.27390438 -0.053109877 -0.374354 -0.00089642056
000120 bf 21 ac bd 58 f1 9f 3e 0e 5d 45 be 9b 58 a7 bd
       -0.08404874 0.31238818 -0.19273779 -0.08171197
000130 13 b0 8f be 08 d7 25 3d 93 7a ac bb 19 53 42 3c
       -0.2806402 0.040488273 -0.0052636354 0.011860632
000140 dd 18 bc bd 93 1c e1 bd c9 96 92 3e c9 19 38 3e
       -0.0918443 -0.10991778 0.28630665 0.17978586
000150 c5 c5 a3 bd 4f df f3 bd 77 64 dc bd a6 ae dd bd
       -0.07996706 -0.11907827 -0.1076135 -0.10824327
000160 bb 2d d8 3c f0 8b a6 3d 5a d1 a5 be c0 8c 24 bd
       0.026388993 0.0813216 -0.32386285 -0.040173292
000170 c1 de 6a 3d 34 92 b6 3e b9 62 e5 3b 47 17 0a 3e
       0.05734134 0.3565842 0.007000294 0.13485442
000180 c4 b7 6b 3e f9 a7 c7 bd 75 12 f9 3d b8 8c a4 3d
       0.2301932 -0.09748835 0.121617235 0.080346525
000190 64 3d 17 3e b7 47 a5 3e a8 8f 15 be 68 73 98 be
       0.14769512 0.32281277 -0.14605582 -0.29775548
0001a0 5e bc 51 bd ca dd 8b 3e 09 78 39 bd b3 1e da 3c
       -0.05120503 0.2731765 -0.04528049 0.026625967
0001b0 04 bb e2 3c 71 d6 c2 be 42 fb 93 bd 7e 59 88 bd
       0.027677067 -0.3805423 -0.07225658 -0.06657694
0001c0 b6 fa d1 3c 17 ca 7c bc 00 52 21 3e 1d 6d d0 bc
       0.025632244 -0.015429041 0.15753937 -0.025442654
0001d0 33 03 da be 33 3c cd bd d6 c4 1d 3e 79 d1 6f be
       -0.42580566 -0.10021248 0.15407118 -0.23419751
0001e0 1e 96 c4 bd 50 0d 94 3d ce a3 52 3d 05 28 52 be
       -0.09598945 0.07229102 0.051425748 -0.20523079
0001f0 da 88 78 bc a0 ed bb 3d 24 34 06 3c 0d 9a b7 be
       -0.015169347 0.09176183 0.008191142 -0.3585972
000200 e8 64 da 3d 43 ad 50 be df 0d c1 3d 63 ef 3a 3e
       0.106637776 -0.20378594 0.09426474 0.18255381
000210 20 73 83 3e 62 68 bd bb ac 72 79 3d 92 40 1b 3e
       0.2567377 -0.0057802657 0.060900375 0.1516135
000220 fe 38 45 bd 9d cc 7f 3e 16 6f 5b 3d 00 46 01 bf
       -0.048150055 0.24980398 0.053572737 -0.50497437
000230 ca 8b ad 3d 06 10 47 bf 07 bb a6 3d 1d e6 3c 3e
       0.08473928 -0.77758825 0.081411414 0.18447156
000240 22 f7 52 bd 42 36 95 be 3f 8a 03 3e 2d 16 56 be
       -0.051505215 -0.29142958 0.12845705 -0.20906897
000250 18 a8 10 bd d4 31 b9 be 54 60 da bc 7f dc d7 bd
       -0.035316557 -0.36170828 -0.026657261 -0.10540103
000260 77 87 5f 3e d7 aa 9f be df 52 dd 3d 8c fc 85 3e
       0.2182902 -0.31185028 0.10806822 0.2616924
000270 0e 85 1f be 9f 77 d0 be 95 d9 d9 bd 29 d1 5d be
       -0.155781 -0.40716264 -0.106372036 -0.2166182
000280 91 ad 6f 3d cb c6 b5 be aa 6d df 3c 52 0f 45 3e
       0.058515135 -0.3550323 0.027273972 0.19244125
000290 a3 92 60 3e 72 6b df 3d 32 e1 42 be 19 eb 07 3e
       0.21930937 0.109091654 -0.19031218 0.13273276
0002a0 43 cd 9e 3e 11 59 56 be c3 3b a4 3e ef 9a 1e bf
       0.31015977 -0.20932414 0.32076845 -0.6195516
0002b0 9b 3c 71 be cf 4c a8 bc 1f 0b 95 3e 26 f7 f6 3d
       -0.23558275 -0.020544438 0.29110047 0.120588586
0002c0 f3 38 8f bd 65 21 89 be 9e c4 13 be e0 e1 11 be
       -0.06993284 -0.2678329 -0.14430472 -0.1424632
0002d0 f7 c5 2e bf 2f b7 47 bf 63 d3 47 be 5d 02 05 be
       -0.6827082 -0.7801389 -0.19514231 -0.12989183
0002e0 18 6c 2e bd 77 b2 38 3f af 75 86 3e 15 b6 7e bd
       -0.042583555 0.72147316 0.2626166 -0.062185366
0002f0 d4 5c c9 3e cf 63 8f 3d a6 1f a3 3e 7b 7e cb 3e
       0.39328635 0.07001459 0.31860083 0.39744934
000300 de 1f 79 be 42 1c 1c bd 42 e0 1e 3f 1a 19 eb be
       -0.24328563 -0.038112886 0.6206094 -0.45917588
000310 99 2d 22 3f 2b de 6f be 81 e2 0d bd 14 25 59 be
       0.63350827 -0.23424594 -0.03463984 -0.2120555
000320 5f ad 0d bf e0 b5 6b bd c2 c3 9d 3e f3 c1 c7 3d
       -0.5534267 -0.057546496 0.30813414 0.0975379
000330 ee 60 38 bd 2a 5b 84 bd 62 3b 53 3e 43 36 45 be
       -0.045014314 -0.06462701 0.20628121 -0.1925898
000340 dd 3a 30 3d 33 68 29 be db 7d 48 3e 2c 8e 73 3d
       0.043024886 -0.16543655 0.1957926 0.059461758
000350 e0 f1 04 3e 89 da 17 3f 99 99 c2 3c bf 32 32 bf
       0.12982893 0.59317833 0.023754882 -0.6960868
000360 1e e0 ae bd 97 9c 70 3e d5 0d 96 ba c2 66 97 bd
       -0.08538841 0.23497234 -0.0011448214 -0.07392646
000370 e1 8f c8 3e fd 63 df 3d 13 07 c9 bc 0f 68 a0 bd
       0.3917227 0.10907743 -0.024539506 -0.078323476
000380 b5 be f2 bd 4a ee 21 3d f4 31 4a 3e 14 2f b5 3e
       -0.11852781 0.03953389 0.19745618 0.3538748
000390 05 19 13 be 1b 31 d8 3d 7f 46 a1 3e bb 76 1d be
       -0.14365013 0.10556241 0.31499097 -0.15377323
0003a0 91 09 1d be 53 3b 0d 3e 01 c1 a6 3c bb 89 82 3e
       -0.1533568 0.13792162 0.020355703 0.25495705
0003b0 f4 d9 49 bd 38 e2 04 be 99 8d c7 3d a0 3a de be
       -0.049280122 -0.1297692 0.097438045 -0.43404102
0003c0 92 86 22 be a3 27 22 be 56 99 f9 3e 2c 46 4b be
       -0.15871647 -0.15835433 0.487498 -0.19850987
0003d0 cc 3b 80 be e4 f2 0f 3d 70 6a 39 3e 7c 01 02 be
       -0.2504562 0.035143748 0.18107009 -0.12695879
0003e0 a9 c6 7f bc 55 e9 80 3d 67 81 31 3e 1d c0 da 3e
       -0.015611329 0.062945046 0.1733452 0.42724696
0003f0 fb c4 49 be 47 fc 90 3c c9 8b 9e bd b8 ea ab 3e
       -0.19704048 0.01769842 -0.07741506 0.33577514

actor.2.bias f4 [64]
000000 1e 0a 7a 3d a3 1f 00 be c2 0b 63 be 5e dd 1e bd
       0.061044805 -0.12512068 -0.22172454 -0.03878533
000010 73 aa c1 be 9f 6f da bc 1e 79 32 bd b0 cc 5f bc
       -0.37825355 -0.026664553 -0.043572538 -0.013659641
000020 42 5c 1d bd 8a c6 78 bd 54 2c 9d be 62 8c 5b be
       -0.038418062 -0.060736217 -0.30697882 -0.2144027
000030 07 bb 11 be 59 96 a8 bd 18 c5 4d be c8 f6 ef bd
       -0.14231502 -0.082318015 -0.20094717 -0.11716992
000040 b1 26 0d be fd 71 8e be 4e b5 98 be 73 47 f4 be
       -0.13784291 -0.2782134 -0.29825824 -0.4771076
000050 99 3a 7b be 95 f3 5b bd 31 1a 5d 3d e2 f7 4a be
       -0.24534072 -0.053699095 0.053980056 -0.19821122
000060 f0 7a dd be 6b 98 fb bd 2f e9 cc bd 25 7c 98 be
       -0.43257856 -0.12284931 -0.10005414 -0.29782215
000070 4f 3c 64 be d2 fa e8 be 6f 79 d6 be 61 ff 94 be
       -0.22288631 -0.4550386 -0.4188952 -0.2910109
000080 4b 6c f1 bc 75 42 94 be 74 e8 a7 bd 02 5e 40 bd
       -0.029470583 -0.28956953 -0.08198634 -0.046964653
000090 51 cb 9c 3d 05 74 ff bd 23 04 9d 3d 6d c1 f3 bd
       0.07655967 -0.12473301 0.07666805 -0.119021274
0000a0 21 a6 cd be c0 01 2b be 78 c0 58 be 7d 66 17 bf
       -0.4016581 -0.16699886 -0.21167171 -0.5914076
0000b0 e3 4a 29 be 73 30 25 be d8 0e d0 bd e9 e7 75 bd
       -0.16532473 -0.16131763 -0.10159081 -0.06003562
0000c0 bf 38 c3 be 6d 82 ee bd 90 5f 99 3d 61 0a 2c 3d
       -0.3812923 -0.116459705 0.0748893 0.042002086
0000d0 f9 0b fa be 66 47 1e bd cb 64 ca 3c f0 58 b4 bd
       -0.4883726 -0.03864231 0.024706265 -0.08806026
0000e0 42 a2 15 bf 79 66 1b be 04 02 cf bd 35 82 89 be
       -0.5845071 -0.15175809 -0.10107806 -0.26857153
0000f0 6a 6d 0f bd b7 97 8a be 43 b3 07 bf fa 97 00 be
       -0.035016455 -0.27068874 -0.53007907 -0.12557974

actor.4.weight f4 [32, 64]
000000 82 77 a1 3d 85 de 21 3d 86 8a 5f 3e 41 fe cd bd
       0.078841224 0.03951885 0.21830186 -0.10058261
000010 73 49 d1 bd 3f 8d cb bd 0a bd 82 be 2d 5e 9c be
       -0.102190875 -0.0993905 -0.2553485 -0.305406
000020 0a ea 15 be 89 92 2c 3e 15 7e d5 3d 80 73 af be
       -0.1464006 0.16852774 0.10424439 -0.34267807
000030 9c 20 94 3e ae 58 85 be e0 6d b2 bd 7b e4 83 be
       0.2893113 -0.2604422 -0.08712363 -0.25760254
000040 30 95 f9 3d af 59 0a bd 47 b6 8f 3d 47 26 31 be
       0.121866584 -0.033776935 0.070171885 -0.17299758
000050 91 0f a9 bd 6b e1 92 bd ea ac 80 3d c0 dd 02 3f
       -0.08254922 -0.07171901 0.06282981 0.51119614
000060 ce d6 3f 3e 3d 07 47 3d 5e d1 8c be d4 ec 1e be
       0.18734285 0.048590887 -0.27503484 -0.1552003
000070 c3 dc c9 bd 99 53 8e be 4b ce 73 3e b6 88 c8 bd
       -0.0985656 -0.27798155 0.23809163 -0.097917005
000080 7f 62 1e be 2e f6 e6 3d 84 06 df be bd 23 a5 bd
       -0.15467261 0.11277424 -0.4355966 -0.08063457
000090 04 25 0d be 39 a8 42 be 79 1b 34 bd 59 9b 6e be
       -0.13783652 -0.19009484 -0.043971512 -0.23301448
0000a0 1b f9 31 be c3 8e 5b be bd 93 0a be f7 86 4d bd
       -0.17380182 -0.21441178 -0.1353292 -0.05017754
0000b0 38 17 c1 bd 7d 79 d1 bd 2b 17 0e 3e 53 c6 c4 3d
       -0.09428257 -0.1022825 0.13876025 0.0960814
0000c0 de 6c 08 3e 66 9b 98 bd b1 1e 86 be 10 4f 28 3d
       0.1332278 -0.07451515 -0.2619529 0.041091025
0000d0 2c a3 45 3e 37 91 b2 3d bf 83 2c be c9 da 27 3e
       0.19300526 0.08719104 -0.16847132 0.16392054
0000e0 e0 aa f2 3d ac db 28 3d 49 0e 11 bd 26 6c 9b 3e
       0.11848998 0.04122512 -0.035414014 0.30355948
0000f0 d4 b0 0e be 17 f3 9d bd 82 66 82 3c a1 4f 99 be
       -0.13934642 -0.07712381 0.01591802 -0.29943565
000100 a0 57 68 bd d6 13 cf bd 8c f9 d2 bd 6b 78 3f 3d
       -0.05672419 -0.10111205 -0.103015035 0.0467457
000110 48 5b a8 3e 1a 9e aa bd 77 32 0d 3e 05 a5 b3 3d
       0.32882142 -0.08330937 0.13788782 0.08771709
000120 ce 1d f9 bc 59 0d 8f bc 8f d3 d7 3c ab 4f 82 3c
       -0.03040972 -0.01746242 0.026345996 0.01590713
000130 1f 26 01 3f ef c0 b1 3d c1 a8 98 bd 25 57 5d be
       0.50448793 0.08679377 -0.07454062 -0.21615274
000140 45 65 50 be 82 b3 3e 3e 2d 80 42 bc 43 d1 b7 3d
       -0.20351131 0.18623164 -0.01187138 0.089754604
000150 20 57 35 3c 34 64 a5 3c be d4 60 bd 15 78 a8 3d
       0.0110681355 0.020189382 -0.054890387 0.08226029
000160 50 53 a2 bd 40 99 a3 3e 76 44 77 be 63 c6 9b 3d
       -0.07926047 0.31952858 -0.2414721 0.07606199
000170 55 59 1f 3e 1e 75 0a 3d 00 f3 1b bf 2a bd 9e 3e
       0.15561421 0.033803098 -0.60917664 0.31003696
000180 56 45 b3 bd fb c0 45 3e 2a 24 5d be 5c a0 90 be
       -0.08753459 0.19311897 -0.21595827 -0.28247344
000190 c2 d9 20 3e fc 40 02 3e c6 14 2d bc 0e a3 20 be
       0.15708068 0.12720102 -0.010564035 -0.156872
0001a0 3d 96 2e bd d4 19 17 3e 1a 52 1f be a9 29 79 be
       -0.042623747 0.14755946 -0.15558663 -0.24332298
0001b0 bd 1b 02 be 77 79 28 3e 62 2b 2f bc 57 c9 a9 be
       -0.12705894 0.16452585 -0.010691496 -0.33161423
0001c0 e4 0b 0c 3d 8d 7b 52 be 3a df 5a be c0 f7 89 bd
       0.034191027 -0.20554943 -0.21374217 -0.06736708
0001d0 62 39 52 bc 0f a6 41 be 6c c3 09 3e 70 73 87 3e
       -0.012831064 -0.18911003 0.13453454 0.2645526
0001e0 a1 7b 15 be 87 0b 19 3d d1 f2 5d 3d 6f 68 03 bd
       -0.14597942 0.03736451 0.054186646 -0.032082018
0001f0 32 81 33 3e 8a 81 08 be 20 40 35 3e 34 96 d8 3d
       0.17529753 -0.13330665 0.17700243 0.10575524
000200 57 0f c7 bd 8c 88 3e be e7 e4 f7 bd ce ab df 3d
       -0.09719723 -0.18606776 -0.121042065 0.10921441
000210 2f 4a 2e 3e 17 93 3b be ee f4 a1 bd da e0 0d be
       0.17020486 -0.18317829 -0.07908045 -0.13855305
000220 57 e4 48 3d ee 4b 8e 3e 49 d6 1d 3e 77 f2 6a 3e
       0.049045887 0.27792305 0.15413775 0.22944055
000230 a1 24 4a bd d8 ad cb bd 0d 0c da bd 13 77 57 bd
       -0.04935134 -0.099452674 -0.1064683 -0.052603792
000240 61 fc 3a be 70 dd 65 3b 1b ad 8f 3d 46 5c 5c bc
       -0.18260337 0.0035074614 0.07015439 -0.013449734
000250 a9 4e 57 bd c3 c3 aa bd ce c2 64 bd 15 86 3a 3e
       -0.05256525 -0.0833812 -0.055849843 0.1821521
000260 a6 3d 94 bd bd 68 59 be 79 d2 76 bd 78 c3 9d bd
       -0.07238321 -0.2123136 -0.060259316 -0.07703298
000270 d3 de 59 be 30 5e 98 3c b2 8c 18 3e ac 14 ee bd
       -0.21276407 0.0185996 0.14897421 -0.116250366
000280 ea cb 60 3e b7 67 11 3e 77 da 34 3e 38 b2 b3 3d
       0.21952787 0.1419972 0.17661463 0.08774227
000290 7e 76 c4 3d ef e0 24 3e c2 0c 6a be 35 f7 f1 bd
       0.09592913 0.1610143 -0.22856429 -0.11814729
0002a0 d0 92 4c 3e de a3 82 bd 5b 19 bf bd c8 17 88 be
       0.1997788 -0.063789114 -0.09331008 -0.26580644
0002b0 30 8e 15 3e b2 51 c1 3e ac fe 2c be 18 07 45 be
       0.14605021 0.3775764 -0.16894025 -0.19240987
0002c0 39 d1 7b be fe 23 87 bd 58 5e c4 3d e1 50 5f be
       -0.24591531 -0.06598662 0.09588307 -0.21808197
0002d0 ac 97 31 bc 26 e2 ee bd 42 15 84 bb 0f b0 62 bd
       -0.010839384 -0.11664228 -0.0040308544 -0.055343684
0002e0 25 95 ac bd 64 4b 68 be 28 3f 8b be 62 95 18 bc
       -0.084268846 -0.22685009 -0.27196622 -0.009312959
0002f0 af f7 8c be d9 a3 16 3f ef 67 7f 3e c1 98 8a 3d
       -0.27532718 0.5884376 0.24941991 0.06767417
000300 e7 60 bc 3c 21 d3 2a 3e 36 38 d4 3d 04 d9 0e 3d
       0.022995425 0.16682102 0.10362284 0.03487493
000310 3c 16 d5 3c 1c 96 72 3e 3c 73 b7 be 32 97 c9 bd
       0.026011579 0.23690075 -0.35830104 -0.09843291
000320 9d fc e5 bd 38 d1 9c be 3a ac 39 bd 7f 81 d9 3d
       -0.11229823 -0.3062837 -0.045330264 0.106204025
000330 75 cd 95 3d b1 6f 93 be 59 49 0f 3e 6a 8a 83 3d
       0.073145784 -0.2879615 0.13992824 0.06422885
000340 a9 76 ab be 27 88 d4 bd a5 ae 1d 3d e7 b1 2d be
       -0.33488968 -0.103775315 0.038496632 -0.16962396
000350 40 51 cd 3d 27 4a ae 3c 59 7c 9d be e6 b6 b7 3e
       0.10025263 0.021275593 -0.30758932 0.35881728
000360 fb 3c 4b bc d4 93 c2 bd 3e 31 6b be 29 03 84 be
       -0.012404676 -0.09500852 -0.22968003 -0.2578366
000370 91 df 2c be 42 68 ed 3d e6 82 8d 3e 6a e1 c0 3d
       -0.16882159 0.11592151 0.2763893 0.09417994
000380 db d1 a6 3c 87 af b7 bd 75 e7 9d 3d d3 7b 3d 3e
       0.020363739 -0.08969026 0.077101626 0.18504266
000390 40 f3 aa be 24 d6 83 be fd 83 51 bc 05 5c f6 3e
       -0.3338871 -0.25749314 -0.012787816 0.4811708
0003a0 8e b1 33 be 69 5c cd 3c a8 06 02 be c6 cf 69 3e
       -0.175482 0.025068479 -0.12697852 0.22833166
0003b0 c9 e1 48 bc 7b 3a af be 5e 0c 6c be 4d 16 96 bc
       -0.012260863 -0.34224305 -0.23051593 -0.01832118
0003c0 a5 d6 39 3d 7d e1 47 3e 10 27 c1 3c 66 9d 01 3b
       0.045370717 0.1951961 0.023578197 0.0019777655
0003d0 a3 fd 8a 3e a5 6d a9 be 83 50 94 be 21 a6 1b be
       0.27146634 -0.33091465 -0.28967676 -0.15200092
0003e0 96 ab 55 3e 08 0b 0e 3e 00 db b1 3d 19 74 0f bc
       0.20866236 0.13871396 0.08684349 -0.008755707
0003f0 1b 48 1c be 3b 56 a1 bd 98 29 df 3d d1 e6 84 3e
       -0.15261881 -0.07877775 0.10896605 0.2595735

actor.4.bias f4 [32]
000000 25 25 05 be 06 ff c4 bd f7 63 ab be fb ea 30 be
       -0.13002451 -0.09618954 -0.33474705 -0.17277138
000010 15 30 1b 3c 7c 75 39 be ee 5f 91 bd fc 4c 7d be
       0.009471913 -0.18111223 -0.07098375 -0.24736398
000020 56 75 2f be 0e be 53 be 30 15 9d be 39 31 2d be
       -0.17134604 -0.20677969 -0.30680227 -0.16913308
000030 ff 34 06 bf 76 67 85 3b 18 40 11 be 6d 2e 9d be
       -0.52424616 0.0040711714 -0.14184606 -0.30699483
000040 c5 85 0d 3e cf 38 72 be 32 a2 15 bf cb ac c7 3c
       0.1382056 -0.23654483 -0.58450615 0.024374386
000050 37 00 95 3d fb ad 2f bf b6 a1 93 3c 3a 35 8b bd
       0.072754316 -0.6862485 0.018021446 -0.067972615
000060 2d a0 05 bd be d6 db be d3 43 96 3d 6f 70 f0 be
       -0.03262346 -0.42937273 0.07337155 -0.4696078
000070 1b 0e 66 be 80 66 c9 be ad 40 01 bd 48 ea d9 be
       -0.22466318 -0.39336014 -0.03155582 -0.42561555

actor.6.weight f4 [8, 32]
000000 8a 04 53 3e 6d 8e 33 3e b8 ff 36 be 23 1c 0d 3e
       0.206072 0.175348 -0.17870986 0.13780265
000010 19 4e 0c 3e c9 d9 53 bc 9b 6a ab bd 78 83 3f be
       0.13701667 -0.012930342 -0.08369943 -0.18702495
000020 7e 73 d7 bb 0d ab 7c 3e 23 d0 84 bd 8f a0 fc 3d
       -0.006575047 0.24674626 -0.064850114 0.123353116
000030 07 ea 82 be 03 69 93 3e a5 d5 e9 bd 06 45 cf ba
       -0.25569174 0.28791055 -0.114177026 -0.0015813417
000040 e3 46 88 3e 07 c5 cc bd 21 6c 8b bd 91 62 a5 bd
       0.26616582 -0.099985175 -0.06807733 -0.08075441
000050 5c fb cb 3c 03 6b f4 bd b6 80 64 3e ee ba b9 bd
       0.02490013 -0.11934473 0.22314724 -0.09068857
000060 1d 1a 35 3e b9 ba 42 be 07 32 28 be 74 21 b9 bd
       0.17685743 -0.19016542 -0.16425334 -0.09039584
000070 9c 45 14 3e 1d 48 1b be fe ba b3 3d 53 88 35 be
       0.14479679 -0.15164228 0.087759 -0.17727785
000080 d6 48 22 be b7 a2 fe bd 7c ba 39 3d 19 6c 39 bb
       -0.15848097 -0.12433379 0.04534386 -0.002829319
000090 d7 d8 c8 3d 7f 88 85 3d 93 63 d5 bd 3b 0a e9 3c
       0.09806984 0.06520175 -0.10419383 0.028447261
0000a0 0c 74 1f 3e 7c c2 68 bd a1 4f 22 bd 1c d5 35 bc
       0.15571612 -0.0568261 -0.03962672 -0.0110981725
0000b0 6e 35 8a be 4f 31 aa 3d 22 09 83 3d 38 8f 8b bc
       -0.2699389 0.08310186 0.06398226 -0.017036065
0000c0 33 0b 99 3e f9 ea 1f 3e ba 9c 7c be b9 98 8d 3d
       0.29891357 0.15616979 -0.24669161 0.06913895
0000d0 b5 09 58 3e ba 4b 89 3e 7d 2a b5 bd 7e e8 41 be
       0.21097453 0.26815587 -0.088459946 -0.18936345
0000e0 ea 77 0c be 81 93 84 3d 63 ff c4 3d f2 bb c1 bd
       -0.13717619 0.06473447 0.09619024 -0.09459676
0000f0 64 0f 58 3d 30 7c 69 3e 1c d8 a2 bc c3 18 b8 bc
       0.052749053 0.2280128 -0.01987844 -0.022472745
000100 c5 cc db bb 1c 8d 6f be 09 8c 02 3e a7 a6 2c 3e
       -0.00670776 -0.23393673 0.12748732 0.16860448
000110 58 dc c4 bd 2a fa 26 3d 59 4e 57 3d 37 bf f2 3d
       -0.0961234 0.04076592 0.052564953 0.118528776
000120 6e fa 37 be 87 c6 36 be ba bd 71 be 63 17 84 3b
       -0.17966625 -0.1784917 -0.23607531 0.004031108
000130 4d 65 d7 bd e9 ba 0a be df 76 07 3e db 9b 0b 3d
       -0.105173685 -0.13547863 0.1322894 0.034084182
000140 b4 cd 52 bd 8b ab dd bd 52 47 ae bc b7 c9 06 3f
       -0.051465705 -0.10823735 -0.021274243 0.5265154
000150 d3 cd 4f be cb 13 60 bd 27 bf 09 3e d7 02 e6 bd
       -0.2029336 -0.054706376 0.13451825 -0.112310104
000160 5c 10 00 be f9 6c 13 bc c2 2c cd be 17 bb 7e 3d
       -0.1250624 -0.008998149 -0.4007321 0.06219014
000170 a7 66 8a 3e 22 7e 0f bd 65 bc b6 be c2 97 96 bd
       0.27031443 -0.0350324 -0.3569061 -0.07353164
000180 a7 b1 ca 3d b4 8c 3a bd 9a b9 14 bd 2d c8 58 3e
       0.09897166 -0.04554434 -0.036309816 0.21170111
000190 37 0a d8 3c 59 5b 51 be cb d1 b4 3e e6 1f 9b 3e
       0.026372058 -0.20445003 0.3531631 0.30297774
0001a0 41 33 29 3e 3a 7e 81 3c 8b f1 0f be f7 32 e8 3d
       0.16523458 0.01580726 -0.14056985 0.11337846
0001b0 6f 2b 97 bd e2 3c 32 bd f6 b5 d5 bd 3e 1c a3 be
       -0.07381331 -0.043515094 -0.10435097 -0.31857485
0001c0 ca dd cc bc d7 b3 12 3d ef 55 03 bb 8a 34 68 be
       -0.025008101 0.03581604 -0.0020040234 -0.22676292
0001d0 f5 05 25 bd c1 25 35 3e c5 94 7a bd 43 f4 18 bd
       -0.040288884 0.17690183 -0.061177034 -0.03734232
0001e0 68 6e b8 3c e9 cc b9 bd 33 5b a2 bd 47 61 b8 bd
       0.022513583 -0.09072287 -0.07927551 -0.09002929
0001f0 f4 1b 3e 3d 88 db 89 3b 96 3a 1f 3d 19 fc 8d 3c
       0.046413377 0.0042070784 0.03887423 0.017332124
000200 1f d6 e6 bd b2 73 11 3e 23 4a 6d 3d 50 bf 08 be
       -0.11271309 0.1420429 0.05793203 -0.1335423
000210 b3 5b c0 be af 81 16 be 43 35 ce bb 98 6d 70 3b
       -0.3756996 -0.14697908 -0.0062929704 0.0036686417
000220 ca 3e d3 3d 39 fc 25 3c 5b d5 18 3e 1f f2 93 3d
       0.103147104 0.010130935 0.14925139 0.07223915
000230 de 6e e9 3d 4c 1d 6c be 0f 48 90 bd 61 62 9b 3c
       0.11398099 -0.23058051 -0.07044994 0.01896781
000240 8a 87 ec bc 9d d9 24 3e ee f6 62 bd 70 3c 6d be
       -0.028873224 0.16098638 -0.05541127 -0.23167586
000250 08 c2 06 3d 41 45 1e 3e 97 2c 30 be ef 82 2f 3e
       0.032899886 0.15456106 -0.1720451 0.17139791
000260 93 17 78 3d 97 eb 85 3e cb a9 5b be 38 44 6c 3c
       0.060569357 0.26156303 -0.2145149 0.0144205615
000270 40 30 c1 bb 13 6b 70 3d 6e 0a 30 3e a9 af 70 3e
       -0.0058956444 0.058695864 0.17191479 0.23504509
000280 6f 5e 94 3d 03 89 bd bd 13 24 14 be 9a 3b 7b bc
       0.07244574 -0.092546485 -0.14466886 -0.015334034
000290 fb 7f 18 3e 07 e5 a5 3d 46 b0 a5 bd c3 a5 6f 3c
       0.1489257 0.08100324 -0.08090262 0.014626923
0002a0 eb 43 e2 3d 11 98 a5 bd 57 9b 31 be d0 a9 b0 ba
       0.110481106 -0.08085645 -0.17344414 -0.0013478342
0002b0 97 0d 72 be ad 5c 2d 3d 13 48 94 3c d1 29 b4 3d
       -0.23637997 0.04232471 0.018100774 0.08797038
0002c0 92 89 13 be 81 b2 ae 3d 6c c1 23 3e e5 c8 af bd
       -0.14407948 0.08530141 0.15991753 -0.085832395
0002d0 45 59 2c 3e 61 da 2d be 86 dc 7f be b3 ee 39 be
       0.16830929 -0.16977836 -0.24986467 -0.18157463
0002e0 4f 05 2b 3d 70 2c 3d 3e 61 00 21 bd 7d 09 ab bd
       0.04175311 0.18473983 -0.039307002 -0.08351419
0002f0 87 26 ad bd aa 69 90 3e e8 97 b8 bc b0 48 ad bd
       -0.08454614 0.28205615 -0.022533372 -0.0846113
000300 da 33 68 3e ae 3f c5 3d 85 69 1b 3e 45 62 21 be
       0.2267603 0.096312866 0.15176971 -0.15760143
000310 d5 1e 69 bd 3c 98 51 bd 99 d4 0b 3d 12 a1 53 3e
       -0.05691417 -0.051170573 0.034138296 0.20666912
000320 dd 68 8a 3d bb f6 5c be 1e a3 5b 3e 39 45 a1 be
       0.06758282 -0.21578495 0.21448943 -0.31498125
000330 2f f4 08 bb 0c a5 b1 be 78 23 db 3e 35 3f 3c 3d
       -0.0020897498 -0.34696233 0.42800498 0.045958716
000340 2c 86 7e 3d 85 8e 6e be e3 73 d7 3b 2c d2 00 3d
       0.062139675 -0.23296554 0.006575094 0.031450436
000350 20 df 07 be 96 d9 a8 3d 23 2e 10 3d 28 f3 10 3e
       -0.13268709 0.08244626 0.03520025 0.14155257
000360 e2 16 ae 3d 1b 87 4c 3c 48 d0 4a 3e ce 4d be bd
       0.08500458 0.0124833835 0.19806015 -0.09292184
000370 14 84 01 bf ae 94 4d 3e 21 6e 34 be d2 24 b6 3d
       -0.5059216 0.20076248 -0.17620136 0.08893742
000380 86 bd 67 bd b2 64 a5 bd 9f 51 58 3e d1 3e ae bc
       -0.056577228 -0.08075847 0.21124886 -0.021270188
000390 21 b2 1f 3e 09 42 ea bd 21 a3 13 be d4 94 b7 bd
       0.15595295 -0.114383765 -0.14417697 -0.089639336
0003a0 ac b6 24 bd 4c 0c 87 3e bb 3d 44 3d 94 f8 dc bd
       -0.040213272 0.2637657 0.047910433 -0.107896
0003b0 48 9f af bc 25 7a 0b be 8d 45 80 bd 25 45 93 be
       -0.021438256 -0.13620813 -0.06263266 -0.2876369
0003c0 ae ac 5d bb 6d 4e 1f 3c 93 69 3e 3e 0c be 66 bd
       -0.003382485 0.009723288 0.18594961 -0.056333587
0003d0 6d 2a 81 3e 86 c5 93 3d a2 4c 32 be 08 ae 30 3c
       0.2522768 0.07215409 -0.17412046 0.01078368
0003e0 e3 62 d5 3d a8 a4 25 3d 75 c5 81 bc 49 7d 30 3d
       0.10419252 0.04044023 -0.015841225 0.04308823
0003f0 70 67 b8 bd 14 1b cb bd ad f5 89 bc ab f1 87 be
       -0.09004104 -0.09917274 -0.01684078 -0.26551566

actor.6.bias f4 [8]
000000 a0 21 86 3e c9 77 6a 3d eb b0 37 be d8 98 0c 3e
       0.2619753 0.057243142 -0.17938583 0.1373018
000010 9f bb a4 be d0 b0 ed ba 27 7a bd bd 33 cb 96 3e
       -0.32174394 -0.0018134359 -0.09251814 0.29451904

critic.0.weight f4 [128, 33]
000000 a1 6e 94 3e b6 41 b6 3e fc e3 54 3e eb 3d ee 3d
       0.28990653 0.35597008 0.20790094 0.11632904
000010 5d c1 78 bf 55 a7 eb 3e b3 dc ea 3d 5d 50 04 bf
       -0.9717005 0.46026102 0.11467876 -0.51685125
000020 1f dc f7 3e 46 6a 95 3f ad 13 fd bc af cf c0 bd
       0.48410127 1.1673057 -0.030893171 -0.094146125
000030 c2 19 93 be d7 ac 3d 3d ae f9 9e 3f 65 1d 87 3f
       -0.2873059 0.04630741 1.2419946 1.0555845
000040 d7 07 91 be 0c 55 a0 3d 97 ac 21 be 1b 05 d0 be
       -0.28326294 0.078287214 -0.15788494 -0.40628895
000050 26 1d 34 be 5f e5 b8 bd ef 07 31 3c d1 d0 97 3d
       -0.17589244 -0.09028124 0.010805114 0.074128754
000060 59 90 96 bd 70 fb ee bc eb 55 09 3c a2 9c 9b 3d
       -0.07351751 -0.02917263 0.008382301 0.07598235
000070 c3 bf d4 bc 8e 83 03 3c be e8 0e 3e fd a9 3c be
       -0.025970345 0.008026971 0.13955972 -0.1842422
000080 9f f1 4a 40 58 c5 2f 3e 37 f3 0a 3f 14 32 27 3e
       3.1709974 0.17165124 0.54277366 0.16327697
000090 87 ff 38 3e a0 8b 99 bd 6d 8e 50 3f 01 c7 94 3e
       0.18066226 -0.074973345 0.81467324 0.29058078
0000a0 23 9e ab be 48 df 3a 3f d9 74 b0 3f 36 54 8e be
       -0.33519086 0.7299695 1.3785659 -0.27798623
0000b0 4f 87 a2 3e 4c 2d 1f 3f 24 a1 20 bf 0c 32 e2 bd
       0.31743857 0.6217849 -0.6274588 -0.11044702
0000c0 16 04 1c 40 2c 86 49 bf 62 af e9 3c a1 a3 0e be
       2.4377494 -0.78720355 0.028526012 -0.13929607
0000d0 99 6e 45 3f f0 13 5b 3d f7 c2 c0 bd 5a 1c 2a bd
       0.77121884 0.05348581 -0.094121866 -0.041530944
0000e0 a4 21 dd 3d 44 22 82 bd 8f 99 cf bd 41 36 cb 3d
       0.10797432 -0.06354192 -0.10136711 0.099224575
0000f0 5f b3 37 3d 13 12 96 3d 83 62 6d 3b 77 d2 8f 3e
       0.044848796 0.07327666 0.0036222048 0.2809026
000100 9c ba 3e 3e 0e 84 ce bf b1 8e 1b 3f 29 2d 2c be
       0.18625873 -1.613405 0.60764605 -0.16814102
000110 9c 58 11 bd 7c 6d ea 3d d5 5b 72 3e 9c b3 b5 be
       -0.035484895 0.11446664 0.23667844 -0.35488594
000120 99 50 25 bf 29 bc f9 3e 96 fa 0d bf 64 bf 22 bf
       -0.6457611 0.48776367 -0.5546049 -0.6357329
000130 dd 1a 95 3e 5a d5 ae 3e 5c 67 d4 be ca fe 4e 3f
       0.29122058 0.3414715 -0.41485107 0.8085753
000140 1d 3c 7e 3f d0 f3 17 c0 05 66 a2 3f 78 31 a3 bc
       0.99310476 -2.3742561 1.2687384 -0.01992105
000150 6c 01 77 3e 60 f2 55 bf a0 4f c5 3f e2 69 cb 3e
       0.24121636 -0.8357296 1.5414925 0.3972922
000160 ca ea 2a 3d 85 a8 c4 bd fa b0 dd bd 18 b3 1e 3e
       0.04172782 -0.09602455 -0.10824771 0.15498006
000170 c2 85 09 3e a2 b2 82 be d4 08 ab be 00 54 22 3e
       0.13429931 -0.2552691 -0.33405173 0.15852356
000180 ad 7c 20 be 44 b2 b4 3d 09 70 47 be e6 3f 20 bf
       -0.1567256 0.08823064 -0.19476332 -0.625975
000190 ee 98 a8 3e 6f d9 01 3e 86 ea b3 be b4 b5 4f be
       0.32929176 0.126806 -0.35139865 -0.20284158
0001a0 99 fe c4 3d cf 0a 1d 3f 67 67 e5 3f ea 7d a6 be
       0.09618873 0.6134462 1.7922181 -0.3251794
0001b0 7d 47 64 3e f8 e5 25 bf a7 a6 bc 3f cd 5c 0f bf
       0.22292896 -0.6480403 1.4738358 -0.5600098
0001c0 96 3f 0c 3f 7f b7 b1 be b7 67 60 3f 4a 44 93 bf
       0.54784524 -0.3471031 0.87658256 -1.1505215
0001d0 17 41 23 3e 30 0d ab be b7 52 b9 3e 2f 49 4f bf
       0.15942799 -0.334085 0.3619592 -0.80971044
0001e0 23 c7 8f be b4 a9 e1 bc 68 15 d9 3d 4c 83 c0 3d
       -0.28081617 -0.027546741 0.10599786 0.09400043
0001f0 d4 93 11 3e 17 b4 cc bd 92 b1 85 3d 77 9a 79 3d
       0.14216548 -0.09995287 0.065280095 0.060938325
000200 53 ea 2a 3e fd 59 99 3e 76 bb 99 be 69 34 49 3f
       0.1669095 0.29951468 -0.30025834 0.78595597
000210 ea 3d 90 3e 45 69 b4 bc 1c 47 e0 bd e8 bb 44 bf
       0.28172237 -0.022022853 -0.10951063 -0.7684922
000220 90 75 99 be da 0f ed 3d 40 09 02 bf 48 dc 37 bf
       -0.29972506 0.11575289 -0.50795364 -0.718205
000230 ec cf 1f be a2 7a 05 be 89 07 e6 3e e4 df e3 bd
       -0.1560666 -0.13035062 0.44927624 -0.11126688
000240 5c 96 18 be f8 c1 a6 3d ec 3c e5 be 2c 09 3c be
       -0.14901108 0.08142465 -0.44773042 -0.18362874
000250 b0 45 b4 bd 76 15 3a bd 76 29 d3 3e f4 21 c2 be
       -0.08802354 -0.045430623 0.4124257 -0.3791653
000260 b4 0e 94 3e 1f 2f 89 3d cf 51 a8 3d 10 95 b4 bc
       0.28917468 0.06698441 0.08218729 -0.022043735
000270 9a cc 1f 3d 17 e8 5a bd 8f 1b 23 3d 61 a1 d6 bd
       0.039013483 -0.053443994 0.039821204 -0.10479999
000280 3f de ae bc 1d 3b 3c be 91 d0 ee 3e 30 1f c5 3d
       -0.02134621 -0.18381925 0.466435 0.09625089
000290 eb 17 21 be 58 2b ca bd fd 9b 90 be 76 c4 50 be
       -0.1573178 -0.098715484 -0.2824401 -0.20387444
0002a0 2a da dc be 68 1c 17 be ae 40 12 bf f2 05 d4 3c
       -0.43135196 -0.1475693 -0.57129943 0.025881741
0002b0 9f d3 f3 be 14 a6 05 3f d7 6d 83 3e be c0 8a 3e
       -0.47622392 0.5220654 0.2566974 0.27100176
0002c0 2f b4 5c 3f e0 ab df bd 19 cb 51 be 5c dc 0d bf
       0.8621244 -0.109214544 -0.20487632 -0.55414367
0002d0 c2 1c 04 bf 2d ac 0e be 0a 8c 23 3e cf b2 aa be
       -0.5160638 -0.13932867 0.1597139 -0.33339545
0002e0 ce 49 c0 3e 8b 08 c6 bc b2 21 fb 3c 40 6b 61 3d
       0.37556309 -0.024173995 0.030655716 0.055033922
0002f0 0f 94 d3 3c 49 49 b6 3c 6f 87 69 3d 8b c2 2b bd
       0.025827436 0.022251742 0.057013925 -0.041933578
000300 93 78 33 bc e2 77 8e 3c 43 12 96 3d 55 35 a6 3e
       -0.01095404 0.017391149 0.07327702 0.32462564
000310 ff 1f 49 be 34 ca a0 bd fe 46 9c 3e f8 78 05 bf
       -0.19641112 -0.07851067 0.30522913 -0.5213771
000320 94 07 76 be a7 c6 c7 be 57 e8 a3 be 8a 14 95 be
       -0.24026328 -0.39018747 -0.320132 -0.29117233
000330 30 7f 98 be 2e 3b dd bd 47 fc 70 3e 9d d3 c1 be
       -0.29784536 -0.10802303 0.23533736 -0.3785676
000340 09 7d 07 3f 2e 70 29 3f 29 a1 3d be 30 ff f5 be
       0.52925164 0.661868 -0.18518509 -0.48046255
000350 36 1f ef 3c ba 09 87 bf 25 79 5f 3f c5 46 5e bd
       0.029189687 -1.0549843 0.87294227 -0.05426671
000360 24 0e ec bb 2a c9 de 3e d1 f2 c6 3e 10 fa 8c bc
       -0.007203834 0.4351285 0.3885713 -0.017209083
000370 1e 3b e3 bd f7 6d 66 bc 36 62 2a bd 52 09 7f 3d
       -0.1109526 -0.014064304 -0.041597567 0.062264748
000380 db 23 a3 3d d4 24 cb 3d 28 3e bd bc 9e b4 3f bd
       0.07965823 0.09919134 -0.023100927 -0.04680311
000390 44 47 8d be 62 cb ac be e5 f0 ab 3e f5 67 20 be
       -0.27593434 -0.3374892 0.33582225 -0.15664656
0003a0 2e 1e 95 3e 3d 27 35 bf b5 b0 92 3f 69 9b 6f 3e
       0.29124588 -0.70763 1.1460177 0.23399128
0003b0 1f 8f b9 3f a7 b7 d7 3e 11 08 14 bf 52 12 31 be
       1.4496802 0.42132303 -0.5782481 -0.17292145
0003c0 7d d8 b1 be e9 a9 98 be 5a ef e8 be b5 12 8f bf
       -0.3473548 -0.2981713 -0.4549511 -1.1177584
0003d0 29 ff 45 3f 34 c1 07 3f e6 a9 d7 bd 39 e6 ca be
       0.7734247 0.5302918 -0.105304524 -0.3962877
0003e0 c3 1c 85 be 0d dd af be 72 66 7d bf c3 06 92 be
       -0.25998506 -0.34348336 -0.98984444 -0.28520784
0003f0 be fa ad 3e 12 70 6c bc 87 85 19 bd 39 c7 2d 3e
       0.33980364 -0.0144310165 -0.037480857 0.16970529

critic.0.bias f4 [128]
000000 5d 62 d1 be 30 42 04 bf fa 5b e8 3b e8 c1 d2 bd
       -0.40895358 -0.51663494 0.0070910426 -0.10290891
000010 3b eb 00 3f e5 70 a8 be 14 ca 0c 3e b3 e8 cd be
       0.50358933 -0.32898632 0.13748962 -0.40216598
000020 06 81 7f 3e a7 84 b7 be 68 db dd 3d fd 51 8c 3d
       0.24951562 -0.35843393 0.10832864 0.068515755
000030 74 04 da bd da f2 97 be 6a cd 19 be eb 6d fc be
       -0.106453806 -0.2967747 -0.15019765 -0.4930261
000040 45 70 88 3e c3 bb 41 be f3 42 0b be 30 e5 bb 3e
       0.26648155 -0.18919282 -0.13599758 0.36698294
000050 65 9b e0 3e ad cf 93 3d 6a ce 6d 3d 42 ea dc be
       0.43868557 0.072173454 0.05805818 -0.43147475
000060 59 ee 3c be e1 02 f9 3e 40 6b 0c be 01 b2 aa be
       -0.18450297 0.4863501 -0.13712788 -0.3333893
000070 f0 6d 32 be 53 a5 31 be 31 19 9c 3e 1f 8a d0 be
       -0.1742475 -0.17348222 0.3048797 -0.40730378
000080 59 c2 e5 be 84 ad a8 be d8 1f e3 be 21 9f cf bd
       -0.44874838 -0.32944882 -0.44360232 -0.10137773
000090 e9 67 b8 3e 80 49 47 bd 66 c1 08 3e f1 0c cb 3d
       0.36016777 -0.04865408 0.13355026 0.09914578
0000a0 40 aa 8c 3d be 54 02 bf 11 c4 97 be 15 ca eb 3c
       0.0686841 -0.50910556 -0.29641774 0.028782884
0000b0 1c 60 b0 3e 56 aa 65 bd 4d 25 05 3e d2 a2 cc be
       0.34448326 -0.056070648 0.1300251 -0.39967972
0000c0 7a e6 b9 3d 10 1b 7b be 2a 3f 6d 3e f4 31 8d bd
       0.09077163 -0.24522042 0.23168626 -0.068942934
0000d0 1f e9 a9 3d 07 06 2f bf 73 9e a6 bd 3d 50 42 bd
       0.082964174 -0.6836857 -0.081356905 -0.047439802
0000e0 9f 17 8c 3e 7c 97 fc be 59 a4 56 bd ef 31 be bd
       0.2736177 -0.49334323 -0.052402828 -0.09286868
0000f0 8b 31 82 3e 2b 85 f9 be 48 e6 e2 be 44 8c 72 3e
       0.25428423 -0.48734412 -0.44316316 0.2368632
000100 7b 6a 58 3d 9e 30 3f 3e 48 c8 08 be f4 17 e6 be
       0.052835923 0.1867089 -0.13357651 -0.4494015
000110 ff 1e aa 3d cf 5c 6f bd 54 d8 63 be a9 8f f1 bb
       0.08306693 -0.05843812 -0.22250491 -0.007371862
000120 6a 8e ed be 8c 62 56 be 54 41 ab 3e fb 27 9a be
       -0.46397716 -0.2093603 0.3344828 -0.30108628
000130 cf c4 83 be 6e e4 ce be 20 02 16 bf 73 df dd 3e
       -0.2573609 -0.40408653 -0.5859699 0.4333454
000140 44 fe c1 be 50 17 08 bd 0b ad 83 3d 2b 15 7b 3e
       -0.37889302 -0.033225358 0.0642949 0.24519794
000150 2e bc 3e 3e 2e 35 6a bc 85 fc ad be 13 68 44 3e
       0.18626472 -0.014294906 -0.3398172 0.19180326
000160 98 1b e1 3e 0f 3b d0 be 97 ef 6b 3e d6 e2 18 be
       0.43966365 -0.40670058 0.23040615 -0.14930281
000170 13 7a 1e 3e 5d 58 c7 be 62 e7 7a 3c ff bd d6 bd
       0.15476255 -0.38934603 0.015313955 -0.10485458
000180 5f df ec be f2 c4 b8 3e 0e 29 a7 be 3c 43 95 3e
       -0.4626417 0.36087757 -0.3264851 0.29152858
000190 55 2e 89 3d 57 5e da 3e 16 9c ab 3e 1b ee e5 3e
       0.0669829 0.426501 0.33517522 0.44908223
0001a0 8a d3 58 bc 3a 57 50 3e 5a e3 64 3e 41 5a 6b 3e
       -0.013234029 0.20345774 0.22352353 0.22983648
0001b0 92 26 c7 3e 59 24 19 3b 1d 17 b5 3e 2c a2 a6 bd
       0.38896614 0.0023367612 0.35369197 -0.081364006
0001c0 69 e4 73 3e 21 a8 87 be 30 5e 04 be 40 c3 ea 3c
       0.238176 -0.2649546 -0.12926555 0.028657556
0001d0 e8 95 5c 3e 48 01 78 bd d2 d5 6d be 24 33 ef be
       0.2154156 -0.060548097 -0.23226097 -0.46718705
0001e0 3e 56 af 3c 9f 23 d2 3d c4 7c 9b 3d d8 9e 0a bf
       0.021403428 0.102607004 0.075921565 -0.54148626
0001f0 91 6e 4c 3d 70 84 bb be a7 ba c8 3d 71 cd 49 3e
       0.04991013 -0.3662448 0.09801226 0.19707276
