legged_gym/logs/tron1/Mar26_09-33-42_track_3.0_feet_contact_force_-0.0035_stand_still_-1.5_base_height+0.1_feet_regulation_-0.15_track_contacts/model_400.pt (torch, 376218 bytes, 48 tensors)

std f4 [8]
0.66918445 0.5180006 0.6115034 0.52519745 0.67138 0.5114441 0.64040715 0.46967363
00000000: ac4f 2b3f b09b 043f 7d8b 1c3f 5773 063f
00000010: 8fdf 2b3f 00ee 023f b9f1 233f 1079 f03e

actor.0.weight f4 [128, 33]
-0.40105432 0.41584608 0.27682075 0.17498048 -0.057678964 0.6101236 -0.22119303 -0.3628416
0.18546464 0.37147853 -0.44255158 -0.5324478 -0.40592712 0.3387259 -0.027096896 0.36573595
-0.17761046 0.08396957 -0.066401854 -0.56788236 -0.13382404 0.080823876 -0.022130808 0.12499186
-0.015940402 -0.06427914 -0.07795702 -0.10229671 0.029310685 -0.09513667 0.31356385 -0.19038285
0.12425209 -0.0879771 -0.52988076 -0.16935505 -0.35053402 0.9556658 0.29556155 -0.9132537
-0.7668159 -0.31648052 -0.5380219 0.40473318 -0.21369444 0.21488965 0.1329731 -0.670852
-0.8308978 0.19785103 0.11933087 0.23739707 -0.10436756 -0.2866413 0.11536494 0.0016171087
-0.037641667 -0.06604853 0.10696903 -0.09562839 -0.02118686 0.097457685 0.10786996 0.058338266
0.3710482 0.18986046 -0.17864783 -0.43794435 -0.013753746 -0.56839174 -0.3691248 -0.32767892
-1.0507917 -0.3761031 0.2134104 0.07242745 0.60616255 0.54022324 0.293898 -0.53515244
-0.50818026 -0.49142075 0.15253073 0.36834908 0.18587177 0.22016764 -0.0646161 0.10484672
-0.015544486 -0.010573314 0.0252719 -0.0040814937 -0.07413487 0.009100693 -0.045900755 0.06662049
0.1000797 -0.21101652 -0.15885441 -0.4130904 -0.07928799 -0.22518675 0.13740847 0.5667051
-0.18221809 -1.1282157 -0.30635104 0.03839519 0.47651723 0.5072678 -0.49758884 0.24320796
0.04474249 -0.89584404 0.2558951 -0.14850727 0.001426086 -0.0987322 -0.07443816 0.0023842696
-0.16694923 0.17224038 0.049163688 0.07930556 -0.071267426 -0.00988109 0.013386098 -0.21499288
-0.20241104 0.24746944 -0.11169371 -0.14806868 -0.39044628 0.19102424 0.16599864 1.1073691
0.2006341 0.62205863 0.020559212 0.0969013 -0.23543742 0.47584552 0.121143416 -0.09450901
0.4614136 0.204672 -0.59457487 0.4818301 -0.2356268 -0.11257324 -0.023713134 -0.18800968
0.23037641 -0.14347368 0.021732992 0.03987588 -0.028891938 -0.06117069 -0.028000236 0.033849377
-0.12576196 -0.0903328 0.10809432 -0.08930016 -0.023010584 -0.36011413 -0.061751448 -0.1595963
-0.5396737 0.32315946 0.40808073 0.48917788 -0.22955854 0.0483468 -0.2407991 -0.4752243
0.48882937 -0.6103471 0.2079894 0.7420393 -0.37859762 0.16981144 -0.21792343 -0.47883287
-0.19479105 0.24145493 -0.32031956 -0.073817365 -0.083291575 -0.025986614 0.19430335 -0.09394225
-0.11889904 -0.1358309 -0.03354051 -0.1359818 0.18418723 0.1555477 -0.27434462 0.11441791
-0.3325441 -1.0877981 -0.13784568 0.25566125 0.38052118 -0.68333364 0.48928863 0.17449483
-0.5521194 0.29612923 0.10329663 0.22062396 0.5313408 -0.39304066 -0.06679671 0.16752411
-0.53140116 0.07353379 -0.6925634 -0.30025926 -0.067765765 -0.02788542 0.08021636 -0.07587787
-0.046339076 -0.02370832 0.020229286 0.051900018 -0.017465087 -0.16777284 -0.069054544 -0.22116104
-0.13632293 0.11052308 0.24362545 0.84138525 0.06347965 -0.8241817 -0.50606805 -0.0874275
-0.1753806 -0.3148112 -1.0249343 0.64756644 -0.685696 -0.30018124 -0.0877613 -0.25758573
0.099702746 -0.35098132 -0.2586723 0.08574145 -0.40628228 0.0035261584 -0.056160748 -0.047547743
00000000: fe56 cdbe c7e9 d43e 73bb 8d3e 152e 333e
00000010: c740 6cbd 0f31 1c3f 6d80 62be 60c6 b9be
00000020: 71ea 3d3e 6f32 be3e 1f96 e2be 804e 08bf
00000030: aed5 cfbe 7b6d ad3e 4ffa ddbc be41 bb3e
00000040: 84df 35be 3df8 ab3d b2fd 87bd bd60 11bf
00000050: 2b09 09be fd86 a53d ab4b b5bc bbfb ff3d
00000060: 7295 82bc c8a4 83bd eea7 9fbd f080 d1bd
00000070: f61c f03c 04d7 c2bd 718b a03e b9f3 42be
00000080: e177 fe3d 562d b4bd 44a6 07bf 696b 2dbe
00000090: 3279 b3be 84a6 743f d853 973e ffca 69bf
000000a0: 0c4e 44bf bc09 a2be cebb 09bf 3039 cf3e
000000b0: b7d2 5abe 080c 5c3e 1a2a 083e f5bc 2bbf
000000c0: b8b5 54bf 7699 4a3e be63 f43d 3818 733e
000000d0: a9be d5bd a6c2 92be 7444 ec3d 2af5 d33a
000000e0: 262e 1abd 7444 87bd 9412 db3d d1d8 c3bd
000000f0: 1190 adbc e597 c73d edea dc3d 1bf4 6e3d
00000100: 08fa bd3e c86a 423e 75ef 36be 3e3a e0be
00000110: 6457 61bc 1f82 11bf edfd bcbe 88c5 a7be
00000120: 5880 86bf 9690 c0be 4288 5a3e d854 943d
00000130: 782d 1b3f 124c 0a3f cc79 963e c0ff 08bf
00000140: 1a18 02bf 809b fbbe 0431 1c3e 4098 bc3e
00000150: 2b55 3e3e a073 613e 7255 84bd e1b9 d63d
00000160: 4dae 7ebc b13b 2dbc 0407 cf3c 0dbe 85bb
00000170: 06d4 97bd 131b 153c 6e02 3cbd 5370 883d
00000180: 96f6 cc3d b714 58be bbaa 22be 9680 d3be
00000190: be61 a2bd 5b97 66be ceb4 0c3e 9613 113f
000001a0: 6197 3abe 5f69 90bf 0bda 9cbe 4644 1d3d
000001b0: 11fa f33e 4ddc 013f f7c3 febe 820b 793e
000001c0: e743 373d 0956 65bf af04 833e 4a12 18be
000001d0: 81eb ba3a 1c34 cabd 0973 98bd 6841 1c3b
000001e0: bdf4 2abe c85f 303e dd5f 493d f46a a23d
000001f0: a8f4 91bd 4ce4 21bc 5d51 5b3c 1827 5cbe
00000200: d744 4fbe a168 7d3e acbf e4bd 519f 17be
00000210: 93e8 c7be dc9b 433e 8cfb 293e 45be 8d3f
00000220: 0773 4d3e 3c3f 1f3f cb6b a83c 3074 c63d
00000230: 8216 71be 06a2 f33e 0a1a f83d f18d c1bd
00000240: 673e ec3e 8995 513e 0f36 18bf 6fb2 f63e
00000250: 2748 71be cd8c e6bd 0c42 c2bc 9c85 40be
00000260: cbe7 6b3e c4ea 12be 6309 b23c e454 233d
00000270: c9ae ecbc 1e8e 7abd c060 e5bc a5a5 0a3d
00000280: bec7 00be 6700 b9bd 8e60 dd3d 01e3 b6bd
00000290: b180 bcbc e160 b8be 16ef 7cbd 366d 23be
000002a0: 0e28 0abf 2875 a53e f5ef d03e 8675 fa3e
000002b0: 6511 6bbe 4b07 463d 0a94 76be 9950 f3be
000002c0: d847 fa3e b53f 1cbf 2cfb 543e 4af6 3d3f
000002d0: 8cd7 c1be 0de3 2d3e 5227 5fbe 9529 f5be
000002e0: 4e77 47be f63f 773e ed00 a4be 8f2d 97bd
000002f0: c694 aabd e1e1 d4bc 75f7 463e cb64 c0bd
00000300: 5781 f3bd 4117 0bbe c661 09bd d03e 0bbe
00000310: 949b 3c3e e547 1f3e e676 8cbe f053 ea3d
00000320: 3843 aabe f83c 8bbf 6b27 0dbe 08e6 823e
00000330: acd3 c23e f4ee 2ebf 0a84 fa3e c6ae 323e
00000340: b257 0dbf 409e 973e 2f8d d33d 3feb 613e
00000350: f305 083f a03c c9be b7cc 88bd 718b 2b3e
00000360: e809 08bf e298 963d d64b 31bf 95bb 99be
00000370: c7c8 8abd f76f e4bc 7a48 a43d db65 9bbd
00000380: 0bce 3dbd f337 c2bc e3b7 a53c 1d95 543d
00000390: f112 8fbc a5cc 2bbe 786c 8dbd 0a78 62be
000003a0: 3d98 0bbe ed59 e23d f378 793e 0665 573f
000003b0: 9e01 823d 92fd 52bf ad8d 01bf 300d b3bd
000003c0: f996 33be ef2e a1be 0c31 83bf eac6 253f
000003d0: c689 2fbf 5bb1 99be 32bc b3bd 47e2 83be
000003e0: f430 cc3d d3b3 b3be b270 84be 3799 af3d
000003f0: 3b04 d0be 1f17 673b d008 66bd 6cc1 42bd

actor.0.bias f4 [128]
-0.1727138 0.07119281 0.19339356 0.0706772 0.120181784 -0.182478 -0.070326366 0.114621095
-0.10660046 -0.007208607 0.0068580024 0.14381193 -0.10952911 0.11682848 0.026125694 -0.12140745
-0.017605683 -0.07071661 -0.064632125 0.11478115 -0.026317814 0.03117923 0.20454477 0.121417
-0.21362223 -0.044236887 -0.1644938 -0.21940495 -0.024386182 0.06727811 0.15135495 0.2433989
-0.23890707 0.06802534 -0.022512909 -0.028789276 0.03312449 -0.063670516 -0.021029765 0.08575003
0.28756565 -0.19971344 -0.0693806 -0.06255208 0.2100586 0.11710495 -0.014740942 0.14382946
0.19349216 -0.14240645 -0.029679492 0.12270201 0.01692955 0.17102334 -0.014762777 -0.120410286
-0.05473243 -0.182035 -0.02276454 -0.13473195 -0.05505478 0.06158936 -0.21929424 -0.06438864
-0.15688686 0.0336287 0.07895668 0.07864944 0.18582834 -0.015848208 0.082847565 -0.1872393
0.025548348 -0.19829568 -0.06885994 -0.2969923 0.011993473 0.11120426 -0.11322441 -0.15868028
-0.054953475 0.083691664 -0.007890412 -0.07224544 -0.21962412 0.0322802 -0.04148015 -0.15569231
-0.10031012 -0.15901595 -0.06115312 0.17721315 -0.03827132 -0.2320403 0.13268511 0.03966151
-0.0025628041 -0.05172259 -0.28287283 -0.05922793 0.053474415 0.003626714 -0.15605277 0.0063052527
0.18010394 0.124022275 -0.033791743 0.070955314 0.057646487 0.032858193 -0.10512242 -0.07686924
-0.2429261 -0.04424988 0.055600647 0.22575076 -0.2243394 -0.06880932 -0.2196949 -0.010367973
0.05745386 0.06521384 -0.16355908 -0.15048344 -0.07192826 0.067313164 0.030847479 0.05234866
00000000: e3db 30be 89cd 913d f608 463e 35bf 903d
00000010: de21 f63d 83db 3abe 4507 90bd 77be ea3d
00000020: 5851 dabd 2e36 ecbb 18b9 e03b 6f43 133e
00000030: cc50 e0bd c543 ef3d 8d05 d63c 78a4 f8bd
00000040: cb39 90bc dfd3 90bd d95d 84bd 6112 eb3d
00000050: 7598 d7bc 966b ff3c 2f74 513e 7aa9 f83d
00000060: c9bf 5abe bd31 35bd 1071 28be b1ab 60be
00000070: 88c5 c7bc 1bc9 893d cbfc 1a3e 903d 793e
00000080: 0ea4 74be df50 8b3d fe6c b8bc 7dd7 ebbc
00000090: 8cad 073d b065 82bd 9d46 acbc b69d af3d
000000a0: ce3b 933e ae81 4cbe 6a17 8ebd 4e1b 80bd
000000b0: 9a19 573e b8d4 ef3d fe83 71bc 0848 133e
000000c0: cf22 463e ffd2 11be 6822 f3bc 314b fb3d
000000d0: d7af 8a3c be20 2f3e 93df 71bc ab99 f6bd
000000e0: 1d2f 60bd 6267 3abe b37c babc 2cf7 09be
000000f0: 1f81 61bd 2045 7c3d ab8e 60be 31de 83bd
00000100: f3a6 20be 3fbe 093d 0ab4 a13d f512 a13d
00000110: c949 3e3e 1ad4 81bc fcab a93d a9bb 3fbe
00000120: c54a d13c 060e 4bbe 7106 8dbd 600f 98be
00000130: 4680 443c 0fbf e33d 33e2 e7bd 157d 22be
00000140: e516 61bd 8966 ab3d c946 01bc 6bf5 93bd
00000150: 25e5 60be 3e38 043d 17e7 29bd ce6d 1fbe
00000160: 646f cdbd 14d5 22be b27b 7abd 5d77 353e
00000170: 63c2 1cbd f99b 6dbe 9bde 073e 1c74 223d
00000180: b8f4 27bb 11db 53bd b5d4 90be fc98 72bd
00000190: fd07 5b3d 2aae 6d3b 4ccc 1fbe 4b9c ce3b
000001a0: 2b6d 383e 64ff fd3d 3669 0abd 0551 913d
000001b0: b91e 6c3d 5096 063d 6c4a d7bd 9f6d 9dbd
000001c0: 9fc1 78be 5d3f 35bd 81bd 633d 352b 673e
000001d0: 3ab9 65be e7eb 8cbd b3f7 60be 6ede 29bc
000001e0: bd54 6b3d d58e 853d 087c 27be 5518 1abe
000001f0: 204f 93bd 7cdb 893d dab3 fc3c 8c6b 563d

actor.2.weight f4 [64, 128]
0.15131922 -0.11256572 -0.09289163 0.15790522 0.21773003 -0.16010827 -0.410235 0.24179022
0.1544069 -0.15932743 0.015440033 -0.07778974 -0.11670811 0.3699339 -0.066716164 0.1615926
-0.0012146753 0.35020044 0.04838213 0.19861214 -0.02037867 0.047635607 0.073594145 -0.13067482
-0.07466624 0.39783692 -0.35672522 0.043293 -0.06478548 0.116488434 0.20348266 0.15948665
-0.057091333 -0.21426442 -0.037149552 0.034472775 0.046802983 0.40916353 -0.03126753 -0.38608173
0.5023128 -0.19099404 0.29505065 0.41479227 0.19443855 -0.031133588 0.025956437 0.105855025
0.37632793 0.20390405 0.13164806 0.10712011 -0.05557493 0.10735227 0.0014539263 -0.111775525
-0.056989513 0.021910515 0.054670412 -0.22061962 -0.03573174 -0.35903275 -0.38977593 -0.039072167
0.09687196 0.4608016 -0.27974972 0.072466955 0.1055777 -0.20948422 -0.22049275 0.06150306
-0.115262195 0.44622555 -0.12865576 -0.022681806 -0.23643671 0.15181944 -0.12417428 -0.17149837
-0.086934954 -0.21922003 0.14575288 0.024271209 -0.12656899 -0.20451544 -0.20946765 0.062206957
0.08353857 -0.084895976 -0.32058284 -0.06834324 0.038770728 0.32538235 -0.20805857 0.26178563
0.25102058 -0.25718057 0.04225041 -0.081942014 0.19112754 0.31582382 0.015163223 -0.2512153
-0.042727817 0.38966286 0.099113114 0.020779625 -0.08610927 -0.20961198 -0.08524967 -0.05031864
0.063543804 -0.21298426 -0.044257447 -0.006651255 -0.3416353 -0.18429974 0.13339552 0.16746406
-0.1797025 0.0018613792 0.06690356 -0.21130398 0.07720579 0.17776343 0.01759494 -0.2625265
0.024233175 -0.033573274 0.28434673 0.12198105 0.045302592 0.011776286 0.08128252 -0.070191234
0.07701113 0.13861464 -0.08041055 -0.3309534 0.15545733 -0.5686142 0.13009575 0.100410685
-0.0032382314 -0.24821514 0.03466639 -0.114091784 0.08636904 -0.3166011 -0.09378667 0.036703967
0.15788692 -0.24992049 0.18922988 0.050003123 0.0051151747 -0.4325327 -0.17664932 -0.08013487
-0.02050756 -0.2842011 0.113989234 0.041071177 0.20019242 0.0956374 -0.011284771 -0.007271428
0.189145 -0.3102171 0.14277616 -0.59029126 0.017229198 0.027548583 0.10768984 -0.33927247
-0.1932575 -0.043860458 -0.067231454 -0.095820285 -0.695832 -0.30961174 -0.21039249 -0.1896618
-0.09702966 0.4411361 -0.04119726 -0.11242745 0.12412476 0.028275618 0.16222331 0.18681835
-0.24347506 -0.18617314 0.5129664 -0.3281261 0.39264202 -0.1930636 -0.04509133 -0.29967195
-0.26926205 -0.0024593135 0.15520048 0.11269253 0.061742473 -0.07516726 0.3488148 -0.0016393856
0.013399997 -0.22433515 0.110779226 0.1277507 -0.007790513 0.2654308 -0.0858365 -0.4722892
-0.037229124 0.27149206 -0.04346126 0.000732279 0.131504 0.065225996 0.001704629 -0.05810341
-0.09340823 0.051801953 0.060548767 0.33009434 -0.1789553 -0.037045576 0.20852041 -0.13580768
0.035746563 0.16953568 0.09539608 -0.009737046 -0.05362568 0.0010694438 0.12297919 -0.25553733
-0.2064745 -0.1806311 0.43008822 -0.09786334 -0.2607126 -0.040867653 0.25585103 -0.04854682
-0.06095767 0.15190402 0.17539173 0.16079973 -0.042004034 0.042763457 -0.0894273 -0.020652963
00000000: 6df3 1a3e db88 e6bd f83d bebd e8b1 213e
00000010: 9ff4 5e3e 6cf3 23be 520a d2be db97 773e
00000020: d81c 1e3e bb26 23be 31f8 7c3c 3a50 9fbd
00000030: a904 efbd fa67 bd3e 7ca2 88bd 8878 253e
00000040: bd35 9fba 794d b33e 572c 463d fb60 4b3e
00000050: 2bf1 a6bc 8e1d 433d 87b8 963d 9fcf 05be
00000060: 9dea 98bd 48b1 cb3e b0a4 b6be 0054 313d
00000070: 40ae 84bd 7d91 ee3d c25d 503e 7850 233e
00000080: 9ad8 69bd 2268 5bbe 212a 18bd 5333 0d3d
00000090: 7cb4 3f3d e27d d13e 6212 00bd 81ac c5be
000000a0: 9297 003f f193 43be e110 973e a75f d43e
000000b0: e61a 473e de0b ffbc 98a2 d43c 85ca d83d
000000c0: 0eae c03e 39cc 503e c0ce 063e ca61 db3d
000000d0: 8aa2 63bd 82db db3d ac91 be3a 91ea e4bd
000000e0: d66d 69bd ae7d b33c 15ee 5f3d 1cea 61be
000000f0: 725b 12bd 24d3 b7be b690 c7be 230a 20bd
00000100: ce64 c63d 30ee eb3e 5b3b 8fbe 8e69 943d
00000110: 1f39 d83d 0883 56be dac8 61be a2ea 7b3d
00000120: 960e ecbd ad77 e43e 56be 03be 32cf b9bc
00000130: 771c 72be 8e76 1b3e 164f febd 459d 2fbe
00000140: f40a b2bd 377b 60be 3e40 153e 6ad4 c63c
00000150: 4d9b 01be 7f6c 51be b07e 56be b9cc 7e3d
00000160: 4516 ab3d f1dd adbd 6f23 a4be 8af7 8bbd
00000170: 0ece 1e3d 8498 a63e 4e0d 55be c408 863e
00000180: c585 803e 2cad 83be c40e 2d3d 37d1 a7bd
00000190: f0b6 433e a9b3 a13e 2b6f 783c 4b9f 80be
000001a0: 5d03 2fbd e481 c73e d1fb ca3d 083a aa3c
000001b0: 0f5a b0bd 86a4 56be 6197 aebd eb1a 4ebd
000001c0: 4123 823d 8c18 5abe 4c47 35bd c5f2 d9bb
000001d0: d2ea aebe 12b9 3cbe d698 083e b37b 2b3e
000001e0: ef03 38be 86f9 f33a bc04 893d 1260 58be
000001f0: 121e 9e3d 9e07 363e 4323 903c e069 86be
00000200: a784 c63c 2184 09bd e595 913e 33d1 f93d
00000210: 368f 393d 53f1 403c 7377 a63d 6cc0 8fbd
00000220: 03b8 9d3d fff0 0d3e 49ae a4bd b972 a9be
00000230: 3530 1f3e b390 11bf d237 053e 1ea4 cd3d
00000240: 8238 54bb 1c2c 7ebe 58fe 0d3d f4a8 e9bd
00000250: 40e2 b03d 8a19 a2be 3a13 c0bd e656 163d
00000260: 1cad 213e 28eb 7fbe 7ac5 413e 13d0 4c3d
00000270: 329d a73b ed74 ddbe 8fe3 34be c01d a4bd
00000280: 78ff a7bc ce82 91be 3073 e93d 403a 283d
00000290: 3eff 4c3e 8bdd c33d c3e3 38bc 2945 eebb
000002a0: 3aaf 413e c7d4 9ebe ea33 123e 541d 17bf
000002b0: 3f24 8d3c 91ad e13c 7e8c dc3d 1fb5 adbe
000002c0: 4be5 45be 06a7 33bd a5b0 89bd 6d3d c4bd
000002d0: 0c22 32bf 6e85 9ebe 2171 57be b436 42be
000002e0: 7db7 c6bd 97dc e13e 75be 28bd 5d40 e6bd
000002f0: 1f35 fe3d 45a2 e73c de1d 263e 4f4d 3f3e
00000300: 8751 79be 2ca4 3ebe c451 033f 2500 a8be
00000310: 6008 c93e 77b2 45be b0b1 38bd 9a6e 99be
00000320: b7dc 89be 6f2c 21bb e0ec 1e3e 57cb e63d
00000330: ade5 7c3d 4bf1 99bd da97 b23e a7e0 d6ba
00000340: a98b 5b3c 1db8 65be 38e0 e23d 14d1 023e
00000350: 8f47 ffbb 8ce6 873e 0ccb afbd e4cf f1be
00000360: 917d 18bd 0201 8b3e 6f04 32bd 69f6 3f3a
00000370: fca8 063e 3595 853d dc6d df3a d7fd 6dbd
00000380: d04c bfbd 492e 543d fc01 783d 2002 a93e
00000390: 0f40 37be 1abd 17bd 6086 553e 2b11 0bbe
000003a0: fd6a 123d c39a 2d3e 055f c33d 2288 1fbc
000003b0: 9aa6 5bbd 942c 8c3a 83dc fb3d cad5 82be
000003c0: 0d6e 53be 5cf7 38be 8634 dc3e 936c c8bd
000003d0: 1f7c 85be d764 27bd e8fe 823e 08d9 46bd
000003e0: c0ae 79bd ba8c 1b3e e499 333e afa8 243e
000003f0: 6c0c 2cbd bc28 2f3d a925 b7bd 6730 a9bc

actor.2.bias f4 [64]
0.06934556 -0.11333901 -0.16673756 -0.038628004 -0.32952327 0.020953596 0.031372994 -0.0025822448
-0.054543152 -0.04608051 -0.26163086 -0.1933498 -0.116879195 -0.040270083 -0.12289203 -0.19969383
-0.077429935 -0.23908892 -0.22736508 -0.12818646 -0.15470976 -0.10116151 0.061306115 -0.21685088
-0.30629128 -0.10941637 -0.089828335 -0.1758262 -0.19920556 -0.3926857 -0.34784168 -0.2503119
-0.021048607 -0.27027583 -0.09453405 -0.03600122 0.07402813 -0.097058915 0.077703156 -0.12291033
-0.35614493 -0.20637819 -0.13473368 -0.29046783 -0.14726637 -0.1540565 -0.122630015 -0.072199024
-0.3332527 -0.099452876 0.07291425 -0.020981526 -0.2047829 -0.0008190291 0.068716526 0.00073720806
-0.27662858 -0.19351143 -0.0762217 -0.24081908 -0.014045875 -0.23820993 -0.3967421 -0.09858217
00000000: 0c05 8e3d 481e e8bd 40bd 2abe 6638 1ebd
00000010: 46b7 a8be e0a6 ab3c f880 003d e13a 29bb
00000020: a468 5fbd ebbe 3cbd 7bf4 85be 7dfd 45be
00000030: 5c5e efbd 3ef2 24bd d1ae fbbd 8a7c 4cbe
00000040: 9693 9ebd bad3 74be 64d2 68be 5043 03be
00000050: 3c6c 1ebe c42d cfbd 1f1c 7b3d 280e 5ebe
00000060: 36d2 9cbe b115 e0bd ebf7 b7bd c90b 34be
00000070: 8bfc 4bbe 1a0e c9be 4e18 b2be e228 80be
00000080: 216e acbc 9861 8abe 119b c1bd 0476 13bd
00000090: 0f9c 973d d3c6 c6bd d522 9f3d 69b8 fbbd
000000a0: a158 b6be ce54 53be a0f7 09be 33b8 94be
000000b0: ffcc 16be fdc0 1dbe 7225 fbbd 15dd 93bd
000000c0: 19a0 aabe f3ad cbbd 1154 953d 73e1 abbc
000000d0: 9cb2 51be 1db4 56ba 40bb 8c3d 3241 413a
000000e0: 43a2 8dbe dc27 46be 1f1a 9cbd 4799 76be
000000f0: ab20 66bc 4eed 73be c821 cbbe 73e5 c9bd

actor.4.weight f4 [32, 64]
0.05245212 0.05803217 -0.06932973 -0.045931898 -0.11878141 -0.14398052 -0.19731452 -0.13291138
-0.11660814 0.07670861 -0.0058099437 -0.16784497 0.31294408 -0.20005687 -0.10822542 -0.378319
0.18064292 0.05738273 -0.01417088 -0.19192123 0.21435665 -0.1666566 -0.04112455 0.40824556
0.2345864 -0.0039357813 0.01989667 -0.21804802 0.027468486 -0.16962354 0.03322999 -0.26699537
-0.2366873 0.06910849 -0.11718425 -0.07522219 -0.13597468 -0.033186257 0.033129644 -0.19870661
-0.19227767 -0.058129147 0.116726585 -0.049753916 0.018453099 -0.11087124 0.030587636 0.11765994
0.008322771 0.02469991 -0.24529895 0.1000378 0.16626363 0.06548016 -0.14207846 0.12290287
0.06329163 0.14195757 0.15158129 0.106836446 -0.16063759 0.051476404 -0.09465256 -0.087834485
-0.107725345 0.1351847 -0.020864712 0.009203321 0.20174088 0.021932162 0.05838662 0.06742825
-0.06976498 -0.035864256 -0.048954144 -0.080207795 0.22288918 -0.010721012 0.08530714 -0.12891893
-0.19259906 0.19262752 -0.04939193 -0.0031031547 -0.011120362 0.05167672 0.06453035 0.044441525
-0.10780419 0.045705166 -0.13963228 0.040406685 0.07741033 0.033476405 -0.539525 0.08413644
-0.025851337 0.21298112 -0.17261294 -0.31144586 0.12652847 0.13305874 0.029128667 -0.112897255
-0.11352771 0.16890335 -0.0634296 -0.34062085 -0.029755892 0.046692897 0.05846947 -0.20940416
0.013225956 -0.028886212 -0.14750835 -0.027644636 -0.09378611 -0.11140864 0.062374637 0.042633615
-0.23265806 -0.1122396 -0.12097254 -0.058833767 0.1714222 0.013539089 0.11846955 -0.092919976
0.04260459 -0.1549032 -0.13991724 0.09807137 0.20464104 -0.28002205 0.11747163 -0.21098441
0.17769672 0.18232971 0.08936122 0.24216846 -0.006451148 -0.022480853 -0.17983203 0.04442422
-0.26418433 -0.0938718 0.17008948 -0.08120533 -0.11014453 -0.026158588 -0.09495049 0.020749724
-0.094188124 -0.14634465 0.0032513074 -0.17769851 -0.26094243 0.05019939 0.12046287 -0.022027122
0.10700696 0.14492384 0.10335411 0.10132636 0.15787816 0.15332279 -0.24723348 0.03649237
0.12758951 -0.13706464 -0.108654246 -0.28383344 0.10165119 0.453942 -0.25342995 -0.16212259
-0.04325959 -0.06679625 0.11065615 -0.14580628 -0.023499545 0.11775886 0.08232609 0.10027862
-0.1040039 -0.13156104 -0.19641276 0.086936146 -0.2247392 0.42901057 0.2234425 0.2842106
-0.12028196 0.23821473 -0.005790913 0.01777518 -0.1474218 0.2021634 -0.24198796 -0.077436075
-0.0758051 -0.15074277 -0.0885654 -0.005993571 0.007195418 -0.11027281 -0.058376297 0.03583177
-0.25331682 0.019098934 0.045299295 -0.20478566 0.081226215 -0.007932014 -0.05726136 0.26340047
0.04431648 -0.33902857 -0.12779132 -0.263498 -0.1155983 -0.030903576 0.3194587 -0.1705703
0.06268535 0.017628795 0.042847212 -0.010606532 -0.31584248 -0.2067513 -0.010199148 0.2834828
-0.120379664 -0.105506495 -0.15986355 0.18196286 -0.006495214 -0.22121705 -0.27297646 0.017166473
0.009641209 0.09239577 0.08439075 0.044622637 0.21993984 -0.31298822 -0.38433552 0.007096637
0.1358185 0.115587346 0.20815799 0.106833756 -0.112089016 -0.19239548 0.064807065 0.121333115
00000000: 09d8 563d 24b3 6d3d bffc 8dbd 1623 3cbd
00000010: ab43 f3bd a16f 13be d10c 4abe ec19 08be
00000020: 40d0 eebd 6719 9d3d 5761 bebb 8ddf 2bbe
00000030: 353a a03e b5db 4cbe 4aa5 ddbd 07b3 c1be
00000040: 75fa 383e 270a 6b3d fb2c 68bc 0087 44be
00000050: 4f80 5b3e 07a8 2abe 3772 28bd 9005 d13e
00000060: 6b37 703e baf7 80bb 57fe a23c fb47 5fbe
00000070: 9705 e13c cbb1 2dbe 2c1c 083d 9eb3 88be
00000080: 285e 72be c188 8d3d 4cfe efbd 170e 9abd
00000090: f23c 0bbe 50ee 07bd f3b2 073d bf79 4bbe
000000a0: 70e4 44be d418 6ebd 590e ef3d c3ca 4bbd
000000b0: f42a 973c 7610 e3bd ec92 fa3c b2f7 f03d
000000c0: 3b5c 083c 7757 ca3c a62f 7bbe 9ee0 cc3d
000000d0: 0341 2a3e 761a 863d 047d 11be 80b4 fb3d
000000e0: 0b9f 813d 535d 113e 2038 1b3e 11cd da3d
000000f0: 2e7e 24be ecd8 523d 34d9 c1bd 91e2 b3bd
00000100: 1b9f dcbd dc6d 0a3e 79ec aabc 87c9 163c
00000110: 2995 4e3e 14ab b33c cf26 6f3d d317 8a3d
00000120: f1e0 8ebd 66e6 12bd 2484 48bd fc43 a4bd
00000130: 103d 643e 2fa7 2fbc 83b5 ae3d 5303 04be
00000140: b038 45be 2640 453e 314f 4abd 4c5e 4bbb
00000150: 2e32 36bc f8aa 533d 7d28 843d 5108 363d
00000160: 71c8 dcbd 5735 3b3d c4fb 0ebe 7b81 253d
00000170: 4f89 9e3d 8e1e 093d 4f1e 0abf ba4f ac3d
00000180: 2fc6 d3bc b917 5a3e 72c1 30be d575 9fbe
00000190: ae90 013e 8d40 083e 3e9f ee3c ad36 e7bd
000001a0: 3781 e8bd 00f5 2c3e 61e7 81bd db65 aebe
000001b0: a1c2 f3bc 0d41 3f3d af7d 6f3d 0b6e 56be
000001c0: aeb1 583c c7a2 ecbc 6e0c 17be 0177 e2bc
000001d0: ef12 c0bd 372a e4bd 8c7c 7f3d 96a0 2e3d
000001e0: ea3d 6ebe e0dd e5bd 73c0 f7bd adfb 70bd
000001f0: 4d89 2f3e 0ed3 5d3c 2aa0 f23d d44c bebd
00000200: 2782 2e3d f29e 1ebe 7746 0fbe a4d9 c83d
00000210: 6c8d 513e 0d5f 8fbe f794 f03d 4c0c 58be
00000220: 21f6 353e a4b4 3a3e 0403 b73d 02fb 773e
00000230: 2764 d3bb c429 b8bc e325 38be 2cf6 353d
00000240: 2b43 87be dc3f c0bd f02b 2e3e fb4e a6bd
00000250: 7593 e1bd 894a d6bc 6775 c2bd 53fb a93c
00000260: b4e5 c0bd 5fdb 15be e313 553b 99f6 35be
00000270: 3f9a 85be e09d 4d3d 3db5 f63d 3972 b4bc
00000280: 7726 db3d ea66 143e 52ab d33d 3284 cf3d
00000290: d0aa 213e a600 1d3e c62a 7dbe 0679 153d
000002a0: d3a6 023e ac5a 0cbe 1e86 debd 9e52 91be
000002b0: 802e d03d 166b e83e 92c1 81be 7703 26be
000002c0: f830 31bd 79cc 88bd b19f e23d 3e4e 15be
000002d0: 1e82 c0bc 8f2b f13d 959a a83d e15e cd3d
000002e0: ffff d4bd f0b7 06be 6d20 49be 940b b23d
000002f0: 0822 66be 46a7 db3e 1cce 643e 0d84 913e
00000300: 6356 f6bd 90ee 733e b3c1 bdbb 419d 913c
00000310: bef5 16be ec03 4f3e b1cb 77be ce96 9ebd
00000320: b43f 9bbd 505c 1abe c761 b5bd b865 c4bb
00000330: 8ac7 eb3b b6d6 e1bd fc1b 6fbd 56c4 123d
00000340: beb2 81be 5e75 9c3c c18b 393d 55b3 51be
00000350: ee59 a63d 47f5 01bc e38a 6abd 6ddc 863e
00000360: 3385 353d 2795 adbe badb 02be 36e9 86be
00000370: cdbe ecbd 7f29 fdbc 1790 a33e fba9 2ebe
00000380: 2d61 803d 436a 903c 8f80 2f3d 05c7 2dbc
00000390: 1bb6 a1be 9db6 53be 541a 27bc a824 913e
000003a0: 9d89 f6bd ca13 d8bd 45b3 23be 7954 3a3e
000003b0: ced5 d4bb b986 62be 92c3 8bbe b4a0 8c3c
000003c0: 29f6 1d3c fe39 bd3d 0fd5 ac3d 3ac6 363d
000003d0: e937 613e fe3f a0be a0c7 c4be e88a e83b
000003e0: 0114 0b3e 0fb9 ec3d 5e27 553e a8cb da3d
000003f0: ed8e e5bd 5203 45be 91b9 843d 7f7d f83d

actor.4.bias f4 [32]
-0.057565343 -0.016578922 -0.29662874 -0.14858766 0.0041946536 -0.218507 -0.02034155 -0.24599038
-0.15329415 -0.18365543 -0.28264037 -0.18490762 -0.5227922 0.0117956465 -0.120959245 -0.30197927
0.10288548 -0.17778188 -0.27851677 0.025362976 0.094131134 -0.14417125 2.5443984e-05 -0.021643545
0.06896467 -0.4037458 0.112579904 -0.44234186 -0.13982257 -0.32360828 0.020933377 -0.3602665
00000000: a3c9 6bbd 85d0 87bc b9df 97be 5d27 18be
00000010: 4e73 893b 4dc0 5fbe 52a3 a6bc e7e4 7bbe
00000020: 24f9 1cbe 2b10 3cbe 3db6 90be 6c58 3dbe
00000030: b6d5 05bf 8742 413c 7bb9 f7bd 079d 9abe
00000040: 9fb5 d23d 740c 36be c099 8ebe 04c6 cf3c
00000050: d3c7 c03d a1a1 13be 8a70 d537 ce4d b1bc
00000060: 593d 8d3d c5b7 cebe 4b90 e63d a27a e2be
00000070: a62d 0fbe fcaf a5be 797c ab3c da74 b8be

actor.6.weight f4 [8, 32]
0.053018063 0.096086815 -0.24888766 0.053588923 0.05087922 -0.109255135 -0.0991127 -0.15536125
-0.120966114 0.08625371 -0.05618178 0.082658514 -0.3481652 0.16211385 -0.031162493 -0.01215175
0.24490222 -0.19650193 -0.07346213 0.060932778 -0.13600859 -0.14863922 0.22291254 -0.114975974
0.18530679 -0.26975194 -0.20174092 -0.19448626 0.16554143 -0.27939257 0.08962735 -0.34887093
-0.16904187 -0.02437729 -0.022803186 -0.11092908 0.11564564 0.047882665 -0.10023587 0.07097525
0.18664204 -0.1050975 -0.07305843 0.0069855293 -0.19186194 0.037881456 0.019513031 -0.09966203
0.28798047 0.10944184 -0.25078624 -0.0021935164 0.2602195 0.31286946 -0.08209656 -0.21240474
-0.12683536 0.18106931 0.06391613 -0.111397006 -0.044422157 0.24985507 0.030364735 -0.07671743
0.09957901 -0.13179821 0.23019943 -0.013807442 0.026951807 -0.04353346 -0.016407123 0.046925575
-0.12594125 -0.19523248 -0.25139943 0.10709139 -0.05164548 -0.1647439 0.12871985 -0.006475915
-0.07157102 -0.112536795 -0.044069372 0.39716214 -0.13221774 -0.013683608 -0.030998314 -0.216205
-0.09183022 0.029251674 -0.36657783 0.029248102 0.17606601 0.041341446 -0.30568582 -0.0054237726
0.032843314 -0.060740132 0.010561851 0.20029044 -0.16494356 -0.08158591 0.2812941 0.29424107
0.20116019 0.098771125 -0.24768223 0.1090839 -0.0523807 -0.0028303782 -0.030506903 -0.37865975
-0.005308874 -0.1266103 -0.014674174 -0.12994589 -0.016066685 0.10853659 0.009675334 -0.09008537
-0.04030433 -0.1017396 -0.10625333 -0.18805736 0.023490118 -0.024942324 0.03862034 0.052909743
-0.058363523 0.17712285 0.13711904 -0.0055978564 -0.34456193 -0.06843146 -0.048822 0.02156674
0.12268181 0.083756864 0.33235738 0.10706426 0.14219111 -0.19234118 -0.051979452 0.0748454
-0.027761748 0.19691016 -0.03367192 -0.25892824 -0.016337864 0.09405586 -0.10460891 0.14044419
0.15933827 0.29578492 -0.2363364 0.024522984 -0.06362957 0.09158979 0.17670721 0.18058836
0.102242894 -0.035533153 -0.0781574 0.18611234 0.16798116 0.14354707 -0.06123585 -0.023453765
0.04349714 -0.08695085 -0.21656087 0.02076935 -0.23980334 0.11850322 0.097622044 0.1065623
-0.18968141 0.14990401 0.183946 -0.0791588 0.22245425 -0.2396874 -0.24298708 -0.15997492
0.0061348765 0.22042297 -0.06636174 0.017582828 -0.022032058 0.2536583 0.033311017 -0.06520481
0.124891244 0.07860246 0.17479654 -0.1542719 -0.0203058 -0.09796195 0.06478784 0.21305132
0.028770579 -0.17811927 0.17791386 -0.3111362 -0.04621377 -0.2681585 0.3405952 0.101893045
0.04239577 -0.011778058 -0.0084273 -0.047148854 -0.10200359 0.013737789 0.00371758 0.17362179
0.107533604 -0.09393909 0.28913176 -0.058002964 -0.21501856 0.2867832 -0.10627536 0.031045657
0.01025402 -0.057824444 0.17751989 0.03756904 0.18159896 -0.06597504 -0.1359246 -0.119664796
-0.06329892 0.28657016 -0.027253535 -0.023967579 0.007676997 -0.20474671 -0.03656486 -0.3366768
0.062044337 0.033969864 0.100597665 -0.13286282 0.26895863 0.06346024 -0.16722693 -0.1341162
0.10556324 0.037174027 0.015402651 -0.04196735 -0.065942906 -0.10744851 -0.005179286 -0.20946823
00000000: 7829 593d 2ac9 c43d 68dc 7ebe 0f80 5b3d
00000010: bb66 503d 28c1 dfbd 99fb cabd 0517 1fbe
00000020: 15bd f7bd c9a5 b03d de1e 66bd de48 a93d
00000030: b642 b2be 2c01 263e 7c48 ffbc 2218 47bc
00000040: a6c7 7a3e cd37 49be 5073 96bd a694 793d
00000050: d645 0bbe e134 18be 2f43 643e 8678 ebbd
00000060: 10c1 3d3e ed1c 8abe 2c95 4ebe 6827 47be
00000070: b183 293e 8b0c 8fbe 8b8e b73d 369f b2be
00000080: 5019 2dbe e2b2 c7bc bfcd babc c92e e3bd
00000090: 9fd7 ec3d 9d20 443d 7748 cdbd 795b 913d
000000a0: 171f 3f3e 5c3d d7bd a89f 95bd dee6 e43b
000000b0: 7577 44be 9629 1b3d cbd9 9f3c 9b1b ccbd
000000c0: 2d72 933e 0b23 e03d 0e67 80be 19c1 0fbb
000000d0: 7e3b 853e 6d30 a03e 3e22 a8bd a180 59be
000000e0: 21e1 01be 3c6a 393e 76e6 823d 1d24 e4bd
000000f0: 02f4 35bd 02da 7f3e 77bf f83c 071e 9dbd
00000100: 14f0 cb3d 1cf6 06be 66b9 6b3e 9c38 62bc
00000110: 09ca dc3c 2450 32bd 3b68 86bc 0835 403d
00000120: bef6 00be 06eb 47be 6db7 80be bb52 db3d
00000130: 368a 53bd a0b2 28be 23cf 033e ea33 d4bb
00000140: d493 92bd b179 e6bd 1682 34bd d658 cb3e
00000150: 1664 07be 3631 60bc 2df0 fdbc d864 5dbe
00000160: 7b11 bcbd 35a1 ef3c 17b0 bbbe b799 ef3c
00000170: a64a 343e a655 293d da82 9cbe e7b9 b1bb
00000180: b686 063d a5ca 78bd 9d0b 2d3c f018 4d3e
00000190: f7e6 28be 8316 a7bd c805 903e c4a6 963e
000001a0: f0fc 4d3e 8448 ca3d 69a0 7dbe 6167 df3d
000001b0: 258d 56bd de7d 39bb 9de9 f9bc b1df c1be
000001c0: 10f6 adbb 21a6 01be f26b 70bc 8910 05be
000001d0: 489e 83bc 6f48 de3d 4b85 1e3c ae7e b8bd
000001e0: 2716 25bd da5c d0bd 599b d9bd 1c92 40be
000001f0: 596e c03c d853 ccbc 5d30 1e3d e3b7 583d
00000200: 970e 6fbd b15f 353e ef68 0c3e 396e b7bb
00000210: 6c6a b0be cb25 8cbd 94f9 47bd bbac b03c
00000220: 9a40 fb3d b888 ab3d bf2a aa3e 8244 db3d
00000230: 8c9a 113e 16f5 44be 68e8 54bd 8c48 993d
00000240: 9b6c e3bc d1a2 493e 91eb 09bd 3e92 84be
00000250: fcd6 85bc 5ca0 c03d 323d d6bd 9ad0 0f3e
00000260: 9229 233e 1f71 973e 2b02 72be 6de4 c83c
00000270: 3850 82bd 6e93 bb3d bcf2 343e 28ec 383e
00000280: b964 d13d 368b 11bd fd10 a0bd 3c94 3e3e
00000290: 4103 2c3e 01fe 123e 71d2 7abd 1c22 c0bc
000002a0: 0f2a 323d 4a13 b2bd 22c2 5dbe 7c24 aa3c
000002b0: 028f 75be d1b1 f23d 11ee c73d 563d da3d
000002c0: d83b 42be 7080 193e 575c 3c3e 021e a2bd
000002d0: 0ccb 633e 9d70 75be 9bd1 78be 77d0 23be
000002e0: 1307 c93b 8fb6 613e aae8 87bd dd09 903c
000002f0: 937c b4bc 80df 813e 2271 083d 198a 85bd
00000300: fbc6 ff3d 54fa a03d ddfd 323e 74f9 1dbe
00000310: 5958 a6bc 46a0 c8bd 7daf 843d 202a 5a3e
00000320: 47b0 eb3c e664 36be 0d2f 363e 3e4d 9fbe
00000330: a64a 3dbd 124c 89be 7e62 ae3e 4dad d03d
00000340: 30a7 2d3d c1f8 40bc a812 0abc 281f 41bd
00000350: 42e7 d0bd 7714 613c a5a2 733b e9c9 313e
00000360: 943a dc3d 2363 c0bd 1409 943e 8494 6dbd
00000370: d32d 5cbe 3fd5 923e e5a6 d9bd 7653 fe3c
00000380: 7a00 283c 53d9 6cbd c6c7 353e fee1 193d
00000390: 14f5 393e ec1d 87bd d12f 0bbe d112 f5bd
000003a0: dda2 81bd 53b9 923e ce42 dfbc a857 c4bc
000003b0: 528f fb3b 1fa9 51be 09c5 15bd e760 acbe
000003c0: 3422 7e3d fc23 0b3d 2606 ce3d 310d 08be
000003d0: f2b4 893e 71f7 813d 893d 2bbe c255 09be
000003e0: 8a31 d83d cb43 183d 675b 7c3c f5e5 2bbd
000003f0: 130d 87bd f70d dcbd 00b7 a9bb d77e 56be

actor.6.bias f4 [8]
0.2932354 0.021150107 -0.18232304 0.2159181 -0.29102957 0.035981137 0.011570911 0.36308205
00000000: f322 963e fd42 ad3c e4b2 3abe a219 5d3e
00000010: d401 95be f560 133d eb93 3d3c e4e5 b93e

critic.0.weight f4 [128, 33]
0.2108579 0.32288903 0.059203647 0.14637299 -0.09597139 0.6021538 0.031019062 -0.76033276
0.47014967 0.70767975 -0.04443642 -0.3119847 -0.56494427 0.44802746 0.55619395 0.40700465
-0.015135582 0.29016173 0.58330137 -0.13839541 0.034675714 0.07174576 0.014623993 0.04270769
-0.03842731 -0.03628745 0.021322597 0.029480854 -0.0023879467 -0.012101833 0.15447289 -0.33651733
2.8314843 0.27385768 0.1742732 -0.010237916 -0.009725785 -0.25040147 0.8789558 0.17756578
0.15708183 0.3512713 0.79182994 -0.32775053 0.736678 0.34250295 -0.34273008 -0.17230378
2.0672684 -0.7140888 -0.07609999 -0.2435639 0.8079013 0.80695724 -0.15139997 0.0007752165
0.05727212 -0.011886884 -0.10266357 0.04671877 0.050239235 0.1416425 -0.073904194 0.20873894
0.34635556 -1.8447021 0.1907814 -0.101432286 0.38963443 -0.58211213 -0.12005838 -0.43531
-0.6430911 0.1876354 0.09919787 -0.5198651 0.14187962 0.17829934 0.13972786 0.18198164
-0.0892141 -1.6563745 0.71190906 0.053644415 0.17956248 -0.37065625 1.2845879 0.6431628
-0.02052755 -0.13518019 -0.047621366 0.06955732 0.0895402 -0.29356387 -0.33016995 0.14742754
-0.28114867 0.32329038 0.37689796 0.13781656 0.4497079 0.25369653 -0.0057297833 -0.32445726
0.057935037 0.38296565 1.1175044 -0.2988767 0.038603187 -1.0247552 0.8065041 -0.28150317
0.08452449 -0.22824872 0.90374607 -0.21802934 0.23993829 0.6079464 0.24539496 -0.29665795
-0.028135424 0.0598546 0.15684849 0.13678779 0.18743865 -0.014764951 -0.042775527 0.036613815
0.21091476 0.30045417 -0.06616835 0.5097287 0.16368054 -0.18033603 -0.0044380142 -0.7208861
-0.19845507 0.042089477 -0.5372008 -0.61124396 -0.15952186 0.077036895 0.4583207 0.06720993
-0.18767548 0.13222723 -0.35777092 -0.23209293 0.2458068 0.015495862 -0.12559415 0.09802767
0.28136295 -0.10068882 0.114543736 -0.079219416 0.052591167 -0.0006085656 0.043215565 -0.1046828
0.003142473 -0.02385899 0.47666356 0.025345303 0.07691474 -0.24282433 -0.20999794 -0.12885293
-0.6985618 0.040005166 -0.5561685 0.087942354 -0.5138379 0.3171334 0.07622782 0.24529761
0.6413186 -0.38488078 -0.0078098807 -0.040455543 -0.62815624 -0.010195574 -0.0069559356 0.06458125
0.24669412 0.04374742 -0.038952287 0.014629203 0.07625177 0.02245979 -0.0005949346 -0.05552955
-0.026529042 0.05136967 0.025523413 0.40441585 -0.1712865 -0.11354239 0.1417549 -0.35645092
-0.061657045 -0.6105412 -0.2615484 -0.3025438 -0.26260588 -0.29918763 0.24030328 -0.31242543
0.43568367 0.48237285 -0.28558668 -0.47733298 0.10733576 -0.6783595 0.7323071 -0.1577741
0.051318515 0.09547195 0.3789658 -0.055309936 -0.1013298 -0.078195624 -0.0718004 0.09148127
0.021881638 0.06298889 -0.032963105 0.002784268 -0.3346773 -0.22693644 -0.06592593 -0.20234957
0.22080413 -0.1995564 0.6222595 0.48462003 1.361073 0.4274805 -0.58229077 0.0274199
-0.11813812 -0.34789938 -0.7194054 -0.32482412 0.2654195 0.07798215 0.35986456 -0.31038862
-0.5490259 -0.33427724 -0.44606984 0.3290041 -0.03405935 -0.10422621 -0.07136862 0.07915196
00000000: 22eb 573e b651 a53e 867f 723d cde2 153e
00000010: a68c c4bd c026 1a3f b01b fe3c 2ba5 42bf
00000020: 75b7 f03e 802a 353f f702 36bd 75bc 9fbe
00000030: 30a0 10bf db63 e53e ba62 0e3f ea62 d03e
00000040: 3bfb 77bc 1490 943e 3d53 153f 87b7 0dbe
00000050: 1f08 0e3d 71ef 923d 7999 6f3c 42ee 2e3d
00000060: f465 1dbd 26a2 14bd baac ae3c d581 f13c
00000070: 197f 1cbb c446 46bc 242e 1e3e 004c acbe
00000080: 0a37 3540 1337 8c3e ac74 323e efbc 27bc
00000090: e658 1fbc 9f34 80be 3f03 613f ced3 353e
000000a0: 0fda 203e d5d9 b33e 5eb5 4a3f ebce a7be
000000b0: ee96 3c3f 8c5c af3e 517a afbe 6770 30be
000000c0: 204e 0440 86ce 36bf 50da 9bbd d168 79be
000000d0: 9fd2 4e3f c094 4e3f 9808 1bbe e637 4b3a
000000e0: 2c96 6a3d 35c1 42bc 4741 d2bd 2e5c 3f3d
000000f0: a8c7 4d3d bb0a 113e 155b 97bd a9bf 553e
00000100: 8455 b13e 331f ecbf 335c 433e bbbb cfbd
00000110: 2a7e c73e 4d05 15bf 2be1 f5bd f4e0 debe
00000120: 9ea1 24bf 7f23 403e 4128 cb3d e115 05bf
00000130: e448 113e 1a94 363e d214 0f3e 6559 3a3e
00000140: e2b5 b6bd 1404 d4bf ac3f 363f 3fba 5b3d
00000150: 3adf 373e a8c6 bdbe 606d a43f 51a6 243f
00000160: 6429 a8bc ad6c 0abe 9f0e 43bd 1174 8e3d
00000170: da60 b73d 014e 96be 090c a9be 3ff7 163e
00000180: b8f2 8fbe 5186 a53e c5f8 c03e c91f 0d3e
00000190: 1d40 e63e 83e4 813e e8c0 bbbb 431f a6be
000001a0: 4a4d 6d3d 1314 c43e 620a 8f3f 5e06 99be
000001b0: 601e 1e3d 2e2b 83bf 0d77 4e3f 2f21 90be
000001c0: 2d1b ad3d 08ba 69be e75b 673f 1543 5fbe
000001d0: 62b2 753e 60a2 1b3f d148 7b3e 8de3 97be
000001e0: 437c e6bc 192a 753d e49c 203e 1912 0c3e
000001f0: ebef 3f3e b1e8 71bc 6435 2fbd 5ef8 153d
00000200: 0afa 573e 21d5 993e 4683 87bd 957d 023f
00000210: df9b 273e 02aa 38be c36c 91bb fe8b 38bf
00000220: ce37 4bbe 0466 2c3d fe85 09bf 7c7a 1cbf
00000230: b359 23be 85c5 9d3d 03a9 ea3e 5ca5 893d
00000240: 002e 40be 9366 073e c02d b7be c5a9 6dbe
00000250: c7b4 7b3e 5be2 7d3c c19b 00be bbc2 c83d
00000260: ce0e 903e f135 cebd e895 ea3d ca3d a2bd
00000270: d669 573d 2588 1fba ce02 313d f063 d6bd
00000280: f3f1 4d3b ee73 c3bc 3f0d f43e f4a0 cf3c
00000290: 7a85 9d3d f1a6 78be b309 57be 06f2 03be
000002a0: f2d4 32bf 75dc 233d 0f61 0ebf 1f1b b43d
000002b0: e18a 03bf 4f5f a23e 551d 9c3d 4c2f 7b3e
000002c0: 752d 243f 180f c5be 07ea ffbb b6b4 25bd
000002d0: d9ce 20bf 560b 27bc 9eee e3bb 2d43 843d
000002e0: 629d 7c3e 7f30 333d 6f8c 1fbd 53af 6f3c
000002f0: e329 9c3d 98fd b73c 63f5 1bba f472 63bd
00000300: 6f53 d9bc 0169 523d 7a16 d13c 980f cf3e
00000310: ba65 2fbe ea88 e8bd 3228 113e bc80 b6be
00000320: 198c 7cbd 6e4c 1cbf ace9 85be 05e7 9abe
00000330: 4774 86be 1f2f 99be 1012 763e 3af6 9fbe
00000340: ee11 df3e 93f9 f63e 6b38 92be fd64 f4be
00000350: dad2 db3d f8a8 2dbf 7a78 3b3f 898f 21be
00000360: 5d33 523d cc86 c33d ce07 c23e ac8c 62bd
00000370: 0086 cfbd 0725 a0bd 170c 93bd 885a bb3d
00000380: 1f41 b33c 5200 813d 5204 07bd 4478 363b
00000390: d35a abbe 0762 68be 2d04 87bd ba34 4fbe
000003a0: 7a1a 623e 8358 4cbe 664c 1f3f 1e20 f83e
000003b0: a437 ae3f b9de da3e 0211 15bf b39f e03c
000003c0: 66f2 f1bd de1f b2be f42a 38bf 594f a6be
000003d0: 11e5 873e 1bb5 9f3d 2b40 b83e 42eb 9ebe
000003e0: f68c 0cbf 6326 abbe 4463 e4be 3a73 a83e
000003f0: d181 0bbd 8d74 d5bd b629 92bd 6c1a a23d

critic.0.bias f4 [128]
-0.4178596 -0.47821 0.1306774 -0.13935879 0.45762882 -0.33080548 0.1988361 -0.21923983
0.3170539 -0.3760973 0.20069894 0.081043534 -0.031478144 -0.31834993 -0.20177716 -0.37472373
0.31350166 -0.015899096 -0.21393803 0.3382612 0.42914653 0.20437402 0.05789918 -0.38267154
-0.08793297 0.4692241 -0.061075166 -0.28488663 -0.08402056 -0.13790025 0.4360045 -0.28881657
-0.28818604 -0.27400953 -0.3398782 -0.15100446 0.38392827 0.01731214 0.0369021 0.1443071
0.17036505 -0.45576912 -0.265546 0.36244237 0.38478336 0.067503236 0.090423 -0.37873808
0.0066712094 -0.11677672 0.21983925 -0.1349398 0.02428982 -0.57530314 0.15618983 -0.10721789
0.32157588 -0.4813938 0.0488614 -0.17473044 0.26174572 -0.46031028 -0.30879351 0.3457947
0.066150926 0.2160095 0.033282995 -0.532305 -0.017296994 0.057064157 -0.10432929 0.1602151
-0.6087856 -0.1949962 0.32579178 -0.23977298 -0.17987259 -0.27714282 -0.5768503 0.40890855
-0.33176452 -0.07636732 -0.03903185 0.3386678 0.1716572 0.08674804 -0.31370413 0.39517465
0.4102203 -0.30070993 0.15426986 -0.14755094 0.13448864 -0.22175814 0.02554165 -0.034896236
-0.40740114 0.3912576 -0.19990607 0.47425067 0.1115826 0.46438652 0.43540367 0.4694481
-0.06054726 0.18865134 0.18391499 0.22835661 0.27617484 0.15545475 0.3634224 0.09122755
0.28767866 -0.26207843 0.010855661 0.06932985 0.1689864 -0.008646717 -0.05421221 -0.3277753
0.008253744 0.07451175 0.28066307 -0.26540187 0.27097726 -0.1818155 0.10034253 0.3612601
00000000: b2f1 d5be f1d7 f4be 4cd0 053e 12b4 0ebe
00000010: 534e ea3e 565f a9be b19b 4b3e 6880 60be
00000020: e454 a23e d38f c0be 0684 4d3e 27fa a53d
00000030: 3aef 00bd c3fe a2be ac9e 4ebe cadb bfbe
00000040: 4a83 a03e d23e 82bc 9212 5bbe 9230 ad3e
00000050: 18b9 db3e 6c47 513e b127 6d3d 86ed c3be
00000060: 3316 b4bd 243e f03e f429 7abd a9dc 91be
00000070: f912 acbd b935 0dbe fb3b df3e c4df 93be
00000080: 1f8d 93be fa4a 8cbe 8404 aebe eaa0 1abe
00000090: 3f92 c43e 30d2 8d3c a826 173d 3ec5 133e
000000a0: 2d74 2e3e 925a e9be a5f5 87be 0c92 b93e
000000b0: 5302 c53e 233f 8a3d b22f b93d f5e9 c1be
000000c0: 299a da3b a228 efbd 8a1d 613e a92d 0abe
000000d0: 72fb c63c 1147 13bf 3af0 1f3e 0e95 dbbd
000000e0: 98a5 a43e 4079 f6be e422 483d 89ec 32be
000000f0: 8903 863e caad ebbe 2f1a 9ebe 010c b13e
00000100: 237a 873d 9831 5d3e c053 083d 2445 08bf
00000110: 6db2 8dbc 1bbc 693d 98aa d5bd 6d0f 243e
00000120: 60d9 1bbf 15ad 47be 2ece a63e 0c87 75be
00000130: 8530 38be aae5 8dbe 76ac 13bf 765c d13e
00000140: 0add a9be 7866 9cbd dcdf 1fbd de65 ad3e
00000150: e8c6 2f3e f5a8 b13d d49d a0be 5554 ca3e
00000160: 6508 d23e a7f6 99be ebf8 1d3e 9817 17be
00000170: 64b7 093e 9114 63be b93c d13c 5bef 0ebd
00000180: e296 d0be eb52 c83e 2db4 4cbe fcd0 f23e
00000190: 6b85 e43d 12c4 ed3e 3bed de3e 805b f03e
000001a0: 6700 78bd d12d 413e 3654 3c3e 51d6 693e
000001b0: ca66 8d3e 882f 1f3e 8012 ba3e 82d5 ba3d
000001c0: 9e4a 933e 252f 86be f1db 313c cffc 8d3d
000001d0: c50a 2d3e f6aa 0dbc 9f0d 5ebd 2ad2 a7be
000001e0: b63a 073c 9e99 983d 12b3 8f3e c1e2 87be
000001f0: 88bd 8a3e d82d 3abe 6280 cd3d 15f7 b83e

critic.2.weight f4 [64, 128]
0.2942045 0.21893126 -0.10810118 -0.038301807 -0.11552103 0.09764509 -0.034862865 0.24205504
-0.24258901 0.08857692 -0.104292035 -0.10199449 -0.19421747 -0.023749176 0.11785218 -0.07925332
0.30441657 0.096612014 -0.01268162 -0.16837381 -0.035019886 -0.030810764 0.1335658 -0.020924611
0.20085776 -0.2491149 0.043254893 0.022210605 -0.17135736 -0.07382514 -0.09283657 0.05446338
0.2926271 0.00066606863 -0.35342574 0.20010853 -0.2364556 0.21116818 -0.17069358 -0.037522476
0.09568829 0.38478258 -0.041527987 -0.09549134 -0.34171593 -0.13851687 -0.04572714 -0.099083
-0.0088394005 -0.24183671 -0.17949097 -0.4025369 -0.043393087 0.44877094 0.18206249 -0.17563915
-0.016473824 -0.1886121 -0.087995365 -0.032780655 0.14071004 0.116558075 -0.063961364 0.15140544
0.15064803 -0.0481775 -0.16282882 0.19050473 -0.16377892 -0.2376246 0.040552303 -0.23221253
0.24744275 -0.018557645 -0.3948267 0.058942817 0.28215456 -0.21831498 0.06335249 -0.059396576
0.017458128 -0.06456484 -0.002856151 -0.03881033 -0.33314806 -0.07616493 -0.14292471 -0.08434797
-0.11293335 -0.015272598 0.09996543 0.21932137 0.030097699 0.296766 -0.104215465 0.10557831
-0.22177644 0.0544873 0.43798953 -0.016491298 -0.06719912 -0.11739938 0.0064754626 -0.06653969
-0.2978484 0.020358948 -0.085695 -0.17033292 -0.43079066 -0.42608282 -0.13898395 0.1608898
-0.2497244 -0.073943175 0.019705558 -0.5075575 -0.20571022 0.0068389797 0.361997 -0.07833341
0.1071679 0.009732695 -0.25919378 0.111281 0.08696573 0.07315622 -0.3704928 0.12774283
0.06229647 0.25944093 -0.09549506 -0.24306974 0.29958865 -0.21274531 -0.0909822 0.33138576
-0.23299322 0.04383586 -0.0113328695 0.013431284 -0.33662358 -0.36424226 0.22444277 0.18447562
-0.039861407 -0.42001605 0.25883868 -0.20208882 0.20644066 -0.19934231 -0.1782735 -0.09543953
-0.245971 -0.016060822 -0.10597347 0.096747614 0.0033469254 -0.039190296 0.04949062 -0.5904253
0.28432658 -0.4436243 -0.314454 0.1542694 0.37921187 0.27340996 0.5004913 -0.22194195
0.5368913 0.21317758 -0.3030468 -0.14069568 0.19680592 -0.37361607 0.27723095 -0.34005874
-0.071775116 -0.16507477 0.163407 -0.025582599 -0.058463797 0.32314333 0.07110979 0.13814972
-0.074921176 0.12015344 -0.052232392 0.30014163 0.11252487 -0.10196491 -0.2940215 0.32730952
0.19988748 0.11670663 -0.031507272 0.100959465 0.014857303 0.023235543 0.31915253 0.051295344
0.3184852 -0.3854801 0.041460216 0.10015834 -0.41193056 -0.28504223 -0.10847908 0.03259618
-0.56246686 0.07436581 -0.03378732 0.5425825 -0.21746789 -0.24100053 -0.092296064 -0.019617558
-0.07395532 -0.0761392 0.11254134 0.10874671 0.20873263 0.19927138 -0.5297975 0.043849915
-0.013769685 -0.024204412 0.021933073 0.085311145 0.16959785 -0.20779201 -0.1375323 0.13466562
-0.062477496 0.1371362 -0.30409425 0.27131924 -0.020163922 0.18419905 0.013952049 0.042763844
0.095289454 -0.08916715 0.10781886 -0.15776356 -0.19122088 0.12828073 0.7422727 0.3548984
-0.08257926 0.1494429 0.108875245 0.43663827 0.16746114 -0.12174153 -0.08457928 0.34424877
00000000: f9a1 963e 842f 603e 2764 ddbd 5be2 1cbd
00000010: 4a96 ecbd 26fa c73d 5dcc 0ebd 47dd 773e
00000020: 4169 78be d167 b53d 1097 d5bd 7de2 d0bd
00000030: f2e0 46be a28d c2bc 7c5c f13d 914f a2bd
00000040: 7ddc 9b3e 85dc c53d 92c6 4fbc 2f6a 2cbe
00000050: 0371 0fbd db66 fcbc 79c5 083e 176a abbc
00000060: a8ad 4d3e fa17 7fbe 0b2c 313d 04f3 b53c
00000070: 4e78 2fbe a331 97bd 1a21 bebd fe14 5f3d
00000080: 38d3 953e 1c9b 2e3a 38f4 b4be 40e9 4c3e
00000090: 6b21 72be 793c 583e 4cca 2ebe 2bb1 19bd
000000a0: 39f8 c33d 3902 c53e 4019 2abd f790 c3bd
000000b0: 64f5 aebe 5ed7 0dbe 624c 3bbd 07ec cabd
000000c0: 22d3 10bc 0ba4 77be 7bcc 37be 5119 cebe
000000d0: f3bc 31bd 4ec5 e53e 976e 3a3e c0da 33be
000000e0: 1df4 86bc 8823 41be ea36 b4bd 0245 06bd
000000f0: 4b16 103e 00b6 ee3d 2dfe 82bd 070a 1b3e
00000100: 7a43 1a3e c555 45bd 99bc 26be ac13 433e
00000110: a9b5 27be dd53 73be 2c1a 263d 1fc9 6dbe
00000120: a261 7d3e 3406 98bc ba26 cabe 066e 713d
00000130: 9076 903e f68d 5fbe f3be 813d d349 73bd
00000140: 5904 8f3c 923a 84bd 432e 3bbb 95f7 1ebd
00000150: 6292 aabe 5cfc 9bbd db5a 12be a1be acbd
00000160: 9a49 e7bd eb39 7abc adba cc3d c895 603e
00000170: 738f f63c b7f1 973e eb6e d5bd 7139 d83d
00000180: 5d19 63be 132e 5f3d 2a40 e03e c218 87bc
00000190: b19f 89bd 166f f0bd 1e30 d43b f645 88bd
000001a0: 967f 98be cfc7 a63c dc80 afbd c16b 2ebe
000001b0: 9890 dcbe 8727 dabe cf51 0ebe 4cc0 243e
000001c0: c1b7 7fbe 856f 97bd 8d6d a13c 4aef 01bf
000001d0: b3a5 52be 8519 e03b ac57 b93e 446d a0bd
000001e0: d87a db3d e275 1f3c 0cb5 84be 4be7 e33d
000001f0: 171b b23d eed2 953d 3bb1 bdbe 04cf 023e
00000200: 952a 7f3d 71d5 843e ea92 c3bd 46e7 78be
00000210: af63 993e e8d9 59be e054 babd 65ab a93e
00000220: c695 6ebe 3b8d 333d 80ad 39bc e30e 5c3c
00000230: ed59 acbe f67d babe 53d4 653e 2de7 3c3e
00000240: b745 23bd 580c d7be 8186 843e 5ff0 4ebe
00000250: 2e65 533e 6420 4cbe 548d 36be cd75 c3bd
00000260: d2df 7bbe fc91 83bc 9e08 d9bd 9d23 c63d
00000270: 1758 5b3b 0186 20bd adb6 4a3d 1d26 17bf
00000280: 4193 913e b922 e3be 1d00 a1be ccf8 1d3e
00000290: 0f28 c23e 64fc 8b3e 3320 003f c044 63be
000002a0: b571 093f 394b 5a3e f328 9bbe 8712 10be
000002b0: 7e87 493e 9b4a bfbe 37f1 8d3e 2e1c aebe
000002c0: d5fe 92bd 5c09 29be 2a54 273e 9992 d1bc
000002d0: bc77 6fbd 0b73 a53e 02a2 913d 1f77 0d3e
000002e0: 4670 99bd 0213 f63d a2f1 55bd 2aac 993e
000002f0: 7073 e63d fbd2 d0bd fc89 96be 1d95 a73e
00000300: 4eaf 4c3e e303 ef3d c50d 01bd d6c3 ce3d
00000310: 0c6c 733c 7758 be3c f667 a33e 111b 523d
00000320: 7e10 a33e a65d c5be 30d2 293d d11f cd3d
00000330: 90e8 d2be 0ef1 91be 482a debd 9283 053d
00000340: d4fd 0fbf 1a4d 983d 9364 0abd b0e6 0a3f
00000350: e7af 5ebe d8c8 76be b805 bdbd 00b5 a0bc
00000360: e375 97bd deee 9bbd 137c e63d 98b6 de3d
00000370: 02be 553e cc0d 4c3e cfa0 07bf f89b 333d
00000380: 3f9a 61bc 5548 c6bc fdac b33c 9cb7 ae3d
00000390: 0fab 2d3e 6ec7 54be 44d5 0cbe c9e5 093e
000003a0: 67e8 7fbd 6f6d 0c3e 3eb2 9bbe 5bea 8a3e
000003b0: cf2e a5bc ad9e 3c3e 2397 643c 2429 2f3d
000003c0: 1e27 c33d 449d b6bd 22d0 dc3d c58c 21be
000003d0: 68cf 43be 065c 033e 9505 3e3f 3eb5 b53e
000003e0: 511f a9bd 8f07 193e fcf9 de3d 0d8f df3e
000003f0: ef7a 2b3e a053 f9bd e737 adbd 6041 b03e

critic.2.bias f4 [64]
-0.19679824 -0.094347484 0.19117548 0.25960225 -0.07956466 -0.35353374 -0.49784684 -0.3959722
-0.17881475 -0.36603463 -0.30273223 -0.00917363 -0.26685184 0.2679182 0.22651409 0.09072231
0.29229563 -0.2788939 -0.18796806 -0.32758462 -0.124973595 0.20849927 -0.36306253 0.06799866
0.13487363 0.21141183 0.05228499 -0.21001555 -0.11088286 -0.12187451 0.34912905 0.30642933
0.21637675 0.102687955 0.6112018 -0.16671222 0.0835716 -0.41729534 0.08682064 0.21274011
0.21667369 0.2787034 -0.22242288 -0.02614419 0.03374316 -0.4488612 -0.3162872 -0.042368937
0.12173107 0.3313092 0.08602323 0.11924316 -0.058890816 -0.008601788 -0.3316781 0.012623937
-0.1307633 -0.063253306 -0.41508058 0.2652987 -0.15843263 -0.38906434 -0.42010137 -0.0095229
00000000: 7a85 49be 4139 c1bd 81c3 433e 96ea 843e
00000010: ccf2 a2bd 6002 b5be c8e5 febe debc cabe
00000020: 371b 37be e468 bbbe b8ff 9abe fe4c 16bc
00000030: cea0 88be 932c 893e 4ff3 673e 9ecc b93d
00000040: c6a7 953e 2ecb 8ebe b37a 40be 2cb9 a7be
00000050: 28f2 ffbd d580 553e 55e3 b9be e242 8b3d
00000060: 501c 0a3e 587c 583e c928 563d 510e 57be
00000070: 8e16 e3bd 5899 f9bd 0bc1 b23e 4ee4 9c3e
00000080: de91 5d3e 104e d23d b977 1c3f 9cb6 2abe
00000090: 9627 ab3d bca7 d5be 05cf b13d 8bd8 593e
000000a0: b5df 5d3e 36b2 8e3e d3c2 63be 572c d6bc
000000b0: 4536 0a3d 23d1 e5be 65f0 a1be 0d8b 2dbd
000000c0: 244e f93d 5ca1 a93e f22c b03d c235 f43d
000000d0: 7f37 71bd 84ee 0cbc b6d1 a9be a1d4 4e3c
000000e0: d1e6 05be f38a 81bd 7185 d4be 3bd5 873e
000000f0: 2a3c 22be 7133 c7be 8717 d7be f005 1cbc
