legged_gym/logs/tron1/Mar26_09-33-42_track_3.0_feet_contact_force_-0.0035_stand_still_-1.5_base_height+0.1_feet_regulation_-0.15_track_contacts/model_1000.pt (torch, 376290 bytes, 48 tensors)

std f4 [8]
0.56635267 0.440788 0.5272891 0.40541402 0.54103625 0.45375118 0.5559197 0.44109875
00000000: 7dfc 103f f7ae e13e 6bfc 063f 6d92 cf3e
00000010: 5a81 0a3f 1352 e83e c150 0e3f b2d7 e13e

actor.0.weight f4 [128, 33]
-0.42624095 0.7041362 0.3750276 0.37094828 -0.016916545 0.58186084 -0.14470366 -0.371359
0.29372895 0.35847923 -0.4840748 -0.76043177 -0.44029644 0.33771953 -0.53553 0.6265284
-0.44287556 0.2222721 0.2255178 -0.7751327 -0.36297333 0.19256587 0.009172849 0.12409778
-0.037329745 0.038884416 -0.029654482 -0.10221303 -0.0052580307 -0.08273891 0.37004033 -0.1927412
0.1645588 -0.18951237 -0.76073796 -0.11327172 -0.40817827 1.0144029 0.29856274 -1.0721502
-0.51259744 -0.26832375 -0.4603592 0.46854648 -0.20981506 0.13528861 0.14324431 -0.24974026
-1.1322384 0.44457105 0.09718563 0.14297609 -0.053607702 -0.12229067 -0.07077728 0.07511744
-0.031982765 -0.032594033 0.118437275 -0.09390299 -0.07918625 0.135217 0.086860575 -0.028632658
0.27460572 0.096697755 -0.13436973 -0.43784335 0.026829625 -0.74954474 -0.20146897 -0.30789062
-1.1873928 -0.46681282 0.21145877 0.16737801 0.7481848 0.40928504 0.1943594 -0.58768654
-0.35409996 -0.5823547 0.17063706 0.32017294 0.004194053 0.19854842 -0.06902323 0.07084624
-0.07244221 0.023664456 0.0052310885 -0.01520028 -0.049017664 -0.007237788 -0.06723892 0.09367074
0.11837268 -0.31111667 -0.19175714 -0.44646087 0.13196203 -0.14505441 0.15544209 0.6381295
-0.15307651 -1.1718252 -0.4301162 0.028687872 0.58020115 0.64060616 -0.69736576 0.30160892
-0.10294076 -0.97470886 0.4924486 -0.22928314 -0.020362718 -0.24633017 0.33062595 0.11883486
-0.19311765 0.14917518 -0.005231878 0.051101062 -0.1463075 -0.024246207 0.021357238 -0.21561798
-0.10887231 0.2966673 -0.06128012 -0.03177385 -0.54372287 0.33992043 0.23543267 1.425826
0.27961925 0.60714996 0.17993267 -0.036669906 -0.12145767 0.40586764 0.099085465 -0.5336077
0.6145276 0.12469787 -1.0157129 0.67429155 -0.46516764 -0.15262797 -0.097337045 -0.06914386
0.2426 -0.083235115 -0.008787068 0.07393646 -0.059504967 -0.16965748 0.0071638487 0.104418516
-0.17154104 -0.12564957 0.1718713 0.01975775 0.4160383 -0.14769204 -0.028025514 -0.08285317
-0.4520061 0.46300298 0.3791843 0.45065418 -0.2314723 0.030360207 -0.35470632 -0.5947879
0.7485024 -0.9027506 0.30453873 1.231748 -0.64763135 0.5057474 -0.1989843 -0.67636275
-0.084586225 0.48131815 -0.21040091 -0.08578831 -0.14934973 -0.033675153 0.16775994 -0.071696065
-0.14465947 -0.10790049 0.045825135 -0.13056362 0.1589399 0.1716959 -0.2856648 0.13731892
-0.21420632 -1.2172157 -0.22003756 0.23289923 0.39801666 -0.91268116 0.84550774 -0.0548654
-0.5752486 0.28402364 0.2160915 0.2088028 0.5482194 -0.41223672 -0.140376 0.12814707
-0.614058 0.23409851 -0.70788443 -0.20944227 -0.07898917 0.041186266 0.068961345 -0.14601922
-0.054863565 0.04851127 -0.008386363 0.0672607 -0.014221987 -0.15312791 -0.11445277 -0.24781764
-0.11602726 0.17829823 0.37852165 0.89276725 0.0774126 -0.8283639 -0.56235427 -0.09083206
-0.02960794 -0.25904182 -1.4142903 0.7810255 -0.92948717 -0.22195156 -0.047741637 -0.32924625
0.1079112 -0.40368298 -0.03416709 0.22796462 -0.18985055 -0.049604967 -0.0019792633 -0.04441482
00000000: 413c dabe 4542 343f 9e03 c03e efec bd3e
00000010: 9194 8abc d5f4 143f 322d 14be c422 bebe
00000020: a463 963e 978a b73e a7d8 f7be a8ab 42bf
00000030: 896e e1be 93e9 ac3e 7e18 09bf 2a64 203f
00000040: 96c0 e2be 4c9b 633e 23ee 663e 196f 46bf
00000050: a4d7 b9be fd2f 453e b849 163c fa26 fe3d
00000060: 13e7 18bd 4445 1f3d f5ed f2bc 1155 d1bd
00000070: 8f4b acbb 0573 a9bd ed75 bd3e f35d 45be
00000080: 1a82 283e 880f 42be b9bf 42bf 01fb e7bd
00000090: befc d0be f4d7 813f 37dd 983e 383c 89bf
000000a0: 9639 03bf bb61 89be 33b4 ebbe 53e5 ef3e
000000b0: c2d9 56be 1989 0a3e a3ae 123e e9bb 7fbe
000000c0: 30ed 90bf d19e e33e 4209 c73d 5368 123e
000000d0: c093 5bbd 8873 fabd aef3 90bd 2cd7 993d
000000e0: 5c00 03bd 5281 05bd 3e8f f23d 3650 c0bd
000000f0: 672c a2bd 5376 0a3e f5e3 b13d 098f eabc
00000100: 1f99 8c3e 7909 c63d 3898 09be 012d e0be
00000110: cdc9 db3c 2ae2 3fbf e24d 4ebe d7a3 9dbe
00000120: 7dfc 97bf 1702 efbe a688 583e 2465 2b3e
00000130: 0a89 3f3f cf8d d13e 2706 473e a072 16bf
00000140: 974c b5be 3315 15bf 7bbb 2e3e b5ed a33e
00000150: 446e 893b 4750 4b3e 0d5c 8dbd d517 913d
00000160: 955c 94bd f6db c13c 8d69 ab3b 980a 79bc
00000170: bfc6 48bd f72a edbb 8fb4 89bd 72d6 bf3d
00000180: 606d f23d af4a 9fbe fc5b 44be 8596 e4be
00000190: 0e21 073e 2589 14be 362c 1f3e 745c 233f
000001a0: 17c0 1cbe 5efe 95bf 3138 dcbe d402 eb3c
000001b0: 1088 143f c4fe 233f 9086 32bf 7c6c 9a3e
000001c0: 9bd2 d2bd 8586 79bf 3922 fc3e 33c9 6abe
000001d0: b7cf a6bc fa3d 7cbe ce47 a93e b15f f33d
000001e0: a2c0 45be 61c1 183e 2c70 abbb 594f 513d
000001f0: a2d1 15be fb9f c6bc 60f5 ae3c f6ca 5cbe
00000200: 72f8 debd c7e4 973e dd00 7bbd 4c25 02bd
00000210: 6c31 0bbf 0d0a ae3e 4315 713e 7781 b63f
00000220: 412a 8f3e 2e6e 1b3f 4540 383e 2f33 16bd
00000230: cdbe f8bd e2cd cf3e 52ed ca3d 849a 08bf
00000240: ae51 1d3f 9961 ff3d e102 82bf 5f9e 2c3f
00000250: 742a eebe 824a 1cbe a558 c7bd 4c9b 8dbd
00000260: 226c 783e 2c77 aabd a2f7 0fbc 006c 973d
00000270: 7bbb 73bd b1ba 2dbe b8be ea3b 60d9 d53d
00000280: 74a8 2fbe 48aa 00be 08ff 2f3e 01db a13c
00000290: f902 d53e 953c 17be c395 e5bc ecae a9bd
000002a0: 586d e7be ba0e ed3e 7224 c23e 25bc e63e
000002b0: 1307 6dbe f8b5 f83c 119c b5be 0544 18bf
000002c0: da9d 3f3f aa1a 67bf 80ec 9b3e eba9 9d3f
000002d0: 2bcb 25bf a978 013f 8ac2 4bbe 1c26 2dbf
000002e0: 8b3b adbd 556f f63e 5673 57be c8b1 afbd
000002f0: 23ef 18be f5ee 09bd 43c9 2b3e 63d5 92bd
00000300: 9d21 14be effa dcbd 23b3 3b3d 78b2 05be
00000310: 24c1 223e 0dd1 2f3e a842 92be 559d 0c3e
00000320: e758 5bbe b9cd 9bbf 8751 61be 237d 6e3e
00000330: d7c8 cb3e 79a5 69bf 3273 583f 8bba 60bd
00000340: 7e43 13bf 8c6b 913e 1747 5d3e 67d0 553e
00000350: 1b58 0c3f b110 d3be babe 0fbe fc38 033e
00000360: e832 1dbf 85b7 6f3e ea37 35bf 0978 56be
00000370: 13c5 a1bd eeb2 283d 9b3b 8d3d 1086 15be
00000380: 9eb8 60bd c1b3 463d f566 09bc fabf 893d
00000390: 5603 69bc 90cd 1cbe 3766 eabd e8c3 7dbe
000003a0: b39f edbd d093 363e 97cd c13e 658c 643f
000003b0: 7f8a 9e3d a80f 54bf 73f6 0fbf 2906 babd
000003c0: 5a8c f2bc 21a1 84be 7707 b5bf 4af1 473f
000003d0: dff2 6dbf 4547 63be bc8c 43bd f792 a8be
000003e0: 8c00 dd3d 89af cebe caf2 0bbd 8f6f 693e
000003f0: 2f68 42be 942e 4bbd 87b6 01bb 50ec 35bd

actor.0.bias f4 [128]
-0.14514275 0.07773125 0.19254895 0.057976607 0.14709577 -0.16441599 -0.056512527 0.112198
-0.10762476 0.0061540594 0.0044984366 0.14930049 -0.103356086 0.10841599 0.02185012 -0.1268919
-0.05701663 -0.055782147 -0.14466734 0.110048555 0.020435065 0.029451212 0.14735268 0.11221306
-0.19861387 -0.06526174 -0.157157 -0.2130973 0.0012620433 0.04053729 0.16287728 0.24106961
-0.23423538 0.067552425 -0.042858925 -0.017443256 0.10338215 -0.05573769 -0.02125221 0.11393667
0.28841537 -0.18632714 -0.06960459 -0.08041676 0.21786122 0.060640045 0.004483637 0.17966515
0.20211695 -0.09370073 -0.026470324 0.10187475 0.0010159363 0.18824655 -0.051282216 -0.13566434
-0.06892693 -0.15808211 -0.03244512 -0.151147 -0.04875275 0.077784054 -0.25103116 -0.044986937
-0.09049075 0.06186677 0.08474888 0.012061368 0.19410321 -0.01360186 0.049805712 -0.21087815
0.04981086 -0.22263715 -0.0679943 -0.32085985 0.011439409 0.0644688 -0.13665906 -0.16647118
-0.05600544 0.08155461 0.052936245 -0.11729805 -0.17258036 0.05230178 -0.021405293 -0.21588281
-0.08758578 -0.1638836 -0.083250396 0.16819203 -0.0025901694 -0.16928612 0.13210137 0.03245346
0.10180739 -0.07105206 -0.18492618 -0.055171605 0.04558914 0.017675899 -0.15280306 -0.018287914
0.18405014 0.13467309 -0.0436464 0.032969847 0.030999547 0.0031906136 -0.096742526 -0.055457573
-0.20222452 -0.0523148 0.062155485 0.20865515 -0.21308957 -0.05200075 -0.22770815 -0.029221801
0.0017806117 0.04295595 -0.19407879 -0.09695348 -0.06777545 0.06620049 0.07842509 0.076976
00000000: 4da0 14be 9031 9f3d 8d2b 453e e178 6d3d
00000010: 46a0 163e aa5c 28be ae79 67bd 11c8 e53d
00000020: 5f6a dcbd fea7 c93b 9f67 933b 3ae2 183e
00000030: 5bac d3bd 3409 de3d 06ff b23c f3ef 01be
00000040: 458a 69bd d27b 64bd ad23 14be 2361 e13d
00000050: 7067 a73c ab43 f13c 9fe3 163e f6cf e53d
00000060: 6f61 4bbe f2a7 85bd c4ed 20be 2e36 5abe
00000070: 256b a53a 6e0a 263d 4dc9 263e f4da 763e
00000080: 66db 6fbe ed58 8a3d d78c 2fbd 29e5 8ebc
00000090: 05ba d33d 344d 64bd 1d19 aebc a157 e93d
000000a0: 2eab 933e 8bcc 3ebe da8c 8ebd 8bb1 a4bd
000000b0: 0317 5f3e b261 783d 79eb 923b 24fa 373e
000000c0: bff7 4e3e 2be6 bfbd 4bd8 d8bc b5a3 d03d
000000d0: 2a29 853a b4c3 403e 4d0d 52bd 98eb 0abe
000000e0: 9029 8dbd 47e0 21be 2de5 04bd 47c6 1abe
000000f0: f7b0 47bd 3f4d 9f3d 2887 80be 3944 38bd
00000100: 3753 b9bd 0368 7d3d d290 ad3d 0b9d 453c
00000110: fec2 463e 56da 5ebc 1301 4c3d 71f0 57be
00000120: 7906 4c3d fefa 63be 9840 8bbd be47 a4be
00000130: 5c6c 3b3c 3808 843d 5af0 0bbe 6c77 2abe
00000140: f665 65bd 1a06 a73d add3 583d f639 f0bd
00000150: e8b8 30be 643a 563d 275a afbc 6210 5dbe
00000160: 2c60 b3bd 1ad1 27be 2f7f aabd 883a 2c3e
00000170: d5bf 29bb 5759 2dbe 9545 073e ebed 043d
00000180: 6580 d03d be83 91bd 4a5d 3dbe 9ffb 61bd
00000190: aebb 3a3d 0ccd 903c 6878 1cbe 89d0 95bc
000001a0: a477 3c3e bee7 093e 91c6 32bd 640b 073d
000001b0: c3f2 fd3c 9d19 513b f220 c6bd 7b27 63bd
000001c0: f213 4fbe 0b48 56bd c096 7e3d b2a9 553e
000001d0: 2734 5abe bdfe 54bd 532c 69be 8f62 efbc
000001e0: 6a63 e93a 94f2 2f3d 97bc 46be 8c8f c6bd
000001f0: dbcd 8abd 1f94 873d 559d a03d 98a5 9d3d

actor.2.weight f4 [64, 128]
0.17686751 0.020074386 0.09920197 0.17676316 0.15118513 -0.0484267 -0.44982556 0.23147048
0.0930443 -0.13170005 0.057924252 -0.14970292 -0.11392198 0.34807318 0.047371272 0.1404583
0.047919814 0.40316904 0.007925013 0.11415271 -0.057072476 0.15773399 -0.05783529 -0.02072335
-0.026948795 0.27328816 -0.43257886 0.203033 0.07017324 0.0535277 0.05021835 0.46178386
-0.05672528 -0.31829265 0.09622672 0.20931378 0.017132493 0.3305125 0.050736986 -0.4221444
0.56866586 -0.27539375 0.27121314 0.27906582 0.2910135 -0.111906566 0.21004614 -0.13242811
0.34025797 0.04973821 0.10523082 0.06334885 -0.10222476 -0.004578128 -0.1002317 0.0067044776
0.118568875 0.034249492 0.0044769156 -0.17895943 -0.07716831 -0.42179134 -0.27090466 -0.050799344
0.099496424 0.40040565 -0.20223433 0.08590414 0.22070536 -0.09358776 -0.35248294 0.041166104
-0.064316496 0.32454613 -0.16381037 -0.1017968 -0.26682326 0.12699239 -0.067715004 -0.037847348
-0.087224685 -0.1380203 0.25815317 0.15656117 -0.054173637 -0.17971472 -0.17757326 -0.061772343
0.07059507 -0.0038136523 -0.33584067 -0.06366993 0.02914241 0.35744134 -0.062001094 0.15915234
0.25440028 -0.10137862 0.16796827 0.04426834 0.15094604 0.35698757 -0.08137249 -0.28197443
-0.048013303 0.2763261 0.0008580157 0.06417242 0.015029767 -0.38292605 -0.06037523 -0.07830008
0.045454495 -0.075777516 0.09830689 -0.050190393 -0.4278618 -0.13300142 0.12319446 -0.12182642
-0.11502694 0.05287459 0.07335168 -0.17604585 0.040611777 0.16044863 0.008381335 -0.34876177
0.08713372 -0.13563146 0.22035804 0.18052223 0.24176012 -0.02126587 0.055655826 0.10239612
-0.098242715 0.25750124 0.024788711 -0.4728709 0.06503813 -0.72466344 0.14867504 0.22911426
-0.055301107 -0.32610124 0.10422504 -0.24119732 -0.076135166 -0.3885071 -0.033365984 0.030880833
0.1931071 -0.37467787 0.19559056 0.19450426 -0.08478343 -0.44124296 -0.10770747 -0.18714371
0.070089385 -0.3216915 0.0632991 0.13921861 0.20556884 0.110830404 -0.18558232 0.17357592
0.25442258 -0.27324668 0.26857075 -0.7050981 -0.20444514 0.0013259967 0.22768039 0.020683043
-0.1409435 -0.24559532 -0.13643846 -0.14809096 -0.6753239 -0.6335562 -0.15226619 -0.114747465
-0.0294653 0.631014 0.34109974 -0.12698857 0.34274584 0.036168832 0.24151699 0.3755749
-0.18313357 -0.06576579 0.58770883 -0.41376734 0.49948502 -0.25920865 -0.078960784 -0.16810268
-0.44441196 -0.030265214 0.24100769 0.09114993 0.030876892 -0.116565965 0.26362303 -0.13273197
-0.032737486 -0.22885682 0.15314275 0.08535598 0.12560728 0.49959514 0.032083265 -0.6170375
-0.061096817 0.26353782 0.030099025 -0.028921988 0.35122627 0.09644294 0.0027600154 -0.051862784
-0.116948925 0.13846494 0.1300206 0.30171308 -0.17857048 0.019336177 0.29555216 -0.16831617
-0.10674453 0.07713308 0.10909744 0.21957766 0.051808223 -0.05999988 0.08250455 -0.40038645
-0.15772954 -0.11988162 0.48430654 -0.16002387 -0.1988691 0.07030204 0.21460481 -0.16408214
-0.04504057 0.07847877 0.21536906 0.32749557 -0.18660203 0.011676437 -0.090478316 0.29209387
00000000: c21c 353e 0a73 a43c 672a cb3d 6701 353e
00000010: 46d0 1a3e 135b 46bd 894f e6be 9906 6d3e
00000020: 038e be3d 61dc 06be fb41 6d3d b94b 19be
00000030: ed4f e9bd a636 b23e 6108 423d 4dd4 0f3e
00000040: 9147 443d 2c6c ce3e ead7 013c e5c8 e93d
00000050: d4c4 69bd 0585 213e b2e4 6cbd 04c4 a9bc
00000060: b8c3 dcbc 6dec 8b3e fa7a ddbe e2e7 4f3e
00000070: fdb6 8f3d dd3f 5b3d c2b1 4d3d ef6e ec3e
00000080: c458 68bd 41f7 a2be 8412 c53d 5a56 563e
00000090: 7159 8c3c ef38 a93e 96d1 4f3d 5023 d8be
000000a0: 1694 113f 6900 8dbe 73dc 8a3e b7e1 8e3e
000000b0: b9ff 943e 452f e5bd 5616 573e 3c9b 07be
000000c0: 4b36 ae3e 4bba 4b3d 4283 d73d 0bbd 813d
000000d0: 375b d1bd 1f04 96bb 4746 cdbd 3cb1 db3b
000000e0: 3dd4 f23d 3249 0c3d 17b3 923b 2441 37be
000000f0: 6b0a 9ebd 09f5 d7be 04b4 8abe f912 50bd
00000100: c8c4 cb3d f801 cd3e 8416 4fbe 82ee af3d
00000110: 9600 623e f1aa bfbd a578 b4be ca9d 283d
00000120: 5eb8 83bd e92a a63e e8bd 27be d77a d0bd
00000130: 0f9d 88be 4b0a 023e 2aae 8abd d205 1bbd
00000140: dba2 b2bd 3255 0dbe a72c 843e 9251 203e
00000150: 2de5 5dbd 2307 38be c4d5 35be ff04 7dbd
00000160: 2694 903d 78ee 79bb 4ff3 abbe 6165 82bd
00000170: 10bc ee3c 8d02 b73e dcf4 7dbd d5f8 223e
00000180: c140 823e 989f cfbd e0ff 2b3e b852 353d
00000190: 9991 1a3e 13c7 b63e 9fa6 a6bd f45e 90be
000001a0: 99a9 44bd 9d7a 8d3e 75ec 603a d46c 833d
000001b0: 693f 763c e20e c4be 044c 77bd cb5b a0bd
000001c0: 7e2e 3a3d 3e31 9bbd 1f55 c93d 7194 4dbd
000001d0: b410 dbbe 8631 08be 614d fc3d 2180 f9bd
000001e0: 3f93 ebbd 0793 583d 6839 963d 5d45 34be
000001f0: 8958 263d a54c 243e de51 093c e790 b2be
00000200: 2a73 b23d f9e2 0abe 8aa5 613e d2da 383e
00000210: f78f 773e c335 aebc 5df7 633d 0fb5 d13d
00000220: 7a33 c9bd 34d7 833e b211 cb3c 221c f2be
00000230: b632 853d 8b83 39bf 453e 183e ee9c 6a3e
00000240: 6a83 62bd bef6 a6be f073 d53d 6efc 76be
00000250: c1ec 9bbd 67ea c6be c5aa 08bd cdf9 fc3c
00000260: debd 453e c7d5 bfbe e448 483e 202c 473e
00000270: efa2 adbd 99ea e1be bc95 dcbd 9aa2 3fbe
00000280: 068b 8f3d c0b4 a4be f5a2 813d 538f 0e3e
00000290: a380 523e 0dfb e23d 4b09 3ebe e3bd 313e
000002a0: ad43 823e fde6 8bbe 1b82 893e 4f81 34bf
000002b0: 115a 51be 11cd ad3a 0c25 693e 7c6f a93c
000002c0: 7e53 10be 577d 7bbe 86b6 0bbe 28a5 17be
000002d0: 07e2 2cbf bd30 22bf abeb 1bbe b800 ebbd
000002e0: 3661 f1bc 228a 213f a0a4 ae3e 4b09 02be
000002f0: 627c af3e c525 143d 3b50 773e 5a4b c03e
00000300: 5e87 3bbe 37b0 86bd 1674 163f 50d9 d3be
00000310: 80bc ff3e ffb6 84be 31b6 a1bd 1c23 2cbe
00000320: f789 e3be c1ee f7bc b8ca 763e d1ac ba3d
00000330: 89f1 fc3c 23ba eebd 99f9 863e e4ea 07be
00000340: be17 06bd 7159 6abe 74d1 1c3e 1ecf ae3d
00000350: 329f 003e efca ff3e be69 033d 2bf6 1dbf
00000360: a840 7abd 6eee 863e 3b92 f63c ceed ecbc
00000370: eed3 b33e e083 c53d 60e1 343b 126e 54bd
00000380: eb82 efbd c1c9 0d3e 1f24 053e 237a 9a3e
00000390: 2edb 36be e766 9e3c 9d52 973e 135b 2cbe
000003a0: e09c dabd f3f7 9d3d 7b6e df3d f7d8 603e
000003b0: dc34 543d 6fc2 75bd 25f8 a83d 74ff ccbe
000003c0: da83 21be 7f84 f5bd 07f7 f73e 4cdd 23be
000003d0: 57a4 4bbe 84fa 8f3d 5dc1 5b3e 2605 28be
000003e0: 767c 38bd 7ab9 a03d b589 5c3e 80ad a73e
000003f0: 9a14 3fbe 874e 3f3c b24c b9bd 548d 953e

actor.2.bias f4 [64]
0.048249207 -0.10526071 -0.23225166 -0.034284506 -0.3346005 -0.0030043153 -0.004330318 -0.007967412
-0.04805813 -0.047631267 -0.28892386 -0.21264443 -0.14099663 -0.05915004 -0.14161664 -0.13338934
-0.12046085 -0.25630128 -0.27642027 -0.36195177 -0.18928914 -0.061201897 0.055539172 -0.20105453
-0.37233284 -0.10919797 -0.079510055 -0.32606938 -0.21304803 -0.40503436 -0.38723636 -0.2769317
-0.015942046 -0.28059417 -0.09113484 -0.048496466 0.075296186 -0.13746391 0.062756665 -0.11489327
-0.41406187 -0.16048332 -0.20696557 -0.4208956 -0.16183361 -0.16034986 -0.11737479 -0.055001725
-0.36514503 -0.13881576 0.09231043 0.016886987 -0.30755204 -0.026364768 0.032373775 -0.045258705
-0.3545947 -0.1778848 -0.09655688 -0.23797037 -0.014671617 -0.24728192 -0.45361763 -0.115587324
00000000: f6a0 453d ed92 d7bd 61d3 6dbe e96d 0cbd
00000010: c250 abbe 0ce4 44bb 57e5 8dbb bf89 02bc
00000020: 9ad8 44bd 0119 43bd d4ed 93be 76bf 59be
00000030: 6c61 10be 5047 72bd f403 11be 3797 08be
00000040: 2eb4 f6bd ec39 83be f586 8dbe be51 b9be
00000050: 03d5 41be d7ae 7abd 0b7d 633d 3de1 4dbe
00000060: 69a2 bebe 2fa3 dfbd 2bd6 a2bd 91f2 a6be
00000070: 4329 5abe aa60 cfbe d843 c6be fec9 8dbe
00000080: e598 82bc 0aaa 8fbe e7a4 babd 3ba4 46bd
00000090: e334 9a3d 57c3 0cbe 9186 803d 2a4d ebbd
000000a0: ebff d3be bd55 24be c8ee 53be a17f d7be
000000b0: b6b7 25be c132 24be 3262 f0bd 7d49 61bd
000000c0: 4af4 babe b825 0ebe 400d bd3d 9456 8a3c
000000d0: 7677 9dbe edfa d7bc 5d9a 043d 3161 39bd
000000e0: 708d b5be 6f27 36be 9dbf c5bd 81ae 73be
000000f0: 3961 70bc 7937 7dbe 9240 e8be 0cb9 ecbd

actor.4.weight f4 [32, 64]
0.11387744 0.038531233 0.22420113 -0.099415846 -0.06471642 -0.09634444 -0.24008228 -0.27862802
-0.18807288 0.21525072 0.12957174 -0.22819673 0.2815345 -0.23065254 -0.024826244 -0.22671884
0.16110528 -0.029827252 -0.005428625 -0.16735804 0.071866594 -0.07857444 0.017088765 0.45800644
0.25421998 -0.04785299 -0.22439654 -0.17343767 -0.1209348 -0.22075652 0.1623695 -0.26477206
-0.12164425 0.08762102 -0.3090873 -0.05428062 -0.13233292 -0.160186 -0.052176673 -0.1546054
-0.1827754 -0.098262124 -0.04314383 -0.08614841 -0.03573218 -0.08885186 0.13711175 0.16088982
-0.037314694 -0.08960751 -0.22638848 0.05913114 0.1741576 0.06064821 -0.26665953 0.19855605
0.09342066 0.014445078 0.055402424 0.20031795 -0.14449978 0.018044516 -0.052555054 -0.30594373
-0.0151578225 -0.12366843 -0.052870404 0.10733991 0.28724155 -0.0032146093 0.13770172 0.035435706
-0.059772562 -0.0064940094 0.0014437807 -0.0638658 0.45948383 0.03938248 -0.05316229 -0.17211743
-0.2312258 0.245617 -0.014289983 0.07097671 0.03671377 0.09536566 0.029995335 0.08836212
-0.15537377 0.22718656 -0.19720532 0.088167176 0.17986871 0.050055604 -0.56050915 0.2873193
-0.12584513 0.18734583 -0.27544656 -0.22289692 0.14519474 0.14361933 0.02965604 -0.104168706
-0.06719394 0.1007443 -0.1003862 -0.2844804 -0.082792185 0.11895849 0.062118094 -0.37160462
0.034357462 -0.124999955 -0.20568031 -0.04342712 -0.042494047 -0.1625096 0.15113355 0.26118594
-0.17476232 -0.019816281 -0.017710393 0.06836798 0.1683857 -0.089442626 0.13977651 0.0793416
-0.06517232 -0.111674145 -0.13665423 0.06612445 0.23280433 -0.16384126 -0.030379552 -0.1064256
0.086548045 0.25381762 0.09490475 0.22843105 -0.032537505 -0.06171722 -0.0881205 -0.011686559
-0.2715933 -0.03200909 0.07307519 -0.05202916 -0.036280166 -0.10902913 0.024037687 0.16860065
-0.05150236 -0.24665761 -0.05984242 -0.13698474 -0.22155108 -0.0023774477 0.14066923 -0.070339374
0.26799408 0.15011542 0.18200971 0.011629972 0.11711318 0.18288815 -0.24631324 -0.16713238
0.15559812 -0.038400315 -0.04689833 -0.28665343 0.17306188 0.4206262 -0.20212682 -0.14277445
-0.19245696 -0.026103938 0.08654779 -0.18858266 -0.013476422 -0.102293976 -0.03679652 0.017628983
-0.102495976 -0.21032417 -0.2970099 -0.024084974 -0.2519764 0.56612194 0.24140126 0.17905197
-0.044433318 0.23906727 0.12188006 -0.018758092 0.020605877 0.23113415 -0.32693467 -0.18703644
-0.15678687 -0.17596698 -0.033989027 -0.03545108 0.06756391 -0.27069366 0.049427517 0.098767556
-0.22722098 0.013024933 0.030683927 -0.17237508 0.13400221 0.026657134 -0.20412885 0.32087263
0.01625981 -0.23739089 -0.17336433 -0.25320157 -0.21927775 0.07678611 0.3187954 0.05645823
0.013495166 -0.008231678 -0.023482895 0.0274706 -0.34163025 -0.22684607 -0.0048771827 0.31012854
-0.09984995 -0.048324905 -0.1469261 0.21703766 0.025670178 -0.24630176 -0.2718003 0.021151213
-0.049004488 0.1119323 0.023298029 0.0050718975 0.2568134 -0.26655582 -0.38106406 -0.06343435
0.17149064 0.12669149 0.14205347 -0.016345788 -0.167312 -0.20720436 0.09926528 0.19116706
00000000: 9338 e93d edd2 1d3d fb94 653e 899a cbbd
00000010: 0b8a 84bd 3c50 c5bd 21d8 75be 55a8 8ebe
00000020: 2d96 40be af6a 5c3e 74ae 043e 67ac 69be
00000030: 4a25 903e 2e30 6cbe 6860 cbbc fc28 68be
00000040: c8f8 243e 4858 f4bc 9be2 b1bb e85f 2bbe
00000050: cb2e 933d a3eb a0bd bdfd 8b3c d27f ea3e
00000060: 1f29 823e 7f01 44bd 35c8 65be a599 31be
00000070: aaac f7bd ff0d 62be 3144 263e 3490 87be
00000080: 9f20 f9bd a672 b33d b140 9ebe 5b55 5ebd
00000090: 4882 07be cc07 24be 35b7 55bd e150 1ebe
000000a0: 7929 3bbe a73d c9bd 96b7 30bd 946e b0bd
000000b0: e85b 12bd f7f7 b5bd 0667 0c3e 4dc0 243e
000000c0: 4bd7 18bd 2484 b7bd 62d2 67be 7f33 723d
000000d0: 5f56 323e 426a 783d 9987 88be 4752 4b3e
000000e0: 5553 bf3d 0cab 6c3c a7ed 623d 2620 4d3e
000000f0: c0f7 13be 18d2 933c f843 57bd a8a4 9cbe
00000100: 8458 78bc e045 fdbd a38e 58bd 07d5 db3d
00000110: 5311 933e 32ac 52bb ae01 0d3e 0825 113d
00000120: 13d4 74bd b3cb d4bb 3e3d bd3a 13cc 82bd
00000130: 7741 eb3e 864f 213d b4c0 59bd 8d3f 30be
00000140: 75c6 6cbe 0683 7b3e 8820 6abc 3d5c 913d
00000150: 2e61 163d 124f c33d c7b8 f53c 33f7 b43d
00000160: 4d1a 1fbe 98a3 683e 31f0 49be fe90 b43d
00000170: 812f 383e 1b07 4d3d 877d 0fbf 841b 933e
00000180: 8cdd 00be 96d7 3f3e 5507 8dbe 173f 64be
00000190: eead 143e f210 133e 39f1 f23c 6756 d5bd
000001a0: fa9c 89bd 0753 ce3d 4897 cdbd 6aa7 91be
000001b0: f38e a9bd 82a0 f33d 8b6f 7e3d f642 bebe
000001c0: 69ba 0c3d faff ffbd dc9d 52be a3e0 31bd
000001d0: 3d0e 2ebd eb68 26be c1c2 1a3e 2aba 853e
000001e0: e5f4 32be c155 a2bc 6315 91bc 8304 8c3d
000001f0: 4d6d 2c3e b22d b7bd 9321 0f3e d97d a23d
00000200: 1179 85bd 6ab5 e4bd 16ef 0bbe 416c 873d
00000210: 4264 6e3e 01c6 27be 8ade f8bc aaf5 d9bd
00000220: 1a40 b13d 62f4 813e 6c5d c23d d4e9 693e
00000230: 0c46 05bd 32cb 7cbd 8578 b4bd fb78 3fbc
00000240: 470e 8bbe f71b 03bd 72a8 953d 871c 55bd
00000250: 839a 14bd aa4a dfbd afea c43c a6a5 2c3e
00000260: 23f4 52bd d093 7cbe 531d 75bd ba45 0cbe
00000270: 49de 62be f4ce 1bbb 980b 103e 170e 90bd
00000280: 8536 893e dbb7 193e c160 3a3e a38b 3e3c
00000290: 09d9 ef3d 0847 3b3e 8a39 7cbe c024 2bbe
000002a0: 1d55 1f3e a649 1dbd 7718 40bd 3dc4 92be
000002b0: 2237 313e 515c d73e 55fa 4ebe 7733 12be
000002c0: 7013 45be edd7 d5bc f83f b13d d01b 41be
000002d0: 36cc 5cbc 817f d1bd f3b7 16bd a86a 903c
000002e0: 69e9 d1bd 385f 57be ae11 98be da4d c5bc
000002f0: 0d03 81be 5eed 103f e431 773e 6659 373e
00000300: b6ff 35bd 0dce 743e 419c f93d 92aa 99bc
00000310: a8cd a83c 6eae 6c3e fb63 a7be 7b86 3fbe
00000320: bd8c 20be b030 34be 1438 0bbd 2735 11bd
00000330: f25e 8a3d 5c98 8abe 8274 4a3d a546 ca3d
00000340: 9eac 68be 8766 553c dc5c fb3c 1883 30be
00000350: e037 093e 1060 da3c 2707 51be 6b49 a43e
00000360: 4b33 853c 9916 73be 6b86 31be a3a3 81be
00000370: 598a 60be 0942 9d3d 2739 a33e bf40 673d
00000380: d41a 5d3c 29de 06bc 335f c0bc 060a e13c
00000390: 29ea aebe 564a 68be c6d0 9fbb 2bc9 9e3e
000003a0: 217e ccbd 56f0 45bd cc73 16be 1f3f 5e3e
000003b0: 444a d23c 8736 7cbe 6929 8bbe 4f45 ad3c
000003c0: eeb8 48bd c33c e53d 82db be3c 2932 a63b
000003d0: 0c7d 833e 017a 88be d41a c3be dee9 81bd
000003e0: 3e9b 2f3e 6abb 013e 7776 113e 9ae7 85bc
000003f0: d653 2bbe 612d 54be 984b cb3d 4cc1 433e

actor.4.bias f4 [32]
-0.09273475 -0.071309485 -0.31436762 -0.17098467 -0.01978095 -0.19714338 -0.042066555 -0.25578123
-0.16424221 -0.19410422 -0.2914021 -0.16624197 -0.5258006 0.00035880526 -0.14073516 -0.30393296
0.12432498 -0.22806235 -0.53842866 0.022708695 0.073598206 -0.48721516 0.013992372 -0.038338862
0.00016169764 -0.42404622 0.082435854 -0.46027175 -0.15196362 -0.3750228 -0.01912887 -0.40964904
00000000: b7eb bdbd b50a 92bd cbf4 a0be 9b16 2fbe
00000010: a90b a2bc f4df 49be fb4d 2cbd c2f5 82be
00000020: 1c2f 28be 42c3 46be a832 95be 563b 2abe
00000030: de9a 06bf 071e bc39 e11c 10be 1a9d 9bbe
00000040: 189e fe3d 2d89 69be 76d6 09bf 9607 ba3c
00000050: a8ba 963d 4474 f9be 4340 653c 3609 1dbd
00000060: 618d 2939 961c d9be 21d4 a83d bda8 ebbe
00000070: 5a9c 1bbe fd02 c0be 26b4 9cbc 85bd d1be

actor.6.weight f4 [8, 32]
0.048628792 0.15309305 -0.21269827 0.11663872 0.116746806 -0.039501358 -0.102068424 -0.22017084
-0.026357636 0.22084732 -0.064174056 0.11126119 -0.27580678 0.30116186 -0.06723963 0.0015722782
0.26912743 -0.12777123 -0.07439519 -0.075602405 -0.037557732 -0.13089892 0.28937203 -0.09310241
0.19773728 -0.26150826 -0.15588714 -0.11735811 0.18112361 -0.19416875 0.07780151 -0.17139706
-0.13787425 -0.0681536 0.012318946 -0.03286537 0.056563787 0.08301039 -0.11602214 0.040681053
0.16398756 -0.075247556 -0.027086968 -0.0127422875 -0.27739257 0.03909694 0.031715836 -0.035519022
0.286517 0.14477943 -0.25496826 0.09779024 0.25149137 0.28598353 -0.106334835 -0.18503805
-0.14776988 0.13869904 0.0885648 -0.059425328 0.07280294 0.21962428 0.010072525 -0.051512524
0.0019450919 -0.25114077 0.12628761 0.107066974 -0.077625856 -0.024264935 0.048136454 0.1265649
-0.25292903 -0.22493194 -0.27086094 0.041224066 -0.13023551 -0.15382436 0.12864798 0.011396347
-0.07613578 -0.118357725 -0.041492723 0.54601705 -0.26765275 -0.047953706 0.040452924 -0.11870451
-0.07172661 0.0064837816 -0.41145495 0.04096141 0.22926 0.011929707 -0.33066806 -0.05255838
0.039840434 -0.03623388 0.014172747 0.16783608 -0.020860929 -0.19397931 0.35532844 0.32477778
0.19634801 0.031698395 -0.15574712 0.110364735 -0.058447137 -0.038979154 -0.07674928 -0.33686492
0.005529545 -0.037952982 0.02485654 -0.23873286 0.006529523 0.18712433 -0.07016202 -0.07516223
-0.005092578 -0.07316797 -0.087614045 -0.109935366 0.10915409 -0.03826413 0.07016122 0.03908641
-0.07977425 0.09961764 0.04471454 -0.06907315 -0.32881847 -0.14814681 -0.06706332 -0.013592418
0.06231971 0.079169214 0.13411151 0.08629998 0.16330801 -0.22371711 -0.09442144 0.0020418344
-0.063246846 0.16984522 -0.0435118 -0.27152187 0.04111675 0.14588374 -0.18602149 0.15404418
0.12517396 0.29781532 -0.24214506 0.13222139 0.043433294 0.08000861 0.18573438 0.21560447
0.092446715 -0.067241594 -0.05672475 0.097806 0.18388698 0.10712555 -0.087456346 -0.048672773
0.111925304 -0.06622218 -0.22169536 -0.0047124485 -0.20911923 0.015537056 0.054735057 0.11859796
-0.16385508 0.10118323 0.16076505 -0.1055412 0.18888345 -0.17789228 -0.27642682 -0.20149128
0.077223726 0.19004373 -0.032065164 -0.03688746 -0.053270757 0.26958048 -0.014587327 -0.051018935
0.2499277 0.095779635 0.26092 -0.21143477 -0.027154908 -0.057546362 0.014423827 0.22972265
0.10605437 -0.2398269 0.21611325 -0.3586481 -0.070173405 -0.3700115 0.42680746 0.007850695
0.0719043 -0.14497589 -0.022496026 0.015555284 -0.14949612 0.05215898 0.0233718 0.21391223
0.02282199 -0.04317311 0.23083293 -0.082864136 -0.3850132 0.2709564 -0.1625883 0.02039618
0.00083177426 -0.058815897 0.20143703 0.026938537 0.19617574 -0.08285498 -0.1144611 -0.14057183
-0.020630917 0.2621699 0.033740744 -0.08404697 0.02835058 -0.19940059 -0.042102158 -0.30004287
0.024007227 0.021455724 0.1637586 -0.09510025 0.25950328 0.066614434 -0.22527182 0.005021439
0.10352591 0.07129126 -0.00032588802 0.0029832656 -0.105076246 -0.10850958 -0.05060852 -0.24786842
00000000: fc2e 473d 6dc4 1c3e 93cd 59be 48e0 ee3d
00000010: f318 ef3d 2dcc 21bd 4009 d1bd 7774 61be
00000020: f8eb d7bc cd25 623e b06d 83bd e8dc e33d
00000030: 8c36 8dbe e331 9a3e eeb4 89bd e714 ce3a
00000040: 12cb 893e 76d6 02be 815c 98bd 6fd5 9abd
00000050: 23d6 19bd 5e0a 06be 9228 943e 7aac bebd
00000060: a47b 4a3e 69e4 85be e1a0 1fbe 7359 f0bd
00000070: 7878 393e 2cd4 46be 6656 9f3d b682 2fbe
00000080: e82e 0dbe 1d94 8bbd 68d5 493c d79d 06bd
00000090: 6eaf 673d 5a01 aa3d 049d edbd 2da1 263d
000000a0: 5bec 273e 641b 9abd 7de5 ddbc 07c5 50bc
000000b0: 6606 8ebe 1d24 203d 77e8 013d 657c 11bd
000000c0: 5bb2 923e 0f41 143e 338b 82be 4046 c83d
000000d0: 7ac3 803e 6f6c 923e 14c6 d9bd 9d7a 3dbe
000000e0: fd50 17be 1f07 0e3e 7661 b53d f967 73bd
000000f0: b519 953d 30e5 603e 3b07 253c ccfe 52bd
00000100: 74f2 fe3a 8695 80be 8a51 013e ee45 db3d
00000110: 4efa 9ebd 42c7 c6bc bb2a 453d 3b9a 013e
00000120: ea7f 81be 8f54 66be 49ae 8abe 91da 283d
00000130: 755c 05be 2284 1dbe 4cbc 033e beb7 3a3c
00000140: 13ed 9bbd 8965 f2bd 46f4 29bd c6c7 0b3f
00000150: c809 89be 1b6b 44bd f7b1 253d 5a1b f3bd
00000160: 67e5 92bd e775 d43b 39aa d2be 27c7 273d
00000170: 22c3 6a3e d174 433c 534d a9be 7547 57bd
00000180: b92f 233d fa69 14bd cf34 683c 39dd 2b3e
00000190: 8ae4 aabc 83a2 46be 9ced b53e 4649 a63e
000001a0: 740f 493e 2dd6 013d 2c7c 1fbe e806 e23d
000001b0: 4466 6fbd 9ba8 1fbd ba2e 9dbd 8f79 acbe
000001c0: 2f31 b53b 9674 1bbd f19f cb3c 6376 74be
000001d0: 9cf5 d53b 859d 3f3e 1bb1 8fbd a8ee 99bd
000001e0: a4df a6bb 17d9 95bd fe6e b3bd cb25 e1bd
000001f0: 2e8c df3d d9ba 1cbd b0b0 8f3d 1219 203d
00000200: af60 a3bd 5504 cc3d 9826 373d 3976 8dbd
00000210: e55a a8be ccb3 17be 7e58 89bd bcb2 5ebc
00000220: f442 7f3d 7823 a23d 8754 093e 0bbe b03d
00000230: 373a 273e 1916 65be 0760 c1bd 4cd0 053b
00000240: 9087 81bd e8eb 2d3e 6e39 32bd ea04 8bbe
00000250: 0a6a 283d 8c62 153e 6b7c 3ebe c2bd 1d3e
00000260: 9a2d 003e 407b 983e e0f4 77be 0b65 073e
00000270: 1ce7 313d 8edb a33d 2731 3e3e 6bc7 5c3e
00000280: b454 bd3d f6b5 89bd 3658 68bd 834e c83d
00000290: de4c 3c3e a464 db3d 501c b3bd 1a5d 47bd
000002a0: 1839 e53d 7f9f 87bd 1c04 63be e26a 9abb
000002b0: 5a23 56be 238f 7e3c de31 603d 7de3 f23d
000002c0: a0c9 27be 2739 cf3d 989f 243e fc25 d8bd
000002d0: aa6a 413e 6529 36be d187 8dbe bb53 4ebe
000002e0: 7927 9e3d d39a 423e c356 03bd 4e17 17bd
000002f0: 7032 5abd 7406 8a3e afff 6ebc 3bf9 50bd
00000300: 0ced 7f3e 1d28 c43d 4e97 853e 5b82 58be
00000310: f873 debc bcb5 6bbd ea51 6c3c 6a3c 6b3e
00000320: 0933 d93d 2f95 75be cb4c 5d3e b9a0 b7be
00000330: 13b7 8fbd 2672 bdbe 8286 da3e 34a0 003c
00000340: 9042 933d 8f74 14be 9649 b8bc 97db 7e3c
00000350: 8315 19be a8a4 553d 3876 bf3c cf0b 5b3e
00000360: 2ff5 ba3c 49d6 30bd 785f 6c3e acb4 a9bd
00000370: 7320 c5be ccba 8a3e 8c7d 26be e415 a73c
00000380: 6d0b 5a3a f0e8 70bd 8245 4e3e 35ae dc3c
00000390: 4be2 483e dfaf a9bd 956a eabd 10f2 0fbe
000003a0: 2b02 a9bc 223b 863e bc33 0a3d d120 acbd
000003b0: 7a3f e83c ab2f 4cbe 5073 2cbd 389f 99be
000003c0: ceaa c43c eac3 af3c 56b0 273e ebc3 c2bd
000003d0: 9ddd 843e 266d 883d a8ad 66be e28a a43b
000003e0: 6405 d43d 2701 923d f3db aab9 e482 433b
000003f0: 3732 d7bd 453a debd e14a 4fbd 38d1 7dbe

actor.6.bias f4 [8]
0.28593418 0.028999275 -0.17630929 0.1549547 -0.29986316 -0.0085177375 -0.04049389 0.33327916
00000000: f765 923e e38f ed3c 6c8a 34be 72ac 1e3e
00000010: aa87 99be fb8d 0bbc ecdc 25bd 91a3 aa3e

critic.0.weight f4 [128, 33]
0.36870086 0.3396859 0.38689893 0.09386569 -0.62843436 0.49957964 0.13241918 -0.6789493
0.46912393 1.0613581 -0.005478656 -0.121914364 -0.33992055 0.09173272 1.2808082 1.0830216
-0.31390026 0.18233562 -0.01905836 -0.20524672 -0.11264211 -0.12647064 -0.0044588223 0.07052278
-0.09419686 -0.015756471 0.031569775 0.09197802 -0.015488738 0.015253528 0.13276449 -0.20652997
3.053142 0.25272435 0.43928596 0.24935406 0.09772504 -0.21917059 0.81670475 0.28992188
-0.3210949 0.65637904 1.0952888 -0.29128614 0.4011478 0.54247385 -0.5753821 0.18236221
2.4708936 -0.8468273 -0.066521354 -0.38281026 0.83905214 0.18431479 -0.17598176 0.0043075443
0.08709485 -0.062314067 -0.15244521 0.061780784 0.050374106 0.07328919 -0.03961693 0.2441515
0.15797009 -1.7541913 0.47623274 -0.20736012 0.15949984 -0.06103134 0.15765502 -0.36834577
-0.7760567 0.43863827 -0.4369578 -0.5225754 0.23315117 0.31967047 -0.25459915 0.62411046
0.4868823 -2.4238517 1.3112965 -0.021532016 0.251397 -0.8263623 1.3903381 0.26185158
0.0045486544 -0.13420421 -0.06782331 0.07727841 0.10858877 -0.24039589 -0.2904558 0.0951846
-0.22288659 0.16788931 -0.09778695 -0.29074514 0.5003961 0.020227566 -0.41237095 -0.26640418
0.049159534 0.39607254 1.4508332 -0.27868214 0.105869785 -0.68939644 1.2296289 -0.62203455
0.60744697 0.016987167 0.8771602 -1.0279605 0.08922348 0.09980562 0.09300493 -0.70556283
-0.19964512 -0.0076340716 0.13270839 0.08861082 0.23688826 -0.058652885 0.05505728 0.029489102
0.20412757 0.29937905 -0.29471332 0.723987 0.19938448 -0.085871205 -0.010168766 -0.7413853
-0.16392781 0.08253938 -0.5376438 -0.6920988 -0.13165317 -0.072837286 0.43837547 -0.10224338
-0.09265914 0.09856396 -0.413666 -0.2302681 -0.028230006 -0.050394244 0.28175452 -0.3447936
0.25719413 -0.038822632 0.0681144 -0.0048570707 0.047908343 -0.025743045 0.045649387 -0.10794276
0.003113592 -0.17627817 0.49896958 0.08056967 -0.07427048 -0.14711875 -0.30554014 -0.26249427
-0.6059857 -0.07129652 -0.5662833 0.006596434 -0.39062455 0.44034815 0.24952438 0.23163745
0.763776 -0.08750844 -0.19092879 -0.5523599 -0.5565328 -0.0899801 0.07925779 -0.41025442
0.4063351 0.049783036 -0.011501463 0.047648914 0.05537814 0.044353727 0.036933728 -0.06922169
0.0016091375 0.020490948 0.032566857 0.35907704 -0.22662814 0.01678378 0.21145406 -0.43471742
-0.3125934 -0.45915902 -0.15146749 -0.31808752 -0.2831702 -0.104690574 0.18369938 -0.2520625
0.4611286 0.5236167 -0.19338407 -0.46760422 -0.08634405 -0.99301285 0.9445336 -0.010225623
-0.1358902 0.37516236 0.29773515 -0.0058727222 -0.09098397 -0.009733276 -0.055527758 0.048102375
0.044291377 0.1027587 -0.04144639 -0.06687542 -0.27689278 -0.27868146 0.2225274 -0.14750873
0.2767915 -0.66214585 1.0318196 0.29127467 1.4242694 0.44025207 -0.54948103 -0.1595093
-0.34753862 -0.30948073 -0.5838414 -1.1061082 0.38753304 0.37124202 0.13575147 -0.3108366
-0.27669847 -0.21868709 -1.0038869 -0.2519011 0.22851577 -0.028714232 -0.063141555 0.1626178
00000000: 5cc6 bc3e 4feb ad3e 9e17 c63e a83c c03d
00000010: 13e1 20bf e7c8 ff3e e598 073e 9fcf 2dbf
00000020: 0331 f03e 95da 873f 4c86 b3bb 3dae f9bd
00000030: 110a aebe 5dde bb3d 86f1 a33f 74a0 8a3f
00000040: 89b7 a0be 30b6 3a3e 4720 9cbc 322c 52be
00000050: e8b0 e6bd 8581 01be 501b 92bb 3f6e 903d
00000060: 49ea c0bd b713 81bc 4f4f 013d f95e bc3d
00000070: 7ac4 7dbc efe9 793c 6af3 073e 987c 53be
00000080: ae66 4340 1665 813e 17ea e03e ac56 7f3e
00000090: 1124 c83d 416e 60be 9013 513f a470 943e
000000a0: 8d66 a4be 7508 283f 6c32 8c3f 7523 95be
000000b0: 3f63 cd3e 91df 0a3f 3e4c 13bf 29bd 3a3e
000000c0: 1f23 1e40 adc9 58bf 593c 88bd b5ff c3be
000000d0: 1fcc 563f 04bd 3c3e 9034 34be 4d26 8d3b
000000e0: c95e b23d 093d 7fbd 991a 1cbe d90d 7d3d
000000f0: 1455 4e3d a518 963d 5d45 22bd da02 7a3e
00000100: e9c2 213e 5789 e0bf c7d4 f33e 3656 54be
00000110: ed53 233e 00fc 79bd 5170 213e d197 bcbe
00000120: a7ab 46bf 3295 e03e efb8 dfbe 80c7 05bf
00000130: 2ebf 6e3e d9ab a33e d25a 82be b4c5 1f3f
00000140: a348 f93e 6320 1bc0 90d8 a73f e963 b0bc
00000150: 1cb7 803e 7b8c 53bf 99f6 b13f 6911 863e
00000160: e10c 953b d46c 09be f3e6 8abd 2544 9e3d
00000170: ca63 de3d 572a 76be 9fb6 94be 25f0 c23d
00000180: 623c 64be 2deb 2b3e 8644 c8bd 8cdc 94be
00000190: f519 003f 48b4 a53c 4922 d3be 2166 88be
000001a0: 825b 493d 05ca ca3e e7b4 b93f 6daf 8ebe
000001b0: 42d2 d83d 497c 30bf 7b64 9d3f a83d 1fbf
000001c0: a581 1b3f ac28 8b3c 928d 603f 3694 83bf
000001d0: cdba b63d e466 cc3d 5e79 be3d c49f 34bf
000001e0: c56f 4cbe 3c27 fabb b5e4 073e 9779 b53d
000001f0: d692 723e 023e 70bd be83 613d 2193 f13c
00000200: d106 513e 3648 993e aae4 96be 3657 393f
00000210: 722b 4c3e 3edd afbd e59a 26bc 6dcb 3dbf
00000220: b1dc 27be 680a a93d 06a3 09bf 632d 31bf
00000230: 17d0 06be b72b 95bd c072 e03e fa64 d1bd
00000240: 13c4 bdbd e7db c93d 08cc d3be 67cb 6bbe
00000250: 9d42 e7bc 326a 4ebd 2142 903e c988 b0be
00000260: f3ae 833e 7b04 1fbd 907f 8b3d 1028 9fbb
00000270: 8a3b 443d 14e3 d2bc dafa 3a3d 1811 ddbd
00000280: 680d 4c3b 4482 34be f178 ff3e b601 a53d
00000290: 1f1b 98bd 4ca6 16be c26f 9cbe a665 86be
000002a0: e121 1bbf e903 92bd f1f7 10bf e626 d83b
000002b0: f1ff c7be 5075 e13e 5283 7f3e 5e32 6d3e
000002c0: d386 433f a037 b3bd d682 43be 7567 0dbf
000002d0: ef78 0ebf 7d47 b8bd e951 a23d de0c d2be
000002e0: 270b d03e 4ce9 4b3d a270 3cbc 822b 433d
000002f0: 30d4 623d 41ac 353d d247 173d 1ac4 8dbd
00000300: b2e9 d23a a2dc a73c d364 053d f2d8 b73e
00000310: 3511 68be 237e 893c 6a87 583e 4893 debe
00000320: 3e0c a0be e416 ebbe 4b1a 1bbe 5edc a2be
00000330: affb 90be 0368 d6bd b11b 3c3e 560e 81be
00000340: 0c19 ec3e be0b 063f 7906 46be d269 efbe
00000350: 26d5 b0bd 1736 7ebf f4cc 713f 5f89 27bc
00000360: cd26 0bbe 4815 c03e be70 983e f76f c0bb
00000370: ce55 babd 5278 1fbc 1371 63bd ff06 453d
00000380: e06a 353d 2773 d23d b1c3 29bd fbf5 88bd
00000390: e4c4 8dbe 56af 8ebe 39de 633e 870c 17be
000003a0: 9eb7 8d3e 6482 29bf aa12 843f f421 953e
000003b0: 764e b63f b868 e13e caaa 0cbf 6856 23be
000003c0: 95f0 b1be 4274 9ebe a176 15bf f494 8dbf
000003d0: bb6a c63e 6f13 be3e 6f02 0b3e fa25 9fbe
000003e0: 6cab 8dbe 82ef 5fbe 5e7f 80bf 2ef9 80be
000003f0: 0a00 6a3e 1c3a ebbc 5c50 81bd 4885 263e

critic.0.bias f4 [128]
-0.41386062 -0.4935795 0.038894005 -0.1009542 0.506794 -0.32005927 0.18127233 -0.34505543
0.26884964 -0.37064007 0.13772516 0.0782923 -0.08381121 -0.30387223 -0.16176264 -0.4994203
0.30257088 -0.12553933 -0.15807149 0.37998244 0.4615083 0.13842674 0.07706409 -0.40956378
-0.14559385 0.52481925 -0.10797761 -0.31022286 -0.12931554 -0.12432011 0.33789536 -0.39033586
-0.40885538 -0.3842223 -0.48465145 -0.1384126 0.3750436 0.0038290469 0.08547237 0.11662263
0.11152022 -0.4775277 -0.30060804 0.14922132 0.36515373 -0.01999655 0.12702481 -0.38261336
0.05228915 -0.24255726 0.2833802 -0.07379435 0.08254784 -0.6460331 0.008906953 -0.09036507
0.28319502 -0.51350343 -0.015465416 -0.11783657 0.2802472 -0.5109339 -0.40841517 0.32420826
0.0809585 0.20366843 -0.13312879 -0.48769274 0.055975363 -0.029317372 -0.18475261 0.025750604
-0.5171459 -0.1965333 0.37139165 -0.30522943 -0.236307 -0.37984595 -0.5927277 0.47403142
-0.3654859 -0.037667606 0.014689116 0.30095643 0.22057524 -0.0060337777 -0.32602125 0.24924926
0.4413306 -0.37172517 0.2366797 -0.15332288 0.17115653 -0.3452702 0.0104681505 -0.09469026
-0.44368827 0.38928127 -0.28014633 0.34276727 0.08078276 0.4772978 0.40166995 0.47531405
-0.05423256 0.22815569 0.22413243 0.2522537 0.33955652 0.040874664 0.38905054 0.007634587
0.22059104 -0.24361166 -0.051975444 0.022764796 0.20646927 0.004595907 -0.17968978 -0.4286339
0.041220482 0.11461677 0.16824119 -0.4701028 0.08522032 -0.32620847 0.09981093 0.29177
00000000: 8ae5 d3be 74b6 fcbe 524f 1f3d 13c1 cebd
00000010: 40bd 013f cfde a3be 749f 393e 1bab b0be
00000020: a9a6 893e 89c4 bdbe d307 0d3e b757 a03d
00000030: 36a5 abbd 2495 9bbe 1ba5 25be 04b4 ffbe
00000040: 92ea 9a3e 628d 00be 7edd 21be 0f8d c23e
00000050: d14a ec3e bdbf 0d3e c7d3 9d3d 58b2 d1be
00000060: 8e16 15be 8e5a 063f 5d23 ddbd 88d5 9ebe
00000070: 4b6b 04be 8b9b febd 9f00 ad3e 1ada c7be
00000080: 7e55 d1be c9b8 c4be 3c24 f8be 08bc 0dbe
00000090: b705 c03e bff0 7a3b 230c af3d d8d7 ee3d
000000a0: b764 e43d 837e f4be 4ce9 99be 79cd 183e
000000b0: 6ef5 ba3e cecf a3bc cb12 023e e6e5 c3be
000000c0: 262d 563d ee60 78be 3617 913e 7e21 97bd
000000d0: d80e a93d 6d62 25bf 78ee 113c 5211 b9bd
000000e0: f0fe 903e f674 03bf a862 7dbc 4d54 f1bd
000000f0: 907c 8f3e 90cc 02bf cb1b d1be a0fe a53e
00000100: 92cd a53d 758e 503e ea52 08be ddb2 f9be
00000110: 6c46 653d fc2a f0bc ca2f 3dbe eef2 d23c
00000120: ac63 04bf 0740 49be 0c27 be3e 0847 9cbe
00000130: 76fa 71be 2b7b c2be 01bd 17bf 3fb4 f23e
00000140: f820 bbbe 5949 1abd 9eaa 703c f616 9a3e
00000150: 7ade 613e ffb6 c5bb 42ec a6be 333b 7f3e
00000160: 16f6 e13e c352 bebe 2a5c 723e ac00 1dbe
00000170: a843 2f3e 41c7 b0be 9b82 2b3c f8ec c1bd
00000180: 1c2b e3be e04f c73e 576f 8fbe 317f af3e
00000190: 6f71 a53d 6160 f43e afa7 cd3e 5d5c f33e
000001a0: f622 5ebd a5a1 693e f982 653e 6627 813e
000001b0: 5ada ad3e 316c 273d a231 c73e 8f2b fa3b
000001c0: 9ee2 613e 5675 79be 34e4 54bd 3d7d ba3c
000001d0: ae6c 533e 4399 963b 9900 38be e775 dbbe
000001e0: cfd6 283d 32bc ea3d 6b47 2c3e 50b1 f0be
000001f0: fe87 ae3d cc04 a7be ac69 cc3d e162 953e

critic.2.weight f4 [64, 128]
0.2888936 0.2939847 -0.14231303 -0.14187789 -0.18408808 0.20584539 0.09528201 0.27088588
-0.21674195 -0.007265057 -0.20404285 -0.13314348 -0.0833838 0.5222463 0.114139766 -0.006783662
0.31804857 0.17178254 0.22425038 -0.34317425 -0.35494262 0.009717752 0.15305983 0.352015
0.24000369 -0.24008168 -0.13185401 -0.11747257 -0.5677685 -0.16854842 0.1347498 0.079573125
0.35347298 0.21148083 -0.35031635 -0.01668581 -0.2240065 0.4940604 -0.06347749 -0.061189495
-0.08056669 0.4338025 -0.016963402 0.22786047 -0.3209032 -0.24788237 0.3528154 0.14267673
-0.21159735 -0.18124548 -0.032815427 -1.7149645 0.07099929 0.49930483 0.31992096 -0.10678889
0.27122042 -0.095481955 -0.111228414 -0.2933532 0.07707584 0.051108763 -0.031473838 0.11328985
0.06162383 0.012081113 -0.094289735 0.21863553 -0.24779353 -0.21952337 0.01719093 -0.35841617
0.24807261 -0.035009835 -0.23372255 0.24558726 0.2882519 -0.1365486 0.09551644 0.066504925
0.13427067 -0.16941233 -0.163856 -0.12258098 -0.1527651 -0.14873917 -0.11802572 -0.2786041
0.014290652 0.20170005 0.05743323 0.08110581 -0.054810937 0.40880173 -0.12805669 0.22568747
0.19454433 0.15137264 0.37215045 -0.08192077 -0.08587403 -0.10236726 -0.03845299 -0.047304288
-0.4662716 -0.5819387 0.03234841 -0.22990201 -0.49849078 -0.2726838 0.11175231 0.011118347
-0.281867 0.019157043 -0.030556994 -0.60347754 -0.1621549 0.26618218 0.60264 0.019349687
0.10048302 -0.008069607 -0.21707751 0.18236575 0.2724685 0.089403026 -0.42939106 0.05996472
0.100230224 0.007537126 -0.28817058 -0.23771806 0.19041678 -0.25808007 -0.22875717 0.29368418
-0.03519278 -0.10384831 0.042758066 0.10961781 -0.14311473 -0.38566488 0.046877332 0.25510576
-0.00242986 -0.48541453 0.057168763 -0.20435734 0.4329456 -0.3343884 -0.13839188 -0.26913482
-0.22950183 -0.05465576 -0.02630799 -0.07344545 -0.04695704 -0.03699606 0.15756337 -0.61617357
0.27214494 -0.8894594 -0.42718548 -0.1662562 0.04847219 0.07542063 0.48157197 -0.1602352
0.71032184 0.30073664 -1.0348191 -0.2020045 0.22971469 -0.3531942 0.16627988 -0.61977834
-0.27352834 -0.097571515 0.1568838 -0.33264953 -0.1909222 0.2813123 0.33826292 -0.0112092
0.15115981 0.37211362 -0.103076905 0.31726822 0.05672305 -0.33033836 -0.3148362 0.2898302
0.24757682 0.28471327 -0.4271566 0.11898328 0.0033961914 0.20271374 0.390753 0.1615121
0.19064455 -0.48720965 0.50193644 -0.3166504 -0.4002979 -0.36391675 0.17379433 0.21706672
-0.6937489 -0.08544628 -0.19041763 0.9817122 0.053459782 -0.35624376 0.15625037 0.1566665
-0.07720539 -0.43670207 0.13011922 -0.12135707 0.1380206 0.5407255 -0.3716926 -0.053721428
-0.2287601 -0.03748718 0.42130572 0.2722451 0.106576465 -0.097491816 0.03803278 0.026326478
-0.37432742 0.2780774 -0.7712988 0.31773356 0.047065925 0.6470503 0.16195105 -0.006078854
-0.13969094 -0.14790218 0.09471133 0.03475428 -0.32186064 0.19929834 0.8395159 0.34260422
-0.0522733 0.36070675 0.0020964337 0.54828036 0.51853245 -0.13170311 -0.3307329 0.30486375
00000000: dde9 933e 2a85 963e 82ba 11be 7048 11be
00000010: 9681 3cbe 22c9 523e 3723 c33d 8eb1 8a3e
00000020: 9af1 5dbe b70f eebb 9cf0 50be c456 08be
00000030: 20c5 aabd efb1 053f 1cc2 e93d 7b49 debb
00000040: 43d7 a23e c3e7 2f3e e4a1 653e 89b4 afbe
00000050: 0abb b5be 3537 1f3c b7bb 1c3e 4f3b b43e
00000060: 87c3 753e f9d7 75be bd04 07be 7595 f0bd
00000070: 4759 11bf f597 2cbe dafb 093e 3cf7 a23d
00000080: 69fa b43e 6e8e 583e aa5c b3be aeb0 88bc
00000090: f661 65be 7cf5 fc3e 7c00 82bd d6a1 7abd
000000a0: 2600 a5bd 5c1b de3e d5f6 8abc 4154 693e
000000b0: 6d4d a4be e0d4 7dbe 38a4 b43e d919 123e
000000c0: faac 58be 6a98 39be 7869 06bd f583 dbbf
000000d0: 1368 913d e2a4 ff3e aecc a33e 22b4 dabd
000000e0: 67dd 8a3e 0b8c c3bd b9cb e3bd 6432 96be
000000f0: f0d9 9d3d 6c57 513d b6ea 00bd 8204 e83d
00000100: 4569 7c3d dcef 453c fa1a c1bd fee1 5f3e
00000110: 96bd 7dbe bcca 60be fed3 8c3c 5382 b7be
00000120: bf06 7e3e 7966 0fbd f754 6fbe 3a7b 7b3e
00000130: c195 933e 65d3 0bbe 209e c33d bc33 883d
00000140: 407e 093e 6d7a 2dbe dec9 27be bd0b fbbd
00000150: 746e 1cbe 154f 18be 78b7 f1bd 32a5 8ebe
00000160: 5723 6a3c 758a 4e3e 1b3f 6b3d ce1a a63d
00000170: 6f81 60bd 764e d13e 4b21 03be 9e1a 673e
00000180: a136 473e 6e01 1b3e 818a be3e 14c6 a7bd
00000190: b9de afbd eda5 d1bd e280 1dbd 24c2 41bd
000001a0: 27bb eebe eff9 14bf c47f 043d 6f6b 6bbe
000001b0: 2f3a ffbe 369d 8bbe 65de e43d ba29 363c
000001c0: df50 90be 3bef 9c3c a952 fabc 817d 1abf
000001d0: ef0b 26be 0849 883e 9d46 1a3f 3c83 9e3c
000001e0: 0bca cd3d 6336 04bc 9149 5ebe 16be 3a3e
000001f0: fe80 8b3e ef18 b73d 25d9 dbbe 919d 753d
00000200: 8145 cd3d fff9 f63b 188b 93be 5d6c 73be
00000210: 9efc 423e 1223 84be 523f 6abe c65d 963e
00000220: 4e26 10bd 6cae d4bd 1523 2f3d 4d7f e03d
00000230: ab8c 12be de75 c5be 7202 403d 399d 823e
00000240: 493e 1fbb 4188 f8be cb29 6a3d 0d43 51be
00000250: 0cab dd3e f534 abbe 9ab6 0dbe 0acc 89be
00000260: 8702 6bbe b8de 5fbd db83 d7bc 916a 96bd
00000270: 0656 40bd 2e89 17bd 4b58 213e 8dbd 1dbf
00000280: 9556 8b3e 9cb3 63bf 0eb8 dabe 113f 2abe
00000290: c68a 463d 2276 9a3d 9a90 f63e b214 24be
000002a0: a7d7 353f 27fa 993e f474 84bf 45da 4ebe
000002b0: 543a 6b3e dfd5 b4be 4645 2a3e cba9 1ebf
000002c0: e80b 8cbe 93d3 c7bd 26a6 203e 0a51 aabe
000002d0: 1c81 43be 2a08 903e cc30 ad3e cba6 37bc
000002e0: a3c9 1a3e ad85 be3e fc19 d3bd fb70 a23e
000002f0: 6e56 683d 1c22 a9be 3632 a1be a064 943e
00000300: c784 7d3e f0c5 913e 45b4 dabe 82ad f33d
00000310: a392 5e3b 3194 4f3e c710 c83e 6e63 253e
00000320: 5338 433e 8b73 f9be e87e 003f 0020 a2be
00000330: d9f3 ccbe 4c53 babe 24f7 313e bd46 5e3e
00000340: 8799 31bf 76fe aebd d7fc 42be 7e51 7b3f
00000350: a5f8 5a3d 9565 b6be 1900 203e 2f6d 203e
00000360: dc1d 9ebd 6a97 dfbe f93d 053e 0e8a f8bd
00000370: 4655 0d3e fd6c 0a3f 7e4e bebe 000b 5cbd
00000380: 1640 6abe 288c 19bd 62b5 d73e b663 8b3e
00000390: c344 da3d caa9 c7bd 43c8 1b3d a0aa d73c
000003a0: d8a7 bfbe 2960 8e3e d773 45bf f9ad a23e
000003b0: 33c8 403d 17a5 253f 7fd6 253e 2031 c7bb
000003c0: 240b 0fbe ab73 17be 04f8 c13d 815a 0e3d
000003d0: ebca a4be dd14 4c3e 84ea 563f d269 af3e
000003e0: 871c 56bd 8eae b83e 5264 093b 1a5c 0c3f
000003f0: 8bbe 043f 2edd 06be d355 a9be 1a17 9c3e

critic.2.bias f4 [64]
-0.26446983 -0.21002491 0.20708248 0.33038354 -0.06879522 -0.46742427 -0.5219792 -0.5697289
-0.20117325 -0.34589884 -0.28085902 -0.05934105 -0.33330643 0.2539743 0.22385132 0.11144727
0.23013917 -0.26473135 -0.21824552 -0.42904449 -0.16063094 0.19510572 -0.35393375 0.047102746
0.06545074 0.16712135 0.018433174 -0.3262115 -0.15298544 -0.1285951 0.42074123 0.23600385
0.055665966 0.07495444 0.52193856 -0.17540461 0.07060945 -0.44868764 0.053354334 0.22738443
0.24488318 0.24556167 -0.27541402 -0.04299292 0.021134863 -0.4326594 -0.492485 -0.15501887
-0.04344472 0.35045326 0.04818388 0.08104184 -0.16236378 -0.033730377 -0.34698159 -0.016885847
-0.21925162 -0.0970755 -0.4488894 0.2895904 -0.2091697 -0.45938438 -0.5373184 0.009523124
00000000: 9768 87be c510 57be 6e0d 543e 0828 a93e
00000010: 82e4 8cbd 3c52 efbe 6ea0 05bf c1d9 11bf
00000020: 5c00 4ebe a719 b1be c1cc 8fbe 9a0f 73bd
00000030: 24a7 aabe eb08 823e 4839 653e 773e e43d
00000040: 9aa9 6b3e de8a 87be c17b 5fbe b8ab dbbe
00000050: 707c 24be cbc9 473e ce36 b5be cfee 403d
00000060: 0a0b 863d dc21 2b3e 2b01 973c 3205 a7be
00000070: 37a8 1cbe 6fae 03be 656b d73e feaa 713e
00000080: ff01 643d b781 993d c49d 053f 449d 33be
00000090: b09b 903d 63ba e5be 138a 5a3d 77d7 683e
000000a0: a8c2 7a3e 8574 7b3e 1103 8dbe 5819 30bd
000000b0: 0523 ad3c 8885 ddbe fe26 fcbe 44bd 1ebe
000000c0: 17f3 31bd 9c6e b33e 765c 453d 44f9 a53d
000000d0: b142 26be dd28 0abd 92a7 b1be 3054 8abc
000000e0: 7f83 60be 85cf c6bd d5d4 e5be 3145 943e
000000f0: 9530 56be 6e34 ebbe b38d 09bf e106 1c3c
