legged_gym/logs/tron1/Mar26_09-33-42_track_3.0_feet_contact_force_-0.0035_stand_still_-1.5_base_height+0.1_feet_regulation_-0.15_track_contacts/model_1600.pt (torch, 376290 bytes, 48 tensors)

std f4 [8]
000000 15 1c 04 3f c7 24 da 3e c8 18 00 3f 9e 86 c8 3e
       0.5160535 0.42606184 0.50037813 0.39165205
000010 7a 9d 01 3f 18 81 e0 3e 8a 48 01 3f 37 26 cc 3e
       0.50630915 0.4384849 0.5050131 0.39872906

actor.0.weight f4 [128, 33]
000000 da 73 f7 be f3 07 57 3f 89 a0 66 3e 4e a5 27 3f
       -0.48330575 0.83996505 0.22522177 0.6548661
000010 b1 17 e9 3c 17 7c 0f 3f 0a 8a 8d be 78 0e e3 be
       0.02845368 0.5604872 -0.27644378 -0.44346976
000020 f9 87 ff 3e 22 9e d8 3e e8 02 fe be 6d 1a 28 bf
       0.49908426 0.42308146 -0.49611592 -0.6566532
000030 55 19 ee be 4c 2b 8c 3e 44 65 44 bf a1 d7 22 3f
       -0.46503702 0.27376783 -0.7671702 0.63610274
000040 b5 65 18 bf 02 d4 e9 3d 3e 91 b8 3e ab d9 58 bf
       -0.5953019 0.114173904 0.3604831 -0.84707135
000050 7d 33 ee be 93 30 15 3e 03 79 8d 3c e2 b6 11 3e
       -0.46523657 0.14569311 0.017269617 0.1422992
000060 3b f3 62 bd 8f 6f 2d 3e 95 7a ef 3a 24 52 c0 bd
       -0.055407744 0.16937087 0.0018270785 -0.09390667
000070 d4 b1 69 3c d3 69 93 bd c5 4f bb 3e 32 75 1b be
       0.014263589 -0.07197919 0.36584297 -0.15181425
000080 8a a7 88 3d 27 d0 90 bd 0e 47 74 bf 43 ba 0d be
       0.066725805 -0.07070952 -0.9542092 -0.13840584
000090 cc 3b b3 be c3 29 8a 3f 29 94 96 3e 00 7a 9a bf
       -0.3500656 1.0793995 0.29409912 -1.2068481
0000a0 2b 92 dc be 93 c2 7c be 4f 9e f3 be 35 91 06 3f
       -0.43080267 -0.24683599 -0.47581717 0.5256532
0000b0 71 2e 0f 3a fa 52 93 3e 0c b9 08 3e 06 33 9c be
       0.00054619374 0.28774244 0.1335184 -0.30507678
0000c0 0d 0e a1 bf 78 b8 00 3f 7c 75 1f 3e 44 dd 01 3d
       -1.2582413 0.50281477 0.1557216 0.031705156
0000d0 f9 ee 12 be 5e a4 0c be 2b 17 23 bd 6f 1d d0 3d
       -0.14348973 -0.13734576 -0.039817017 0.10161864
0000e0 2d 88 c1 bb a3 ae 7c bc b1 0c 32 3e ba 37 02 be
       -0.005906126 -0.015422496 0.17387654 -0.1271657
0000f0 67 6d 6a bd 44 5f 0d 3e e4 d9 d5 3d 0c 4d a9 bc
       -0.05723324 0.13805872 0.1044195 -0.020666622
000100 81 9f a8 3e 35 2f 89 bd 3e a9 16 be 0d 42 a6 be
       0.32934192 -0.06698457 -0.14712998 -0.32472268
000110 d5 8e d5 3c b8 49 35 bf 23 e8 e7 3a c8 77 85 be
       0.026069084 -0.7081561 0.0017693084 -0.26067948
000120 ec c9 a7 bf 54 3b f2 be e3 fc 6e 3e 0d 84 fb 3d
       -1.3108497 -0.4731089 0.23338656 0.12281046
000130 bd 46 5f 3f 21 73 18 3f 8e 75 8c 3e ae cb fd be
       0.87217313 0.5955067 0.27433437 -0.49569458
000140 f8 91 98 be 46 08 20 bf 2d bb 3e 3e 57 58 8c 3e
       -0.29798865 -0.62512624 0.1862609 0.27411148
000150 50 e7 59 bd df 89 8a 3d ad 82 7a bd 48 ba d7 3d
       -0.053199112 0.06764578 -0.06115978 0.10533577
000160 ac cc ea bd 5b af 3f 3d 07 45 94 3b f4 d7 57 bc
       -0.11464819 0.04679809 0.0045248303 -0.013174046
000170 a0 81 45 bc cc 88 33 3d 50 b7 6f bd 71 be d4 3d
       -0.012054831 0.04383163 -0.05852443 0.10387886
000180 38 a5 7d 3d 59 07 ac be 6c d8 ee be ac 3d 03 bf
       0.061925143 -0.33599356 -0.46649492 -0.5126598
000190 fe 6c 32 3e 3e a3 5e be ca 2c 91 3d b5 a7 57 3f
       0.1742439 -0.2174196 0.07088621 0.84240276
0001a0 73 b0 f1 bd 7c e1 a6 bf 3f 16 0d bf 92 6f bf 3d
       -0.11801233 -1.3037562 -0.5511207 0.09347452
0001b0 27 f6 01 3f e1 13 45 3f a7 cd 25 bf d0 ff ab 3e
       0.50766224 0.7698346 -0.64766926 0.33593607
0001c0 2c 5b fb bd 3f 65 4b bf 24 d8 24 3f 95 e8 6e be
       -0.12273249 -0.79451364 0.64392304 -0.2333091
0001d0 af 72 d0 bc af 35 20 be a6 d9 91 3e b9 db 78 3d
       -0.02544531 -0.15645479 0.28486365 0.06075642
0001e0 33 4b 77 bd 00 a8 e5 3d 0e 19 73 bc 1e a1 94 3d
       -0.06037445 0.11213684 -0.0148375165 0.07257293
0001f0 e3 f6 4a be cc f7 b4 bc 9e e8 08 bd e1 71 35 be
       -0.19820742 -0.022090815 -0.033424966 -0.17719223
000200 7a f4 cb bd 4d be 9a 3e a3 a9 f5 bd 7b e3 ac bd
       -0.099587396 0.30223313 -0.11995246 -0.08441826
000210 91 05 0c bf 54 8f b2 3e 47 c9 20 3d 67 13 b8 3f
       -0.54695994 0.34874976 0.039254453 1.4380921
000220 b8 16 1c 3e b1 71 1c 3f c0 6e c6 3d 3e 40 99 bd
       0.15243042 0.6111098 0.09689093 -0.07482956
000230 e2 5f e5 3d ff e1 b6 3e 35 cf 10 3e 45 f1 3c bf
       0.11199929 0.35719296 0.14141543 -0.7380565
000240 b0 fb 1a 3f 8f 7d 24 bd 28 c8 a5 bf 89 2c 40 3f
       0.60540295 -0.040158805 -1.2951708 0.75067955
000250 ff 16 11 bf a6 7c bf be 98 cd a6 bd da 16 cd bd
       -0.56675714 -0.37399787 -0.08144683 -0.10014124
000260 a1 f0 51 3e f5 f1 ed bd c8 e0 08 bd 56 ae ee 3d
       0.20501949 -0.11618415 -0.033417493 0.11654346
000270 f2 06 35 bd 53 1b 1a be cb 7a af 3c 1d 64 f8 3c
       -0.044196077 -0.15049486 0.021420857 0.030321175
000280 60 df 4a be f1 bd 44 be 2f f8 85 3e e7 a1 ef 3d
       -0.19811773 -0.19213082 0.26165912 0.11700802
000290 de 91 07 3f a3 12 a2 bd 2b 19 d2 bc a5 91 85 bd
       0.5295695 -0.07913711 -0.025646767 -0.0652192
0002a0 10 cd ec be e6 4b b6 3e 0e 39 ba 3e 5e d8 0e 3f
       -0.462502 0.3560478 0.36371654 0.557989
0002b0 62 ab 96 be b9 05 6c be 9f ca e6 be c1 15 1f bf
       -0.2942763 -0.23049058 -0.45076463 -0.6214257
0002c0 db 73 35 3f 58 3f 7e bf ce cf 98 3e 68 5e 93 3f
       0.70879906 -0.99315405 0.29846042 1.1513186
0002d0 5d ec 2d bf 4b b6 25 3f c0 1a ac be cb 9f 3a bf
       -0.67938787 0.6473128 -0.3361416 -0.72900075
0002e0 ea f5 1f 3c 92 74 18 3f af 45 05 be 73 be 83 bd
       0.00976322 0.5955287 -0.13014863 -0.0643281
0002f0 bd 54 17 be ec 5e ae bc 71 c5 25 3e 77 d1 fa bc
       -0.14778419 -0.021285497 0.16188599 -0.030617459
000300 0e 97 0b be 17 ea 13 bd 70 05 a6 3d 9f 9f 60 bd
       -0.13631842 -0.036111917 0.08106506 -0.054839727
000310 aa ad 46 3e 14 6c fa 3e bb 98 97 be e3 d3 70 3d
       0.19402185 0.48910582 -0.29608712 0.05879582
000320 2b 88 a8 bd 26 55 9f bf 6e 37 87 be f0 42 61 3e
       -0.08229097 -1.244786 -0.26409477 0.21998191
000330 66 1d 02 3f 3e 96 87 bf 8d 16 65 3f b2 6d 10 bd
       0.5082611 -1.0592725 0.89487535 -0.035260864
000340 75 73 18 bf 2d 5e 8b 3e da ff 5a 3e 61 ba 4f 3e
       -0.59551173 0.27220288 0.21386662 0.20285942
000350 96 f1 22 3f a5 85 c4 be d1 98 29 be 0d 3d a8 3d
       0.6364988 -0.38383213 -0.16562201 0.082147695
000360 f3 7d 36 bf e3 d5 9b 3e b0 6e 64 bf 1e 99 92 be
       -0.71285933 0.3043662 -0.89231396 -0.28632444
000370 63 35 a6 3c c7 17 b1 3c c1 68 cf 3c 19 8e ee bd
       0.020289129 0.021617783 0.025318505 -0.11648197
000380 41 fe 40 bd 57 f3 33 3d 75 2f 3e bd 90 39 a0 3d
       -0.047117475 0.04393324 -0.046431977 0.07823479
000390 ac b9 c1 3c b3 a8 26 be 8b 6b 05 3d f4 ed 64 be
       0.023648106 -0.16275291 0.032573264 -0.22356397
0003a0 3d 84 39 3d 0e 4a f1 3d 59 57 c0 3e 7c bf 82 3f
       0.045292128 0.11781703 0.3756664 1.0214686
0003b0 d4 0b a0 3d 6e c7 84 bf 9d df e9 be a9 95 ed 3d
       0.07814756 -1.0373361 -0.45678416 0.11600811
0003c0 b4 b1 08 be 9c c7 84 be cd de c0 bf 4a d4 56 3f
       -0.13349038 -0.2593354 -1.5067993 0.8391768
0003d0 95 88 94 bf 13 19 bc bd 90 ae 1b be 62 40 a3 be
       -1.1604182 -0.0918447 -0.15203309 -0.31885058
0003e0 93 45 02 3d 51 3c a4 be c5 64 e1 bb 37 b1 21 3e
       0.031804632 -0.32077268 -0.0068784677 0.15790258
0003f0 03 04 f5 bd 34 4d 8a bd 13 72 2f bc 44 76 45 bc
       -0.11963656 -0.067530066 -0.01070835 -0.0120521225

actor.0.bias f4 [128]
000000 a7 bb 02 be b6 99 a6 3d 2e d1 1d 3e 53 4b fe 3c
       -0.12766896 0.08134787 0.15411827 0.031041777
000010 9b 23 0f 3e d9 bb 29 be fc 3f 50 bd 58 55 d9 3d
       0.13978426 -0.16575564 -0.05084227 0.10611981
000020 36 c7 fd bd 60 33 24 3d 11 36 8b 3c 7d ac 28 3e
       -0.12391512 0.040088058 0.016993554 0.16472049
000030 b3 e0 fa bd b2 61 02 3e e9 ae 79 3c 8b a2 16 be
       -0.12249889 0.1273258 0.015239456 -0.14710443
000040 0a 58 80 bd 3d 5f 3c bd 23 fe 47 be 38 a9 ed 3d
       -0.06266792 -0.045989264 -0.19530539 0.116045415
000050 e5 00 99 3c bf 7f 15 3d 93 c0 dd 3d 73 7a d5 3d
       0.018677184 0.03649878 0.10827746 0.10423746
000060 11 05 42 be c8 30 90 bd d8 9a f4 bd 4f 55 38 be
       -0.18947245 -0.07040554 -0.119435966 -0.18001293
000070 88 08 10 3c e4 89 42 3d 34 73 33 3e e7 a5 53 3e
       0.0087910965 0.047494784 0.17524415 0.20668755
000080 73 9e 51 be 0c 53 c1 3d ba 33 44 bd 1e de e1 bc
       -0.204706 0.09439668 -0.047900893 -0.027571734
000090 22 54 a8 3d e9 96 23 bd b3 73 b8 bc f0 bb c8 3d
       0.08219172 -0.03993884 -0.022516107 0.09801471
0000a0 da 37 7f 3e 7e 7c 2d be cf d7 8a bd e6 de a8 bd
       0.2492365 -0.16942021 -0.067794435 -0.082456395
0000b0 2c 5a 5d 3e b2 6f 50 3d 1f c3 f9 3b 2c a1 46 3e
       0.21616429 0.05088777 0.007622137 0.1939742
0000c0 3c b0 68 3e ea 87 55 bd 5e ac 02 bb ac 40 b7 3d
       0.22723478 -0.05213157 -0.0019939165 0.08947882
0000d0 52 85 93 3c 4a 8a 62 3e bf 02 49 bd b1 b9 16 be
       0.018007908 0.22123066 -0.049074885 -0.14719273
0000e0 9e a3 56 bd c8 bf 28 be 66 96 12 bd 09 63 1a be
       -0.05240213 -0.16479409 -0.035787962 -0.15076841
0000f0 28 ea 53 bd 47 0b cd 3d 5a d2 79 be 18 50 91 bc
       -0.05173698 0.100119166 -0.24396649 -0.017738387
000100 fb f9 a2 bd cf 97 9b 3d 07 8b 9e 3d b4 f2 fc bc
       -0.07957836 0.075973146 0.07741361 -0.030877449
000110 10 2d 3c 3e c8 ac bd 3b ea 2a 36 3d a1 a8 7d be
       0.18376565 0.0057884194 0.04447452 -0.24771358
000120 6b 2b 44 3d ea a1 82 be 28 b9 a5 bc 95 f1 a2 be
       0.04789297 -0.25514156 -0.020229891 -0.31824937
000130 c1 ad 9e 3c f9 8e 86 3d db 47 1b be c3 8e 3f be
       0.019369962 0.065702386 -0.1516413 -0.18706803
000140 50 04 7d bc 40 87 b9 3d c7 e8 7e 3d 41 cf f4 bd
       -0.015442923 0.09059 0.062233713 -0.11953593
000150 25 7e 10 be de 52 85 3d f3 8c 35 bd 42 49 51 be
       -0.1411062 0.06509946 -0.044323873 -0.20438102
000160 35 a9 b5 bd 3b d6 12 be 30 6b 9a bd 49 f7 37 3e
       -0.08870164 -0.14339535 -0.07539976 0.17965426
000170 60 f3 ef 3b ea 99 05 be 03 aa 01 3e 43 6e 38 3d
       0.0073227137 -0.13046995 0.1266251 0.04502703
000180 01 ea 1a 3e c4 d8 7b bd 88 22 24 be 70 ed 84 bd
       0.15128328 -0.06148602 -0.16028798 -0.064906
000190 87 75 81 3d 78 bd 62 3c 69 e7 2b be 33 87 5b bd
       0.06321245 0.013839118 -0.16787495 -0.053595733
0001a0 e1 52 38 3e 23 d3 1b 3e d3 de 4b bd 6b 53 d9 3c
       0.18000366 0.15217261 -0.04977305 0.026529035
0001b0 b1 f2 1b 3d 2b 96 f7 3b 9c 76 1e be f5 98 8f bc
       0.038073245 0.007555743 -0.15474933 -0.01752899
0001c0 20 b6 4d be eb 14 82 bd 93 c2 2f 3d e1 cb 44 3e
       -0.20089006 -0.06351646 0.04291017 0.19218399
0001d0 4a a8 43 be af d3 5c bd 92 c2 70 be cd 8c e3 bc
       -0.19107166 -0.053912815 -0.23511723 -0.0277771
0001e0 e3 2c ad ba 98 61 da 3c 69 4e 52 be 47 dd dc bd
       -0.001321223 0.026657864 -0.20537724 -0.10784393
0001f0 d3 f1 7e bd c4 35 a2 3d d9 68 d8 3d 97 ba 6f 3d
       -0.06224234 0.07920411 0.10566873 0.058527555

actor.2.weight f4 [64, 128]
000000 7f 6e 11 3e 73 3e c0 3d ee 47 9a 3e 5c 9d 39 3e
       0.14202307 0.09386911 0.30133003 0.18126434
000010 ea ed b1 3d 31 98 33 bd ef 35 f9 be bf e8 69 3e
       0.08687957 -0.043846313 -0.4867396 0.22842692
000020 e8 56 59 bc d4 35 b6 bd f0 05 2f bd e7 f5 21 be
       -0.013265349 -0.08896986 -0.04273027 -0.1581646
000030 e0 0f 8d bd f0 82 54 3e 17 a9 eb 3d 7d d6 b2 3d
       -0.068877935 0.20753074 0.11506861 0.08732317
000040 1d c7 88 3d cf 16 01 3f 3c 11 2e bb 55 81 c8 3c
       0.06678603 0.5042543 -0.0026560565 0.024475733
000050 9b bd 3a be c6 d8 41 3e e6 0d ad 3c 60 fc fc bc
       -0.18236391 0.18930349 0.021124791 -0.03088206
000060 51 19 27 bd d2 da 49 3e 74 96 b6 be 53 74 30 3e
       -0.040795628 0.1971238 -0.35661662 0.17231874
000070 28 14 e6 bc fb 8d fc 3c 5f f3 9d 3c 5c 6b 4b 3f
       -0.028085783 0.03082942 0.019281087 0.7946069
000080 58 e2 3b bd 3a 3d c8 be 37 05 1e 3e 88 09 70 3e
       -0.045870155 -0.39109212 0.15431677 0.23441136
000090 07 44 27 bc fa 24 ab 3e 11 77 14 3e bc 78 76 be
       -0.01020909 0.33426648 0.14498545 -0.24069494
0000a0 a7 dd 1b 3f 43 6e 13 be b2 fd 66 3e 44 a4 86 3e
       0.6088509 -0.1439753 0.22557715 0.262972
0000b0 cd c5 95 3e 72 fe 94 bd 77 2e 94 3e f2 d9 5a be
       0.29252473 -0.07275094 0.289417 -0.21372202
0000c0 b6 70 d6 3e 04 75 50 3e 2a e3 36 3e 3f d2 bf 3d
       0.41882867 0.20357138 0.17860094 0.09366273
0000d0 98 48 90 bd 33 d0 87 3c 4a c3 a0 bd 70 4b 78 bd
       -0.07045096 0.01657877 -0.078497484 -0.060618818
0000e0 ca ab 70 3d 6c 72 ca 3d 6c 95 8f bd 5c b4 19 bd
       0.05875758 0.098851055 -0.07010922 -0.03752552
0000f0 af bc 05 ba 0c ef ca be 22 a2 6e be 69 00 86 3c
       -0.00051016634 -0.39635503 -0.23304036 0.016357617
000100 5b 1f 24 3e e6 aa a6 3e 38 ab da bd 5a 58 f5 3d
       0.16027586 0.3255226 -0.10677189 0.11979742
000110 24 19 8b 3e 10 30 bc bc 5b 97 be be 04 6f 33 bc
       0.27167618 -0.022972137 -0.3722485 -0.010951761
000120 56 88 a2 bd 6e a2 9d 3e 31 61 2c be 26 3e ed bd
       -0.0793616 0.30787987 -0.1683395 -0.115841195
000130 c4 da a1 be d3 80 65 3d 48 67 fa 3b cd ff f6 3c
       -0.31612217 0.05603106 0.0076417066 0.030151272
000140 6d 3d ad bd 06 0a f2 bd 3b 46 9a 3e 73 7b 82 3e
       -0.08458982 -0.11818318 0.30131707 0.2548481
000150 fa 65 f7 bd 8a dc 94 bd ef 0f 7f bd 21 12 1e be
       -0.12079997 -0.07268627 -0.062271055 -0.15436603
000160 6b fe 2b 3d 81 66 ff 3d de ca af be 07 a1 3d bd
       0.04199068 0.12470723 -0.34334463 -0.046296146
000170 5e e5 a2 3d b7 a4 c1 3e da b5 4d 3c ed 77 da 3d
       0.079539046 0.3782098 0.012555564 0.10667405
000180 6d 5c 6d 3e 92 10 26 be 43 14 72 3d 55 27 60 3d
       0.23179789 -0.16217259 0.059101354 0.05472501
000190 86 7e f6 3d 83 09 87 3e 6d 25 51 be 07 34 98 be
       0.12035851 0.26374444 -0.20424433 -0.29727194
0001a0 c6 88 5b bd 42 67 44 3e 35 c2 06 bc 1c 85 c1 3c
       -0.053597234 0.19180015 -0.0082250135 0.023623042
0001b0 89 d1 92 3c a4 0d a6 be 2a b3 88 bd f8 55 c7 bd
       0.01792218 -0.32432282 -0.06674798 -0.09733194
0001c0 b4 7d a3 3c ab 79 54 ba 95 b0 41 3e d6 f1 16 bd
       0.0199574 -0.0008105288 0.18915017 -0.036851726
0001d0 2a 0f e3 be 68 23 12 be 9e a7 07 3e b9 51 8b be
       -0.44347507 -0.14271319 0.13247535 -0.27210787
0001e0 cd 6d 7a bd ff 0b 95 3d fc 62 69 3d ed 08 5a be
       -0.06113987 0.07277679 0.056979164 -0.21292467
0001f0 8e a4 e0 bb 09 ad 0d 3d 86 29 3d bd 68 0a b7 be
       -0.006855554 0.034588847 -0.046182178 -0.35750127
000200 df ef b7 3d 01 3f 86 be f4 bc 7b 3d 1d 3e 58 3e
       0.08981299 -0.26219943 0.061459497 0.21117444
000210 75 6a 8a 3e be 7f ef bc 5a da a9 3d 3f 91 2c 3e
       0.27034345 -0.029235717 0.082936004 0.16852282
000220 7d b8 88 bd 33 69 9b 3e 5a ca b3 3c 7d 94 16 bf
       -0.06675813 0.30353698 0.021947075 -0.58820325
000230 af 0b f2 3d 25 dc 4d bf 12 c0 ad 3c da fe 43 3e
       0.11818635 -0.8041404 0.02120975 0.19140187
000240 9d 94 44 bd 3a 7c a9 be 75 1c 1a 3e 70 6a 56 be
       -0.04799329 -0.3310259 0.15049918 -0.2093904
000250 8e b4 fa bb c6 f2 dd be 5f 76 27 bd 44 a3 ff bd
       -0.0076509183 -0.43349284 -0.04088437 -0.12482312
000260 0c c7 73 3e 2d 45 9a be 6d 1e 95 3d 4b d9 79 3e
       0.23806399 -0.30130902 0.07281194 0.24399297
000270 4f d5 28 be d9 f6 c6 be 01 bc 11 be 26 59 a3 be
       -0.16487621 -0.38860205 -0.14231874 -0.31903952
000280 0c 08 ca 3d 01 89 ca be ca 63 ec 3c d7 8d 60 3e
       0.09864816 -0.3955765 0.028856177 0.21929108
000290 51 aa 92 3e bd d5 03 3e e5 2c 7e be 9d 0d 4c 3d
       0.28645566 0.12874503 -0.24821813 0.04981767
0002a0 f5 33 99 3e 93 53 e9 bd 95 54 ba 3e 0a 25 05 bf
       0.29922453 -0.11392894 0.36392656 -0.5200964
0002b0 90 53 9f be a1 6f a2 3b 70 95 75 3e 60 99 e5 3d
       -0.3111844 0.004957155 0.23982787 0.112108946
0002c0 70 22 73 bd 07 46 c3 be 2c 26 b2 bd c4 8e 08 be
       -0.059359014 -0.38139364 -0.08698687 -0.13335711
0002d0 66 06 34 bf df d1 50 bf 5e a7 40 be 03 b3 ed bd
       -0.70322263 -0.8157024 -0.18813846 -0.116064094
0002e0 b1 db 77 3c 2a 1a 40 3f e0 01 75 3e 86 5a 4e bd
       0.015128062 0.75039923 0.23926497 -0.0503793
0002f0 67 4d c4 3e 03 fa 34 3d 7e 75 de 3e 7a f0 c1 3e
       0.38340303 0.044183742 0.43449014 0.37878782
000300 be 4f 74 be 2e db 3d bc c4 64 20 3f fb 33 e4 be
       -0.23858544 -0.011587901 0.62653756 -0.44570908
000310 73 83 25 3f ac e3 6b be 58 d2 fb bc 27 97 5f be
       0.646537 -0.23036069 -0.030739948 -0.21835004
000320 fc 22 19 bf ea ff 55 bd 9d cf a7 3e 82 c2 ae 3d
       -0.59819007 -0.05224601 0.32775584 0.08533193
000330 89 83 f4 bd 4b 50 ae bc c5 f7 44 3e 06 78 27 be
       -0.11939151 -0.021278521 0.19235142 -0.16354379
000340 92 99 c3 3c 6a f4 cd bd b4 c5 2a 3e 36 4f 8d 3c
       0.023876939 -0.10056384 0.1667698 0.017249685
000350 33 47 18 3e 0e 8c 21 3f 79 18 08 bd cc 4b 33 bf
       0.1487091 0.6310433 -0.033226464 -0.7003753
000360 38 a6 75 bd 7a cf 5d 3e bf 2b 01 bd 04 1d ba bd
       -0.05997297 0.21661177 -0.03153586 -0.090875655
000370 f6 54 d6 3e d8 d8 ef 3d 82 11 bd bd 95 8a 87 bd
       0.41861695 0.117112815 -0.09231855 -0.06618229
000380 2b 5a e7 bd fc b3 03 3c d6 c7 52 3e 33 24 cd 3e
       -0.11296495 0.008038517 0.20584044 0.4006668
000390 f7 cd 0e be b6 12 0c 3e 8e 8b af 3e 2c 64 0c be
       -0.13945757 0.13679013 0.3428616 -0.13710088
0003a0 50 87 50 be 73 b5 30 3e 2a 36 f1 3c ac 41 9b 3e
       -0.20364118 0.17256717 0.029444773 0.3032354
0003b0 d2 ed a5 bd 10 3e 49 be e4 b3 e3 3d 93 6f 01 bf
       -0.08102001 -0.19652581 0.11118296 -0.50560874
0003c0 7d 31 12 be 94 95 37 be 07 25 f9 3e dd 71 35 be
       -0.14276691 -0.17928153 0.48661062 -0.17719217
0003d0 c1 f4 83 be 07 2f 59 bd 85 f6 54 3e 20 5c 0b be
       -0.2577267 -0.053023364 0.20797165 -0.13609362
0003e0 55 83 36 bd 82 b0 29 3d 00 18 10 3e 0f 09 00 3f
       -0.04455884 0.041428097 0.14071655 0.5001382
0003f0 d7 04 1d be 5f a4 1d bb cc f9 94 bd b8 21 cd 3e
       -0.15333878 -0.0024054272 -0.072742075 0.40064788

actor.2.bias f4 [64]
000000 38 6b 5f 3d 7a af 11 be 1b b2 62 be 8d 53 37 bd
       0.05454561 -0.14227095 -0.22138254 -0.044757415
000010 e4 18 cb be 33 36 f1 bc cc 50 9b bd e3 f5 26 bc
       -0.39667428 -0.02944479 -0.0758377 -0.01019046
000020 a4 50 8d bd dd e3 8f bd d8 76 a3 be a1 75 5b be
       -0.069001466 -0.07025883 -0.31926608 -0.2143159
000030 d2 9f 13 be 3d 47 a6 bd c7 39 58 be 5b 43 d5 bd
       -0.14416435 -0.081190564 -0.2111579 -0.10413238
000040 bc f0 12 be ac 86 94 be 12 a9 98 be 77 c1 ef be
       -0.14349645 -0.29008996 -0.2981649 -0.4682729
000050 7b f5 73 be 5a d6 77 bd f1 0d 36 3d 80 20 55 be
       -0.23824112 -0.060507156 0.04444689 -0.20813179
000060 f2 b6 e4 be 4f 3a f2 bd 70 49 da bd 44 ef a2 be
       -0.44670826 -0.11827528 -0.10658538 -0.3182317
000070 8d 46 65 be 63 53 f0 be 8e ee de be b6 2c 95 be
       -0.22390194 -0.4693862 -0.43541378 -0.29135674
000080 5e 69 0b bd c7 a9 99 be 9f 08 9f bd 98 9e 36 bd
       -0.034036033 -0.30012342 -0.07765316 -0.04458484
000090 14 16 9f 3d 16 86 14 be f7 08 a1 3d ae 2c ff bd
       0.07767883 -0.14504275 0.07863038 -0.12459694
0000a0 d5 46 e4 be 11 e6 15 be a6 80 63 be ce 9b 22 bf
       -0.4458529 -0.14638545 -0.22217044 -0.6351899
0000b0 3c b7 25 be 22 31 29 be 44 52 f1 bd 23 0d 87 bd
       -0.1618318 -0.16522649 -0.11783269 -0.065943025
0000c0 93 bf c1 be 94 27 18 be 59 e7 84 3d 31 76 53 3d
       -0.37841472 -0.14858848 0.064894386 0.051626388
0000d0 5b 74 fa be 02 af f0 bc 2e e5 c5 3c 72 d8 c9 bd
       -0.48916897 -0.029380325 0.024157133 -0.09855737
0000e0 65 5c 0a bf 49 31 10 be cb 60 ae bd 1b ac 8f be
       -0.5404723 -0.14081301 -0.085145555 -0.28060994
0000f0 6b 96 32 bd dd 0d 94 be b2 86 13 bf a6 a3 0c be
       -0.04360048 -0.28916827 -0.57627404 -0.13734302

actor.4.weight f4 [32, 64]
000000 c0 86 a7 3d 85 42 b5 3c b7 cc 54 3e f8 78 ee bd
       0.081799984 0.022126446 0.20781218 -0.11644167
000010 2d 87 c7 bd a5 27 0d be 7c f9 99 be b8 2d 9c be
       -0.097425796 -0.13784654 -0.30073154 -0.3050363
000020 8c 10 0f be 96 99 1a 3e 89 b8 85 3d bc 3c 75 be
       -0.13971156 0.15097651 0.06529338 -0.2394895
000030 07 70 93 3e 82 b4 8a be dc 6b 5f bd 32 9d 67 be
       0.28796408 -0.27090842 -0.054546222 -0.22618559
000040 09 dc 78 3d d7 26 15 bd dc 83 a8 3d 2b e4 32 be
       0.060756717 -0.036413994 0.08228275 -0.17469852
000050 15 ce e2 bd 61 45 6b bd 7d c3 cb 3d 16 11 07 3f
       -0.11074463 -0.05743921 0.09949396 0.52760446
000060 24 4b 54 3e 38 17 bd 3d 9f 06 49 be 68 bf 34 be
       0.20731789 0.09232944 -0.19631432 -0.1765114
000070 cc b4 e2 bc e7 89 8b be d3 64 73 3e 61 40 f2 bd
       -0.027674101 -0.2725365 0.2376893 -0.118286856
000080 39 84 e1 bd a6 e0 94 3d 43 a9 c7 be b6 10 8e bd
       -0.110115476 0.07269411 -0.38996324 -0.06936781
000090 11 c3 02 be 56 48 2d be db 68 12 3d 75 73 93 be
       -0.12769724 -0.16922125 0.03574453 -0.28799024
0000a0 94 0f 4b be 7f 3d 69 be bb e9 bf bd 90 06 6d bd
       -0.19830161 -0.22777365 -0.093707524 -0.057867587
0000b0 8c ab 1e be 32 ef 63 bd 99 16 1e 3e 18 11 cd 3d
       -0.15495127 -0.055648036 0.15438308 0.10013026
0000c0 6f 23 9b 3d 1f ce f5 bd 76 2c 9b be a5 ae 30 3d
       0.07575118 -0.12002205 -0.30307359 0.043135304
0000d0 7b a9 3a 3e 84 5b e0 3d ed 10 d7 bd 13 67 52 3e
       0.18228714 0.10954955 -0.10501275 0.20547132
0000e0 85 04 e4 3d 0a 95 8e 3d 14 22 13 3c cf 75 ab 3e
       0.111336745 0.06962021 0.008980293 0.33488318
0000f0 f0 a4 c4 bd 69 d4 07 bd fd 94 82 3d 66 5e ba be
       -0.09601772 -0.033161554 0.063760735 -0.36400145
000100 07 c1 26 bd 1c 4a 0c be 8b d7 ee bc 32 8b 89 bc
       -0.04071143 -0.13700145 -0.029155513 -0.016790006
000110 cf 62 a7 3e af 34 13 be 51 24 01 3e a9 a1 a8 3d
       0.32692572 -0.14375566 0.1261151 0.08233959
000120 ad 0c 8a bc fc b4 11 bc f4 b6 58 3d c0 3c a1 3c
       -0.016851747 -0.008893248 0.052908853 0.019682288
000130 8a 09 04 3f 4b 9f 82 3d cd 8a b0 bd 8f 35 0d be
       0.51577055 0.06378039 -0.08620224 -0.13789962
000140 27 77 64 be 2f 81 1c 3e 14 13 3e bd 2f 5f d8 3d
       -0.22311078 0.15283655 -0.046404913 0.1056503
000150 38 49 8c 3c aa bf 26 bc 07 a8 84 bd 53 3b a8 3d
       0.017124757 -0.010177532 -0.06477361 0.0821444
000160 80 98 9a bd 1b 67 97 3e 6b 71 89 be a2 22 a9 3d
       -0.07548618 0.2957085 -0.26844344 0.08258559
000170 f3 9e eb 3d 68 a1 07 3d 24 96 20 bf aa a4 7c 3e
       0.115049265 0.033112913 -0.62729096 0.2467219
000180 4a 04 7b bd df d5 41 3e 62 97 73 be 64 36 96 be
       -0.061283387 0.18929242 -0.23788217 -0.29338372
000190 61 8e 23 3e 75 8b f3 3d e6 d9 72 3c f2 78 2f be
       0.15972282 0.11891834 0.014822459 -0.1713598
0001a0 e9 5f a6 bd 50 14 1b 3e c4 ba 29 be ea 94 73 be
       -0.08123762 0.15144467 -0.16575152 -0.23787275
0001b0 a7 88 cd bd f9 ee 3a 3e f8 8e 89 bd 86 1f a5 be
       -0.1003583 0.18255223 -0.06716722 -0.32250613
0001c0 0c 6b 06 3c 73 80 70 be 5f 8a 4b be 6e ed 80 bd
       0.008204233 -0.234865 -0.19877003 -0.06295286
0001d0 ab f5 4e bc b7 97 1d be 8f 20 29 3e d5 57 98 3e
       -0.012631814 -0.15389906 0.16516326 0.2975451
0001e0 da 8f 0b be e1 88 8f 3d 92 de 9f 3d 78 4e 26 bd
       -0.13629094 0.070085295 0.07806124 -0.040602177
0001f0 5f 0b 15 3e 58 c8 1d be 71 8e 3a 3e ec 26 a3 3d
       0.14555119 -0.15408456 0.182184 0.07966408
000200 e3 91 0a be f1 a3 70 be e7 a4 c2 bd a5 5e 30 3e
       -0.13532214 -0.23500039 -0.09504109 0.17223604
000210 68 09 47 3e 2d 43 25 be 00 71 a3 bd d8 37 11 be
       0.19437182 -0.16138907 -0.079805374 -0.14181459
000220 d2 af f7 3c 23 19 91 3e 71 5c 1a 3e 7a 35 88 3e
       0.030235205 0.2833949 0.15074326 0.266033
000230 34 a2 a9 bd 55 3d 04 be 8a b2 c5 bd b0 8c 01 be
       -0.08282891 -0.12914021 -0.09653194 -0.12651324
000240 d5 73 1e be 00 74 d3 3c 08 04 c4 3c df 3d 05 bd
       -0.15473874 0.025812149 0.023927703 -0.032529708
000250 ac 1d ef bc 76 aa f4 bd 0d 43 9d bd 31 18 28 3e
       -0.029188953 -0.11946575 -0.076788045 0.16415478
000260 96 f8 56 bc 19 53 64 be fb 9f 92 bd c4 70 4d bd
       -0.013120791 -0.22297324 -0.0715942 -0.05015637
000270 ca 58 7e be 3e 9d 2b 3d c6 cb 15 3e e8 f6 53 be
       -0.24838558 0.041898005 0.14628515 -0.20699656
000280 86 38 59 3e 65 45 e9 3d d7 72 33 3e 47 49 e6 3d
       0.21212968 0.11390189 0.17524277 0.11244445
000290 5c 3f a9 3d 5a 74 3e 3e 85 4f 66 be c2 0e 76 bd
       0.08264038 0.18599072 -0.22491272 -0.060072668
0002a0 aa 86 61 3e 6c cb a7 bd 7f 0e 0a be a9 ec 83 be
       0.22024027 -0.081930965 -0.13482092 -0.25766495
0002b0 07 a1 9f 3d 90 95 a8 3e ec aa ec bd 60 8b 36 be
       0.077943854 0.32926607 -0.11556038 -0.17826605
0002c0 40 b9 b1 be 11 62 8a bd 90 d9 dc 3d 06 02 67 be
       -0.34711647 -0.06756986 0.10783684 -0.22559366
0002d0 d5 8e 08 3a f3 ae 3b be 16 48 cc 3c 28 a0 15 bd
       0.0005209272 -0.18328457 0.024936717 -0.03652969
0002e0 88 44 a8 bd 7e a7 5c be 0f 11 8e be df 97 4b bd
       -0.08216196 -0.21548268 -0.2774739 -0.049705382
0002f0 83 04 8b be ab 59 11 3f c0 c4 5f 3e 4a 82 d0 3c
       -0.2715188 0.5677745 0.21852398 0.025452752
000300 8a 4d 39 3d f1 b1 2d 3e 12 2f 16 3e ed 19 cb 3c
       0.045239963 0.1696241 0.14666393 0.024792636
000310 3d b6 c6 3c 1c c2 53 3e 64 f0 b4 be a4 b0 e0 bd
       0.02425682 0.20679516 -0.35339653 -0.109711915
000320 f8 3c 80 bd 3a b0 9c be d1 a1 86 bd c3 4d 0c 3e
       -0.06261629 -0.306032 -0.06573833 0.13701539
000330 64 76 a9 3d 5b d3 67 be 5e d7 53 3e 19 50 b4 3c
       0.08274534 -0.2263922 0.20687625 0.02201085
000340 ad 9f af be 4a d0 c0 bd b3 ff 01 3d ea 0c 19 be
       -0.3430151 -0.09414728 0.031737994 -0.14946333
000350 f9 19 ef 3d 72 29 2c 3d 91 84 a8 be 30 a5 cc 3e
       0.11674876 0.042031713 -0.3291364 0.39969778
000360 cb 29 6f bd 32 53 34 bd cf d9 83 be f0 d4 89 be
       -0.058389466 -0.044024654 -0.25752112 -0.2692027
000370 8e 66 3a be d7 85 09 3e fe 61 a2 3e 2a c7 63 3d
       -0.18203184 0.13429962 0.31715387 0.05560986
000380 06 15 a2 3c d5 0f 28 be 57 75 f2 3d b0 a8 75 3e
       0.019785415 -0.1641229 0.11838787 0.2399013
000390 9b fe 7a be 67 73 9b be 27 58 e0 3c 66 a9 0b 3f
       -0.24511187 -0.30361483 0.027385784 0.54555357
0003a0 c8 39 28 be bb eb c7 3c 5f 56 0a be 2c 27 6b 3e
       -0.16428292 0.024404397 -0.1350951 0.22964162
0003b0 ca 2a 81 bd 7f 1d b6 be 37 10 26 be c8 5c 17 bd
       -0.063069895 -0.3556938 -0.16217123 -0.036953717
0003c0 c6 18 e4 3d 8f e7 58 3e e6 c2 b7 3c 68 d8 b9 3c
       0.11137538 0.21182083 0.022431802 0.022686198
0003d0 b5 9d 90 3e dc f8 b2 be 22 1f a5 be 17 aa e4 bd
       0.2824532 -0.3495549 -0.32250315 -0.111652546
0003e0 ed 24 6f 3e d3 14 d2 3d 1a e0 3a bb 4e 83 9f bb
       0.2335393 0.10257878 -0.0028514923 -0.0048679477
0003f0 94 a8 b6 bd 45 cc b1 bc f5 12 d4 3d 8f 73 8f 3e
       -0.089188725 -0.021703849 0.10355178 0.28017852

actor.4.bias f4 [32]
000000 b9 cb fa bd 88 bd c3 bd cc 08 b0 be 49 4e 24 be
       -0.12245888 -0.095576346 -0.3438171 -0.16045488
000010 7b 0a ab 3b d4 26 27 be a3 54 9a bd a7 cd 7d be
       0.005219755 -0.16323406 -0.075356744 -0.24785481
000020 c0 99 35 be 02 71 63 be 45 10 9a be 2e 46 36 be
       -0.17734432 -0.22211078 -0.30090538 -0.17800209
000030 9c 0f 05 bf 04 f7 a1 3b 67 fc 0d be 12 87 9e be
       -0.51976943 0.0049427766 -0.13865815 -0.30962425
000040 a5 34 1a 3e f6 28 6e be 23 44 2c bf 21 c5 ce 3c
       0.15059145 -0.23257813 -0.6729147 0.025240483
000050 fb 16 93 3d 44 2f 44 bf e1 ca b4 3c da 1a 8b bd
       0.071821176 -0.7663462 0.022069396 -0.06792231
000060 3c 2d 52 bd 57 fc d8 be 40 6d 89 3d a9 ad e7 be
       -0.05131267 -0.4238002 0.06710291 -0.4524968
000070 8e 07 83 be 70 67 cf be 7d 04 3c bd 08 d2 de be
       -0.255917 -0.40508604 -0.045902718 -0.43519616

actor.6.weight f4 [8, 32]
000000 31 bd 4e 3e 3b 4c 32 3e 11 1f dd bd 38 4a f3 3d
       0.20189358 0.17411892 -0.10796941 0.118793905
000010 ae 98 14 3e e2 6f 96 3c bd ce e6 bc b7 a3 3a be
       0.14511368 0.018363897 -0.028174752 -0.18226515
000020 ab e2 25 3d 48 e7 89 3e 08 1f 3f bd 38 01 10 3e
       0.04049937 0.26934266 -0.046660453 0.14062965
000030 c6 2f 46 be 14 2d 9d 3e 5a 29 03 be c5 e2 ee b8
       -0.19354162 0.30698454 -0.12808743 -0.000113909635
000040 29 02 7f 3e 16 53 d9 bd fd 57 aa bd 2c 45 b9 bd
       0.24903168 -0.106115505 -0.08317564 -0.090463966
000050 ea 14 14 3d d5 f3 be bd 2c 2e 55 3e 72 af 98 bd
       0.036152758 -0.09323851 0.20818394 -0.074553385
000060 bd 28 25 3e f9 b5 63 be 52 6c 19 be f1 f1 ed bd
       0.16128822 -0.22237386 -0.14982727 -0.11618412
000070 3f 73 9b 3d 0a 53 f4 bd b2 24 c5 3d 99 9a 45 be
       0.07590341 -0.11929901 0.0962614 -0.19297256
000080 f3 c6 16 be 8a e9 c5 bd 34 87 cc 3c ac 00 1c 3c
       -0.1472433 -0.09663685 0.024966814 0.009521645
000090 b8 91 fb 3d d4 41 32 3d 29 77 c2 bd 9c c6 f8 3b
       0.12283653 0.04351981 -0.09495384 0.0075920355
0000a0 65 0d 0d 3e 70 86 8e bd 08 60 7b bd 0c 72 b6 bc
       0.13774641 -0.06959236 -0.06137088 -0.022271179
0000b0 65 10 8b be fc 7e eb 3d 4a 2b 8f 3d 26 f6 6c bc
       -0.27160946 0.1149883 0.069906786 -0.014462983
0000c0 7a 04 9e 3e fb 40 34 3e fe e2 71 be 20 03 72 3d
       0.3086279 0.17602913 -0.23621747 0.05908501
0000d0 41 1d 2f 3e 53 74 85 3e 05 83 d7 bd 43 0c 57 be
       0.17101003 0.2606531 -0.10523037 -0.21000771
0000e0 5a d5 0f be 84 ba 94 3d 0a 63 b6 3d a3 43 01 be
       -0.14046231 0.072621375 0.08905609 -0.12623458
0000f0 47 94 6a 3d 37 f3 48 3e 6f ae 06 bc 62 e8 3b bc
       0.057270315 0.19624029 -0.008220299 -0.011468979
000100 8e 96 b3 3c a3 8a 59 be be 03 1a 3e d1 61 20 3e
       0.021922376 -0.21244292 0.1504049 0.15662314
000110 02 63 a7 bd 61 7c 16 3d 25 81 22 3d de b9 e5 3d
       -0.08173181 0.03673971 0.039673943 0.11217092
000120 68 fb 34 be af 70 36 be 2b dc 71 be c6 c0 3b bc
       -0.17674029 -0.17816423 -0.23619144 -0.011459535
000130 4f 3a ef bd 42 ed 0f be 7b 46 18 3e 7b c9 2e 3d
       -0.11681043 -0.1405535 0.14870636 0.042672615
000140 7b ce 3a bd 7d f9 87 bd 9a 99 f9 bb 5f be 01 3f
       -0.04560707 -0.06639383 -0.0076171877 0.5068111
000150 4c 4f 5c be 12 f6 83 bd ef fc 2a 3e 19 fa ee bd
       -0.21514624 -0.064434186 0.16698049 -0.11668796
000160 b0 75 18 be 75 58 f0 b9 d9 e1 c6 be d2 ce 4c 3d
       -0.14888644 -0.00045842273 -0.38844183 0.050001927
000170 09 6f a1 3e 5d f7 4d bd ab 26 bf be e3 16 a8 bd
       0.31530026 -0.050284732 -0.3733419 -0.0820749
000180 e5 d9 8c 3d fe 47 1c bd 04 aa 93 bd 38 29 7e 3e
       0.068774976 -0.038154595 -0.07210162 0.24820411
000190 90 93 11 3d 3a 1d 3e be aa 4f b1 3e 91 6a 8f 3e
       0.035541117 -0.18565837 0.3463109 0.2801099
0001a0 fa 86 05 3e 12 2e b3 3b a8 6e 14 be 2f cf e2 3d
       0.1303977 0.0054681385 -0.14495337 0.110746734
0001b0 3f 45 7c bd ce 47 53 bc 54 9b d8 bd 38 0a 96 be
       -0.061589476 -0.012895538 -0.105765015 -0.2930467
0001c0 1c a2 f7 bc db ee f6 3c 60 b1 b7 3c 8f 81 4d be
       -0.030228667 0.030143192 0.022423446 -0.20068954
0001d0 1f 4a 96 bc cf a9 3c 3e dc fb 51 bd e2 4f 33 bc
       -0.01834589 0.18424152 -0.051265582 -0.0109443385
0001e0 06 33 1f 3d 18 10 6f bd 1b 16 a7 bd 15 71 9e bd
       0.03886702 -0.058364958 -0.08158513 -0.077364124
0001f0 80 6e f9 3c 55 12 4f bb fb 2d a0 3c c7 84 13 bb
       0.030448198 -0.003159662 0.019553175 -0.0022509561
000200 f6 4d 1a be 67 ab 1c 3e 49 24 1a 3c 20 46 0e be
       -0.15068802 0.1529976 0.009408065 -0.13893938
000210 f0 4a b6 be 33 1e e7 bd 7f 0a ee bc 77 b2 e4 bb
       -0.35604048 -0.11285057 -0.02905774 -0.0069792825
000220 6c a5 cf 3d a2 5e 15 3a 98 69 0a 3e fb ad 9a 3d
       0.101389736 0.00056980003 0.13516843 0.075527154
000230 88 20 cc 3d 17 d3 7b be 51 52 99 bd 91 2b 45 bc
       0.09967142 -0.24592243 -0.07486404 -0.012034313
000240 f7 a1 0a bd 1c 9f 29 3e ee 9d 69 bd e1 86 3e be
       -0.033845868 0.16564602 -0.05703538 -0.1860614
000250 0a 71 6d 3c 05 37 18 3e a7 06 25 be 83 fe 06 3e
       0.014492283 0.14864738 -0.16115819 0.13183026
000260 26 81 87 3d e5 08 71 3e c2 5b 5f be 53 dd 38 3d
       0.0661643 0.23538549 -0.21812347 0.045132946
000270 d5 95 16 3b b0 63 a8 3d 25 dd 2d 3e 36 d1 72 3e
       0.002297749 0.08222139 0.16978891 0.2371262
000280 1f a4 b7 3d 59 48 c2 bd 19 00 22 be 4a a2 23 bd
       0.089668505 -0.094864555 -0.1582035 -0.039949693
000290 f3 d0 26 3e f6 ec 7f 3d 41 8b 56 bd bf bb 7e 3c
       0.16290645 0.062481843 -0.052378897 0.015547692
0002a0 31 91 b8 3d 7c b2 d0 bd de b5 1a be 02 d1 dd 3b
       0.09012068 -0.10190293 -0.1510844 0.0067693004
0002b0 93 c1 66 be 0e 60 7c 3d e5 1c 29 bc 37 38 96 3d
       -0.2253478 0.061615042 -0.01032183 0.07334941
0002c0 b3 e3 21 be 31 be 8d 3d 1f d7 03 3e 1b 4d b0 bd
       -0.15809517 0.06921042 0.12875031 -0.08608457
0002d0 05 39 43 3e a2 eb 38 be 3f 85 72 be 3e 83 42 be
       0.1906472 -0.18058637 -0.23683642 -0.18995377
0002e0 b0 db cf 3c 8b 5e 50 3e 75 8d ca bc b9 2b d4 bd
       0.02537331 0.20348565 -0.024725655 -0.10359902
0002f0 af 1a 01 be 50 bf 91 3e f4 8f 35 3c cf 3a 58 bd
       -0.12607835 0.28466272 0.011081684 -0.05279046
000300 b3 78 62 3e c1 47 b9 3d c0 d9 a8 3d 3a 57 10 be
       0.22116356 0.09046889 0.082446575 -0.14095774
000310 b6 0e 90 bd 60 b9 99 bd a6 c1 ba 3c d1 20 58 3e
       -0.07034056 -0.075060606 0.022797417 0.21106268
000320 46 9d 6d 3d 27 91 52 be 5c 3d 5f 3e 32 96 9c be
       0.058011316 -0.20563184 0.2180075 -0.3058334
000330 5d a1 ad 3c 53 07 a7 be 2a 39 d5 3e 8a 11 ae 3d
       0.021195108 -0.32622775 0.41645175 0.08499439
000340 17 ea 5d 3d 45 cb 60 be ff 57 85 3c fa 24 29 3d
       0.054178324 -0.21952541 0.016277311 0.04129503
000350 b5 19 0b be 2f 9d bd 3d 21 d2 52 3c d7 58 05 3e
       -0.13584025 0.09258496 0.012867481 0.13022171
000360 77 a6 a0 3d d0 25 b9 3c 05 f4 3f 3e 43 4c 99 bd
       0.07844251 0.022601038 0.1874543 -0.07485249
000370 cb e5 12 bf 1a 46 28 3e c3 39 34 be ff 58 ef 3d
       -0.57381886 0.16432992 -0.1760016 0.116868965
000380 a5 49 5c bd 6d d5 d3 bd a5 f0 4b 3e 7d e0 41 bc
       -0.05378117 -0.10343442 0.19916017 -0.011833307
000390 8c e3 0e 3e 4c 28 b3 bd ff 9f 0d be 76 fd a6 bd
       0.1395399 -0.087479204 -0.13830565 -0.081538126
0003a0 76 c1 63 bd c9 e5 7b 3e 78 a2 72 3b d8 05 dc bd
       -0.05560442 0.24599375 0.0037023108 -0.10743302
0003b0 48 54 9a ba b5 8e 1d be 9e 1e 76 bd 04 fc 94 be
       -0.0011774385 -0.1538647 -0.060087793 -0.29098523
0003c0 13 69 b0 bb e4 47 21 bd 85 7c 2f 3e d9 5d 40 bd
       -0.0053836196 -0.0393752 0.17137344 -0.0469645
0003d0 85 35 5b 3e db d4 99 3d a7 af 24 be c0 63 19 3c
       0.21407135 0.07511302 -0.16082631 0.009362161
0003e0 77 b0 86 3d 35 3b 0d 3d f6 85 09 bd d8 9d 51 3d
       0.06576627 0.034480292 -0.03357502 0.051175922
0003f0 e1 b5 9b bc 91 55 b7 bd d9 23 9c bb 89 d0 81 be
       -0.019007625 -0.08951867 -0.0047650156 -0.25354412

actor.6.bias f4 [8]
000000 18 13 73 3e bd 3a 84 3d 57 8b 34 be e1 8d f8 3d
       0.23737752 0.06456516 -0.17631279 0.12136436
000010 a3 72 a5 be ce cf f4 3b ad 14 d9 bd 0b 33 96 3e
       -0.32314023 0.0074710613 -0.10599647 0.29335818

critic.0.weight f4 [128, 33]
000000 fa e0 94 3e f8 86 c9 3e cc 2e 94 3d 0a 39 e9 3d
       0.29077893 0.39360785 0.07235488 0.113878325
000010 8f 34 87 bf 5c 97 e3 3e e6 3b e0 3d fb 4e 00 bf
       -1.0562915 0.44451416 0.10948925 -0.50120515
000020 94 40 04 3f 75 38 9c 3f d4 db 21 bd 52 ce a5 bd
       0.5166104 1.2204729 -0.039516285 -0.08095993
000030 2b 55 9a be c3 c6 b2 3c e9 9c a7 3f f6 be 82 3f
       -0.30143103 0.021823293 1.309476 1.0214527
000040 10 48 aa be bb 4e 83 3d 64 c1 2e be 95 7d de be
       -0.33258104 0.06411501 -0.1706596 -0.43455186
000050 87 6b 36 be d0 ae 6a bd 8b 75 55 3c 3e a0 90 3d
       -0.17814456 -0.05729562 0.013028513 0.07061814
000060 25 e8 6d bd 2d 70 1b bd 23 6a dc 39 45 3e c9 3d
       -0.05808272 -0.037948776 0.00042040748 0.0982633
000070 f4 b9 18 bd 88 70 c4 3c 24 04 03 3e f7 df 75 be
       -0.037286714 0.02397944 0.12794548 -0.24011217
000080 af cd 50 40 a1 31 07 3e 9f 8d 1f 3f 4f c4 1b 3e
       3.262554 0.13202526 0.6232547 0.15211605
000090 db 6f 2f 3e 72 c7 9b bd a7 48 51 3f a7 d5 99 3e
       0.17132513 -0.076064005 0.81751484 0.30045816
0000a0 08 bb c7 be a1 cc 3b 3f a0 bb c2 3f 7a 4e 85 be
       -0.3900988 0.73359114 1.5213509 -0.26036435
0000b0 c7 3b 81 3e 77 1c 1f 3f a8 83 24 bf 02 a5 1b be
       0.2524092 0.6215281 -0.6426339 -0.15199664
0000c0 8e 80 1d 40 de f5 42 bf 97 ab d5 3c e1 57 d3 bd
       2.4609714 -0.76156414 0.026082797 -0.10319496
0000d0 cd 88 48 3f d1 e4 af 3d 0e 50 83 bd c9 da 68 bd
       0.7833374 0.08588565 -0.064117536 -0.056849275
0000e0 b8 ac de 3d 36 ea 4b bd bb 39 cd bd bf 4c e5 3d
       0.10872787 -0.049783908 -0.10020777 0.11196279
0000f0 33 7f 90 3c 2e a9 a0 3d 69 cf c7 3c a8 82 8b 3e
       0.017638778 0.078447685 0.024390893 0.2724812
000100 b7 b9 4f 3e c6 6e c4 bf 48 f4 38 3f 80 52 22 be
       0.20285688 -1.5346305 0.72247744 -0.15851784
000110 c0 06 11 be b4 38 85 3e e7 c1 ba 3e 54 96 b2 be
       -0.14162731 0.26019824 0.3647606 -0.34880316
000120 89 e1 12 bf ee 41 fc 3e f8 1b 42 bf af 0c 2d bf
       -0.5737539 0.4926905 -0.75823927 -0.6759748
000130 02 2c 9f 3e 31 ea b7 3e db 71 e9 be d8 43 63 3f
       0.31088263 0.3592086 -0.45594677 0.88775396
000140 ec 03 ae 3f fa 73 18 c0 80 c4 a4 3f 48 20 a2 bb
       1.3594947 -2.3820786 1.2872467 -0.004947696
000150 ee 15 02 3e df cf 67 bf ed 4a cb 3f 59 3e fa 3e
       0.12703678 -0.9055156 1.588224 0.48875692
000160 ca 4b 2f 3d 77 8c fc bd c5 2a e1 bd 98 d9 2c 3e
       0.042796887 -0.12331479 -0.10994486 0.1687988
000170 35 23 28 3e 0a 11 94 be 4b 63 b1 be e9 30 3d 3e
       0.1641968 -0.2891925 -0.34646067 0.18475689
000180 26 7b f1 bd a8 10 4b 3d ee 8c df be bc 27 42 bf
       -0.11791067 0.04957643 -0.43662208 -0.7584188
000190 63 f9 8a 3e a3 48 33 3e 30 26 66 be db a8 bc bd
       0.27143392 0.17508177 -0.22475505 -0.09211894
0001a0 6a 22 a1 3d 99 24 51 3f b2 f1 f9 3f 11 b2 bc be
       0.07867892 0.8169647 1.9526885 -0.36854604
0001b0 63 61 b3 3e 93 f3 2f bf 9b f8 c5 3f 8f a2 11 bf
       0.35035238 -0.6873104 1.5466493 -0.5688867
0001c0 a7 ee 06 3f 84 e3 07 bf 2f fe 6e 3f 76 5b 93 bf
       0.52707905 -0.53081536 0.93356603 -1.1512287
0001d0 6a 5b 58 3e c3 fe d7 be 59 66 d6 3e ed dc 58 bf
       0.21128622 -0.42186555 0.4187496 -0.84712106
0001e0 ce 11 9c be cd c2 00 bd 21 b4 de 3d 6a 44 f5 3d
       -0.30482334 -0.031435777 0.108742006 0.119759396
0001f0 bf 1d 18 3e 2c 3d 01 be f8 09 65 3d 7c 30 9d bc
       0.14855097 -0.12620991 0.05591771 -0.019188158
000200 ff e7 bf 3d 02 e3 a5 3e 83 3c 91 be 55 de 61 3f
       0.093704216 0.32399756 -0.2836648 0.88229877
000210 7f a5 9e 3e cd 9c a2 3c 57 a3 b2 bd 71 f5 3b bf
       0.30985638 0.019850159 -0.08722561 -0.7342139
000220 3c 46 d1 be f2 74 07 3e 1b a1 01 bf e0 08 37 bf
       -0.40873897 0.13228205 -0.5063645 -0.7149792
000230 c8 e5 28 be a5 ca 1c be 7b 51 f0 3e 5d 4f 0c be
       -0.16493905 -0.15311678 0.46937165 -0.1370215
000240 de b5 1d be 32 48 e4 3d a5 a7 f2 be 12 53 2c be
       -0.15401408 0.11146583 -0.47393528 -0.16828564
000250 dd 51 e6 bd 72 b6 95 bd 3b 13 e5 3e fd bb be be
       -0.11246083 -0.07310189 0.44741234 -0.372528
000260 9a e6 a7 3e bf f0 c7 3d 77 d6 c4 3d 7d f4 fa bc
       0.32793123 0.097627155 0.096112184 -0.03063416
000270 ba 0b 25 3d 2c 5a 88 bd 52 17 45 3d fe 48 e2 bd
       0.040294386 -0.06657824 0.048117943 -0.110490784
000280 77 18 31 bd db 86 2b be d4 ea de 3e 8f f9 6b 3d
       -0.043236222 -0.16750662 0.43538535 0.057611044
000290 aa 9e 6c bd fd 79 14 be 2c f5 a0 be 3b 98 3e be
       -0.0577685 -0.1449966 -0.3143705 -0.18612759
0002a0 6a 01 d2 be 80 1e 2f be a4 55 10 bf 58 76 86 3c
       -0.41016704 -0.17101479 -0.5638068 0.016413853
0002b0 2b 4a e2 be 88 16 f8 3e 39 f1 8e 3e 93 17 96 3e
       -0.4419721 0.4845469 0.27918413 0.2931486
0002c0 b9 30 64 3f 77 69 a8 bd 48 24 3d be c7 94 f4 be
       0.89136845 -0.08223241 -0.18470871 -0.47769758
0002d0 05 6e fc be 04 38 3b be 7f 2d e1 3d 60 8d 98 be
       -0.49302688 -0.18283087 0.10995006 -0.2979536
0002e0 75 ad b7 3e 99 8b 95 bd a8 ed 79 3d 45 f8 89 3d
       0.35874525 -0.07302017 0.061017662 0.06736807
0002f0 b0 f4 b2 3c 35 79 30 3c a1 7a 81 3d d2 94 c1 bc
       0.021845192 0.0107710855 0.06322218 -0.023630533
000300 eb 61 2d bc 1b b5 c5 3c d7 94 67 3d 13 71 95 3e
       -0.0105824275 0.02413421 0.05653843 0.2918783
000310 52 2b 8b be f9 7c 13 bd b0 b1 a5 3e a0 2a ff be
       -0.27181488 -0.036007855 0.32362127 -0.49837208
000320 97 af 70 be 6f b9 c4 be f8 cd b7 be be 76 8b be
       -0.23504482 -0.38422725 -0.3589933 -0.2723903
000330 8b f6 85 be cb 4d a4 bd ce 88 38 3e 45 03 bd be
       -0.2616466 -0.0802265 0.18020937 -0.36916557
000340 8f bb 11 3f e3 7a 26 3f 10 9b 2d be a0 22 05 bf
       0.56926817 0.6503126 -0.16953683 -0.5200596
000350 c1 88 b2 3d 22 bd 8c bf ae ff 54 3f 03 50 b7 bd
       0.0871749 -1.0995219 0.83202636 -0.08950808
000360 af 8a 80 3d 97 7b f6 3e a8 6c e7 3e 92 5c d1 3c
       0.06276452 0.48141167 0.45200086 0.025556836
000370 21 6c d1 bd c5 1f 47 bc 0d 6c 0a bd 08 10 99 3d
       -0.10225702 -0.012153571 -0.03379445 0.07473761
000380 bb 84 ca 3d 4f c7 c6 3d 43 f9 a0 bc 12 32 19 bd
       0.098885976 0.09705984 -0.019650107 -0.037401266
000390 14 a6 92 be 49 35 c4 be 2a 6d 0b 3f 2a 47 f6 bd
       -0.28642333 -0.38321903 0.54463446 -0.12025292
0003a0 bb 9e b6 3e a0 ed 5b bf 19 91 95 3f 6c 62 96 3e
       0.35667977 -0.8590946 1.1684905 0.29371965
0003b0 30 61 b9 3f 9f 61 bb 3e 8c 60 24 bf 40 30 19 be
       1.4482784 0.36597916 -0.6420982 -0.14959812
0003c0 db 5b a9 be e2 a5 be be 06 2b d5 be 6b 65 97 bf
       -0.33077893 -0.37235934 -0.41634387 -1.1827825
0003d0 c5 71 64 3f ec 64 2c 3f 3d 54 c8 bd d1 3f bd be
       0.892361 0.67341495 -0.09781692 -0.3696275
0003e0 d8 10 68 be 61 e0 e5 be fd a1 71 bf a4 92 b0 be
       -0.22662675 -0.4489775 -0.943878 -0.34486878
0003f0 00 75 c3 3e ad 48 26 bd 92 8a d0 bc 8e 8c 33 3e
       0.381752 -0.040596653 -0.0254567 0.17534086

critic.0.bias f4 [128]
000000 79 59 cf be 2a 0f 08 bf 7e 8e e2 bb f2 be 6b bd
       -0.4049795 -0.5314814 -0.006913959 -0.057555147
000010 df f0 fd 3e 06 74 b3 be ee 1c d8 3d ed 48 ce be
       0.49597833 -0.35049456 0.10552393 -0.40290013
000020 19 2e 88 3e cf d4 b2 be 4f 44 c6 3d de 0b 47 3d
       0.2659767 -0.34927985 0.096809976 0.0485953
000030 36 f7 f4 bd f6 f0 90 be b4 22 0d be b7 bb fc be
       -0.11961214 -0.2830884 -0.1378277 -0.49361965
000040 aa 92 77 3e 1b f3 5b be dd 02 03 be 19 b0 b8 3e
       0.24177042 -0.21479456 -0.12794061 0.36071852
000050 74 5b db 3e 8b 93 24 3d 17 8b 24 3d 00 1a e5 be
       0.4284321 0.04017977 0.04017171 -0.447464
000060 04 a4 4f be 7f 7a dc 3e de 09 1a be e0 2f ae be
       -0.20277411 0.43062207 -0.15042827 -0.340209
000070 8b 2c 4a be 4a 1a 24 be 30 a8 84 3e 27 66 d6 be
       -0.19743554 -0.16025653 0.25909567 -0.4187481
000080 94 86 e8 be de 43 9e be ce c8 d6 be a9 24 a6 bd
       -0.45415175 -0.30911154 -0.41950077 -0.08112461
000090 7a b4 bc 3e 69 e6 91 bd d8 37 26 3e 87 b0 ad 3d
       0.36856443 -0.071240254 0.1623224 0.084809355
0000a0 dd 86 93 3d bf 01 07 bf 6c 32 92 be 09 10 29 bd
       0.072034575 -0.5273704 -0.28554094 -0.041275058
0000b0 ed 31 a9 3e a7 de 52 bd 62 56 fe 3d 73 6d c3 be
       0.33045903 -0.05148187 0.1241882 -0.3816944
0000c0 24 28 95 3d 69 2a 81 be 62 6d 47 3e 86 aa b0 bd
       0.07283047 -0.2522767 0.1947532 -0.08626275
0000d0 15 70 70 3d 73 f8 2d bf 47 a2 c7 bd 9e 37 05 bc
       0.05870064 -0.6795723 -0.09747749 -0.008130936
0000e0 a8 b8 77 3e 90 b5 fa be 77 82 92 bd 4a 26 a0 bd
       0.24191535 -0.48966646 -0.071537904 -0.07819803
0000f0 04 68 79 3e 41 32 ec be 64 ca e9 be 4a 29 3f 3e
       0.24356085 -0.4613209 -0.45662224 0.18668094
000100 b8 61 2a 3d 5a a5 37 3e 78 9b 05 be 23 a5 dc be
       0.041597098 0.1793417 -0.13047588 -0.4309474
000110 75 b1 ba 3d e9 a0 60 bd 1d 7b 6d be e4 80 c5 bc
       0.091158785 -0.054840956 -0.23191495 -0.024109311
000120 c8 99 e2 be bb 56 5a be 3a 31 b5 3e e1 4f 9d be
       -0.4425795 -0.21322148 0.3538912 -0.30725005
000130 4d 62 8c be 11 9a d1 be 08 ba 14 bf 9c 95 dd 3e
       -0.27418748 -0.40937856 -0.5809636 0.43278205
000140 1d c1 c7 be 63 25 7d bc 7c ef 85 3d 8d 7b 72 3e
       -0.3901452 -0.015450808 0.06539819 0.23679943
000150 f6 48 42 3e 2f 3a a7 bb 11 1f 9d be b6 33 3c 3e
       0.18973145 -0.0051033716 -0.30687764 0.18379101
000160 11 13 d5 3e 82 47 d1 be 09 90 43 3e 24 ea 10 be
       0.4161611 -0.4087487 0.19097914 -0.14151818
000170 9a d7 f7 3d eb 1c ce be ac 75 1a 3d 9a a8 d5 bd
       0.121016696 -0.40256438 0.037709877 -0.10432549
000180 01 52 f3 be de 1f b9 3e 75 04 ab be 14 f9 89 3e
       -0.47523502 0.36157125 -0.33401838 0.26947844
000190 da 8f 79 3d 1a 30 c3 3e 64 db 93 3e b4 af dc 3e
       0.060928203 0.38122636 0.2887832 0.431028
0001a0 92 be 6a bc 10 23 34 3e 60 e7 70 3e 9f 80 5c 3e
       -0.014327662 0.175915 0.23525763 0.2153344
0001b0 ca 45 d9 3e 6f f7 45 3a 69 37 a5 3e 9c 31 0c be
       0.42436057 0.0007551824 0.32268837 -0.136908
0001c0 d3 27 70 3e 31 10 8f be a4 8a 28 be 8e bc 1e 3c
       0.23452692 -0.2794204 -0.16459137 0.00968851
0001d0 d7 33 42 3e 83 ee d9 bd a2 49 7c be 7f 73 f5 be
       0.18965088 -0.106411956 -0.24637464 -0.4793968
0001e0 49 f4 7f bc ac bb cb 3d 88 c6 52 3d f8 cb 0b bf
       -0.015622207 0.09947905 0.051458865 -0.54608107
0001f0 29 29 32 3d e6 ee c7 be 22 14 ba 3d 5a 9a 2b 3e
       0.043496285 -0.39049453 0.09085871 0.16758099
