legged_gym/logs/tron1/Mar26_09-33-42_track_3.0_feet_contact_force_-0.0035_stand_still_-1.5_base_height+0.1_feet_regulation_-0.15_track_contacts/model_1200.pt (torch, 376290 bytes, 48 tensors)

std f4 [8]
0	0x3f012a50	0.5045519
1	0x3ed33a5b	0.4125546
2	0x3f071c22	0.527773
3	0x3ec8471e	0.39116758
4	0x3f06541c	0.5247209
5	0x3ed646ee	0.4185099
6	0x3f07a506	0.5298618
7	0x3ed1a067	0.4094269

actor.0.weight f4 [128, 33]
0	0xbec9be9c	-0.39403236
1	0x3f50324e	0.8132676
2	0x3e8b1a30	0.27168417
3	0x3f01c8c3	0.50696963
4	0x3c839ab2	0.016064975
5	0x3f10a9fb	0.5650937
6	0xbe2cd898	-0.16879499
7	0xbee0963a	-0.43864614
8	0x3ecf33fd	0.4046935
9	0x3eba8b37	0.36434337
10	0xbefdd8e8	-0.4957955
11	0xbf384ca9	-0.71991974
12	0xbef69a7f	-0.48164746
13	0x3e929162	0.28626543
14	0xbf2ab225	-0.66678077
15	0x3f10c0b6	0.56544054
16	0xbf13d298	-0.57743216
17	0x3e5e6584	0.21718413
18	0x3e7c43ab	0.24635188
19	0xbf43129d	-0.76200277
20	0xbec2ec85	-0.38071075
21	0x3de589b1	0.11207903
22	0x3be8fcf7	0.007110234
23	0x3e04b1a6	0.12958393
24	0xbd305db6	-0.04305812
25	0x3dabab2e	0.08382259
26	0xbcf27258	-0.029595539
27	0xbde80439	-0.113289304
28	0x3bbe765a	0.0058124484
29	0xbd9ea84f	-0.07746946
30	0x3eb877b9	0.3602884
31	0xbe421504	-0.1895333
32	0x3e33a8c8	0.17544854
33	0xbe3d9b15	-0.1851619
34	0xbf5efe74	-0.87107015
35	0xbe214c23	-0.157517
36	0xbeb9a82f	-0.36261126
37	0x3f827ef0	1.0194988
38	0x3e988b76	0.297939
39	0xbf8ec09e	-1.1152532
40	0xbede1749	-0.4337714
41	0xbe7d7920	-0.24753237
42	0xbedcbafa	-0.43111402
43	0x3ef34eaf	0.47520968
44	0xbe0aeeb4	-0.1356762
45	0x3e38630a	0.1800653
46	0x3e186386	0.14881715
47	0xbe73547f	-0.23762701
48	0xbf99d44c	-1.2017913
49	0x3eed843c	0.4638995
50	0x3e18be76	0.14916405
51	0x3db918c3	0.09037926
52	0xbdb6c6a3	-0.08924606
53	0xbca91127	-0.020638062
54	0x3bfc8ea7	0.007707435
55	0x3d9f11d7	0.077670746
56	0xbd29df3b	-0.041472655
57	0xbcd110dd	-0.025520736
58	0x3dfec9f6	0.12440865
59	0xbdae0ee4	-0.08498934
60	0xbd8fa696	-0.070141956
61	0x3e1c4a8d	0.15262814
62	0x3dc95abc	0.09831759
63	0xbd87bb72	-0.06627549
64	0x3e9a05b5	0.3008248
65	0x3bd71d15	0.006564746
66	0xbe37060c	-0.178734
67	0xbeb880af	-0.36035678
68	0xbc86ca57	-0.016453905
69	0xbf3b3dbb	-0.7314107
70	0xbdbe8ecc	-0.0930458
71	0xbe980493	-0.2969099
72	0xbf9d21fd	-1.2275997
73	0xbedf5a4b	-0.43623576
74	0x3e70293d	0.23453231
75	0x3e1f2451	0.15541197
76	0x3f456d11	0.7711955
77	0x3ef73eab	0.4829
78	0x3e68353f	0.22676562
79	0xbf1ab9b2	-0.604396
80	0xbe9caa35	-0.30598608
81	0xbf16615b	-0.587423
82	0x3e46eb89	0.19425787
83	0x3e9d41ce	0.30714267
84	0x3d3b2ad2	0.045695134
85	0x3e12a0fe	0.14319226
86	0xbda8f6c2	-0.0825019
87	0x3dad99d0	0.08476603
88	0xbdaeefaa	-0.08541806
89	0x3d5a5708	0.053305656
90	0x3c95a4d6	0.018267076
91	0xbb3d0ee9	-0.0028847998
92	0xbcce9413	-0.025217092
93	0x3c97e754	0.018542923
94	0xbd8ce53f	-0.06879663
95	0x3dda8c24	0.10671261
96	0x3de8255a	0.11335249
97	0xbea8f0da	-0.32996255
98	0xbe861874	-0.2619053
99	0xbefe8936	-0.4971406
100	0x3e1c4eb0	0.15264392
101	0xbe404f81	-0.18780328
102	0x3e4353d3	0.19074945
103	0x3f320672	0.69541085
104	0xbe115c43	-0.14195351
105	0xbf9ac851	-1.2092382
106	0xbef3c2f5	-0.47609678
107	0x3d5a95d8	0.05336556
108	0x3f14f127	0.5818047
109	0x3f2cbb6f	0.674735
110	0xbf2ddb90	-0.6791315
111	0x3e921352	0.28530365
112	0xbe32638c	-0.17420787
113	0xbf532cff	-0.82490534
114	0x3f0d5850	0.5521288
115	0xbe8f0edd	-0.27941027
116	0x3c13cd5d	0.00902113
117	0xbe52a4d6	-0.20570692
118	0x3e9ede96	0.31029195
119	0x3e0d241c	0.13783306
120	0xbe26c236	-0.16285023
121	0x3e0b8cfa	0.13627997
122	0x3a31e409	0.0006785994
123	0x3d7c3047	0.06156948
124	0xbe06b3f9	-0.13154592
125	0xbc9d4806	-0.019199383
126	0xbcb32bc4	-0.021871455
127	0xbe58aaa6	-0.21158847
128	0xbdd9dbb4	-0.10637608
129	0x3ea08aac	0.31355798
130	0xbd87002c	-0.0659183
131	0xbcb1ed42	-0.021719579
132	0xbf05d26d	-0.5227421
133	0x3eac7d34	0.33689272
134	0x3ddddbfa	0.10832973
135	0x3fbad253	1.4595436
136	0x3e1cc752	0.1531041
137	0x3f1b0b06	0.60563695
138	0x3e326ed9	0.17425098
139	0x3c9c9af6	0.01911686
140	0xbc12bb16	-0.008955738
141	0x3ed4d707	0.41570303
142	0x3dc05857	0.093918495
143	0xbf275cf5	-0.65376216
144	0x3f1f08e2	0.6212293
145	0x3d4a8da2	0.049451478
146	0xbf8895e0	-1.0670738
147	0x3f2c4db2	0.67306054
148	0xbf0eaba1	-0.55730635
149	0xbe4f457e	-0.20241353
150	0xbe0a895b	-0.1352896
151	0xbde87aac	-0.11351523
152	0x3e8d3f33	0.2758728
153	0xbdc08535	-0.09400407
154	0xbc9d27e5	-0.019184062
155	0x3daeccd4	0.085351616
156	0xbd644460	-0.05572927
157	0xbe447b00	-0.19187546
158	0x3b4a00c8	0.003082322
159	0xbb88bb77	-0.004172738
160	0xbe0719a9	-0.13193382
161	0xbe1bbbd0	-0.15208364
162	0x3e5239bb	0.20529835
163	0xb99864fa	-0.00029066933
164	0x3f11c1aa	0.5693613
165	0xbda41335	-0.08011476
166	0x3cb5cef2	0.022193406
167	0xbdcaf0b9	-0.099091955
168	0xbeff1dde	-0.49827474
169	0x3ebfd356	0.37465924
170	0x3ec03387	0.37539312
171	0x3ef1d4f8	0.47232795
172	0xbe722820	-0.23648119
173	0xbbc67541	-0.006056458
174	0xbec69283	-0.38783655
175	0xbf1875bb	-0.5955464
176	0x3f310ab4	0.69156957
177	0xbf7685cc	-0.9629791
178	0x3e9ab5ab	0.30216727
179	0x3f9f2890	1.2434254
180	0xbf35f69f	-0.7107944
181	0x3f06d0fb	0.5266263
182	0xbe5a3d52	-0.21312454
183	0xbf3b790a	-0.73231566
184	0xbd358b5a	-0.04432235
185	0x3f0c25e0	0.5474529
186	0xbe2a78a0	-0.16647577
187	0xbd813b11	-0.06310094
188	0xbe17a607	-0.14809428
189	0xbce14f9c	-0.027503781
190	0x3e363866	0.17794952
191	0xbd8d8fe4	-0.069122106
192	0xbe078043	-0.13232522
193	0xbd77f7cc	-0.060539052
194	0x3d28eb7a	0.041240193
195	0xbdd7d0d9	-0.105378814
196	0x3dec58f7	0.11540406
197	0x3eb447fd	0.35211173
198	0xbeaaeac9	-0.33382252
199	0x3de9b7d3	0.11412015
200	0xbe1f8293	-0.15577154
201	0xbf9c47ce	-1.2209413
202	0xbe4e6ab0	-0.20157886
203	0x3e6f5b0f	0.2337458
204	0x3eee223c	0.46510494
205	0xbf773fef	-0.9658193
206	0x3f5fa5ac	0.8736217
207	0xbd93a0c8	-0.07208401
208	0xbf100d28	-0.56270075
209	0x3e980956	0.29694623
210	0x3e575390	0.2102797
211	0x3e54e960	0.2079215
212	0x3f14f111	0.5818034
213	0xbedb07d0	-0.42779398
214	0xbe4036b9	-0.18770875
215	0x3dffa3fb	0.12482449
216	0xbf0f04d9	-0.5586677
217	0x3e8b206c	0.27173173
218	0xbf4ec0af	-0.8076276
219	0xbe495976	-0.19663033
220	0xbd78ab46	-0.060710214
221	0x3d5502fe	0.052004807
222	0x3d605496	0.054768167
223	0xbe1049fd	-0.14090724
224	0xbd5674e4	-0.05235757
225	0x3d3be061	0.04586828
226	0xbcc51655	-0.0240585
227	0x3d85f172	0.06540193
228	0x3c95fcfa	0.018309105
229	0xbe2d53eb	-0.16926543
230	0xbdb241c8	-0.08703953
231	0xbe8d79c6	-0.27631968
232	0xbc81bec5	-0.015838036
233	0x3e11d88d	0.14242764
234	0x3eeb9ccb	0.4601806
235	0x3f475c13	0.7787487
236	0x3d791094	0.060806826
237	0xbf5642af	-0.836955
238	0xbefcf639	-0.49406603
239	0x3b0cf6d9	0.0021509437
240	0xb8b20335	-8.488299e-05
241	0xbe9396f7	-0.28826115
242	0xbfbff8f9	-1.4997855
243	0x3f47704e	0.7790574
244	0xbf8809bd	-1.0627972
245	0xbdaf0868	-0.08546525
246	0xbe03810b	-0.12842195
247	0xbec4ded9	-0.3845127
248	0x3de7be81	0.113156326
249	0xbeb6164d	-0.3556389
250	0xbd566e86	-0.052351497
251	0x3e58057c	0.21095842
252	0xbe5d7873	-0.21627979
253	0xbd379f54	-0.04482968
254	0xbc1ffc24	-0.009764705
255	0xbd14bfba	-0.036315657

actor.0.bias f4 [128]
0	0xbe06ff6c	-0.13183373
1	0x3da26695	0.07929722
2	0x3e3d94ad	0.18513747
3	0x3d4f1a94	0.050562456
4	0x3e145e98	0.1448921
5	0xbe2d2eba	-0.16912356
6	0xbd7aead8	-0.06125912
7	0x3e023db2	0.12718847
8	0xbdf286e3	-0.11842134
9	0x3abbde4d	0.0014333219
10	0x3c59194c	0.01325066
11	0x3e189dca	0.14903942
12	0xbdd6528f	-0.104649656
13	0x3df0baa3	0.11754348
14	0x3c942c05	0.018087396
15	0xbe0ef8dd	-0.13962121
16	0xbd8544ed	-0.06507287
17	0xbd761066	-0.060074233
18	0xbe2974e2	-0.16548494
19	0x3decdc67	0.11565476
20	0x3d062285	0.032747764
21	0x3d291263	0.0412773
22	0x3e12790c	0.14303988
23	0x3df2bd69	0.11852533
24	0xbe6245e0	-0.22096968
25	0xbd8a30ab	-0.06747564
26	0xbe1563d2	-0.1458886
27	0xbe563b98	-0.2092117
28	0xbad9c9c9	-0.0016615923
29	0x3d22ab8c	0.03971438
30	0x3e2f248c	0.17103785
31	0x3e7f292b	0.24918048
32	0xbe7243c7	-0.23658668
33	0x3d9874fa	0.074441865
34	0xbd3fb6bf	-0.04680514
35	0xbcd81722	-0.026378218
36	0x3dc3c635	0.09559289
37	0xbd5722fb	-0.052523594
38	0xbccdc051	-0.025116118
39	0x3dce8900	0.100847244
40	0x3e92a211	0.28639272
41	0xbe3dbe06	-0.1852952
42	0xbdb0efad	-0.086394645
43	0xbda51347	-0.080603175
44	0x3e659f28	0.22423995
45	0x3d5776c2	0.05260349
46	0x3c14a03a	0.009071404
47	0x3e3cdc3f	0.18443392
48	0x3e662b8b	0.22477548
49	0xbd63860b	-0.055547755
50	0xbc92c2cf	-0.017915158
51	0x3dd391e2	0.10330559
52	0x3bfc149b	0.007692886
53	0x3e451f0c	0.19250125
54	0xbd481880	-0.04885149
55	0xbe144198	-0.14478147
56	0xbd92c31b	-0.0716612
57	0xbe24fec7	-0.16112815
58	0xbd4572c4	-0.048205152
59	0xbe245943	-0.16049676
60	0xbd4f121f	-0.05055439
61	0x3da353e7	0.079749875
62	0xbe7e41bc	-0.24829763
63	0xbd593791	-0.053031508
64	0xbda6e4e6	-0.08149128
65	0x3d87a559	0.066233344
66	0x3d9c8247	0.07642036
67	0x3be4bad8	0.0069802813
68	0x3e4ccea1	0.20000698
69	0xbc10383d	-0.008802471
70	0x3d2ab61a	0.04167757
71	0xbe5ac673	-0.21364765
72	0x3d410256	0.04712137
73	0xbe63b202	-0.22235873
74	0xbd875134	-0.06607285
75	0xbea50820	-0.3223276
76	0x3bcf0bc8	0.006318543
77	0x3da07b50	0.0783602
78	0xbe1a644d	-0.15077324
79	0xbe3c52b4	-0.18390924
80	0xbd377f45	-0.044799108
81	0x3d8516ac	0.06498465
82	0x3d7101cb	0.0588396
83	0xbde29898	-0.11064261
84	0xbe2eb5ed	-0.17061587
85	0x3d79e6ec	0.06101124
86	0xbca81c32	-0.020521257
87	0xbe51178c	-0.20419139
88	0xbdae6f05	-0.08517269
89	0xbe2d3e3c	-0.16918272
90	0xbdc5b346	-0.09653334
91	0x3e34289b	0.17593615
92	0xbb37a378	-0.002802102
93	0xbe25e8f4	-0.16202146
94	0x3e06193e	0.13095567
95	0x3ca92e6b	0.020652017
96	0x3e0dee36	0.13860402
97	0xbdaf9079	-0.08572478
98	0xbe2a9eae	-0.16662094
99	0xbd8e8b70	-0.06960189
100	0x3d7611c4	0.060075536
101	0x3cdc1d6e	0.026869502
102	0xbe2865b1	-0.16445042
103	0xbcedafa9	-0.029014425
104	0x3e3cf159	0.18451442
105	0x3e126f69	0.14300312
106	0xbd262aa1	-0.040567998
107	0x3d3795a2	0.044820435
108	0x3cb8c59a	0.022555161
109	0x3c0aaa28	0.00846342
110	0xbddf1f28	-0.108946145
111	0xbd58d6d0	-0.052939236
112	0xbe4fe3d1	-0.20301749
113	0xbd647e4f	-0.05578452
114	0x3d3b6786	0.045753025
115	0x3e4ae40a	0.19813552
116	0xbe61d48b	-0.22053735
117	0xbd5dd059	-0.054153774
118	0xbe71dda2	-0.23619702
119	0xbd0f1ae0	-0.03493774
120	0xbc28c649	-0.010301181
121	0x3d10d664	0.03536071
122	0xbe3e18b0	-0.18564105
123	0xbdbb1115	-0.091341175
124	0xbd841b9a	-0.06450577
125	0x3d8d9931	0.069139846
126	0x3d91daae	0.07121788
127	0x3d7a76d6	0.061148487

actor.2.weight f4 [64, 128]
0	0x3e34d39a	0.17658845
1	0x3dcbf967	0.09959679
2	0x3e1f56c0	0.15560436
3	0x3e19bb2d	0.15012808
4	0x3df3e331	0.11908568
5	0xbcdfd432	-0.027322862
6	0xbef41eeb	-0.4767984
7	0x3e615c09	0.22007765
8	0x3d96dec7	0.0736671
9	0xbdfc3813	-0.12315383
10	0x3d2f9bd3	0.042873215
11	0xbe0f1b68	-0.13975298
12	0xbe017379	-0.12641706
13	0x3eb87965	0.36030117
14	0x3d681043	0.056656133
15	0x3d9c5d51	0.07634986
16	0x3d5c86bc	0.05383943
17	0x3ed21aa7	0.4103596
18	0x3d0a73f5	0.03380199
19	0x3de96f70	0.11398208
20	0xbdd1f16d	-0.102511264
21	0x3e63cb07	0.22245418
22	0xbd0937db	-0.033500534
23	0xbcc22eae	-0.0237039
24	0xbd1020ca	-0.03518752
25	0x3e3785a8	0.1792208
26	0xbeed6155	-0.4636332
27	0x3e355454	0.1770795
28	0x3d7d9db5	0.06191798
29	0x3cd58dfa	0.026068676
30	0x3cca431f	0.024690209
31	0x3f09b282	0.53788006
32	0xbd89c3bf	-0.06726789
33	0xbea3d492	-0.31998116
34	0x3e055aeb	0.13022964
35	0x3e446345	0.19178493
36	0xbc77a359	-0.015114629
37	0x3eaa9b2d	0.33321515
38	0x3db063f4	0.086128145
39	0xbee79378	-0.45229697
40	0x3f1300a4	0.5742285
41	0xbe835130	-0.2564788
42	0x3e989dcc	0.2980789
43	0x3e867169	0.262584
44	0x3e94dc53	0.29074344
45	0xbdd5fac7	-0.104482226
46	0x3e50e97b	0.20401566
47	0xbe3404a9	-0.17579903
48	0x3eaba9e6	0.3352806
49	0x3da93e47	0.082638316
50	0x3db5e4e2	0.088815466
51	0x3d518961	0.051156405
52	0xbdd44f69	-0.10366709
53	0x3c6bf3ef	0.01440142
54	0xbdc11fc3	-0.09429886
55	0x3cca8b87	0.024724735
56	0x3e1d8fbc	0.15386862
57	0x3d3b646a	0.04575006
58	0xbc3251b5	-0.010883738
59	0xbe2cbd53	-0.16869096
60	0xbdade6b9	-0.084912725
61	0xbecb4834	-0.39703524
62	0xbe8334f2	-0.25626332
63	0xbd833dc2	-0.06408264
64	0x3dd7e09a	0.10540886
65	0x3ec26c6c	0.37973344
66	0xbe3e0a31	-0.18558575
67	0x3dcad92a	0.09904702
68	0x3e610861	0.21975853
69	0xbd89234b	-0.06696185
70	0xbec3da53	-0.38252506
71	0x3c031a3a	0.008001858
72	0xbd98bbf7	-0.074577264
73	0x3e9dccfa	0.30820447
74	0xbe415b74	-0.18882543
75	0xbd98ca39	-0.07460446
76	0xbe888ba5	-0.2666904
77	0x3df032a9	0.11728413
78	0xbd1dd60c	-0.03853421
79	0x3c14938f	0.009068384
80	0xbdaee5fc	-0.0853996
81	0xbe084b8f	-0.13310073
82	0x3e86635a	0.26247674
83	0x3e6c5a6a	0.23081365
84	0xbda71ecb	-0.0816017
85	0xbe1502c7	-0.1455184
86	0xbe02fe66	-0.12792358
87	0xbdde728c	-0.10861692
88	0x3d8e7490	0.06955826
89	0x3d10360b	0.03520779
90	0xbeac8b67	-0.33700106
91	0xbd35b233	-0.044359397
92	0x3cb36e90	0.021903306
93	0x3eae25a9	0.34013107
94	0xbcb18802	-0.021671299
95	0x3e0a33df	0.1349635
96	0x3e6fd446	0.2342082
97	0xbd85cb50	-0.065329194
98	0x3e0f17c0	0.13973904
99	0x3d839405	0.06424717
100	0x3e1e4029	0.15454163
101	0x3eb159f2	0.34638935
102	0xbe0a9cc0	-0.13536358
103	0xbe9ce7f2	-0.3064571
104	0xbd91a316	-0.07111184
105	0x3e88cf33	0.2672058
106	0x3c9fa749	0.019488947
107	0x3cde39bb	0.027127137
108	0x3cd20ca4	0.025640793
109	0xbebb6eef	-0.36608073
110	0xbd958f7d	-0.07302759
111	0xbd3e9ae0	-0.04653442
112	0x3cc68441	0.024232985
113	0xbc088d4e	-0.008334471
114	0x3deea0d4	0.11651769
115	0xbd28446d	-0.04108088
116	0xbed25742	-0.41082197
117	0xbde30597	-0.110850506
118	0x3e031ee5	0.12804754
119	0xbe1526e2	-0.14565614
120	0xbdb7270a	-0.08942993
121	0x3da1ecd8	0.079065025
122	0x3d5e106c	0.05421488
123	0xbe550e1f	-0.20806168
124	0xbcfbc154	-0.030731834
125	0x3dfce8a8	0.12349063
126	0x3ccc8825	0.024967263
127	0xbea6141d	-0.3243722
128	0x3dee3d5d	0.11632798
129	0xbdea6b9b	-0.11446305
130	0x3e2c87ce	0.1684868
131	0x3e2276fd	0.15865703
132	0x3e7f03b3	0.24903755
133	0xbd18ac36	-0.03727361
134	0x3c28300f	0.010265364
135	0x3e100b31	0.14066769
136	0xbd9a185e	-0.07524179
137	0x3e769e6c	0.2408387
138	0x3d88a4b2	0.06672038
139	0xbf02950d	-0.51008683
140	0x3dc40846	0.095718905
141	0xbf344c41	-0.70428854
142	0x3e1417e1	0.14462234
143	0x3e199b59	0.15000667
144	0xbd6fdf75	-0.058562715
145	0xbebe4ff1	-0.37170365
146	0x3e0db3f1	0.13838173
147	0xbe4b2a2f	-0.1984031
148	0xbd7fa25d	-0.0624107
149	0xbebad9e0	-0.3649435
150	0xbd80a1bb	-0.06280848
151	0xbcb1f131	-0.021721454
152	0x3e3197c9	0.17343058
153	0xbeb9d4a2	-0.36295038
154	0x3dee5181	0.116366394
155	0x3e5fabd1	0.21842887
156	0xbe5a48b1	-0.21316792
157	0xbed1be25	-0.4096538
158	0xbde45d18	-0.11150569
159	0xbe3b9fa9	-0.18322624
160	0x3cd752f9	0.026284682
161	0xbeb00201	-0.3437653
162	0x3d861a6a	0.06548007
163	0x3e556b1c	0.2084164
164	0x3e44c801	0.1921692
165	0x3d3a105d	0.04542576
166	0xbe4715a3	-0.19441848
167	0x3df2df0d	0.1185895
168	0x3e904d90	0.28184175
169	0xbe9928cf	-0.29913947
170	0x3ea1370f	0.3148732
171	0xbf2e6ff8	-0.681396
172	0xbe8e6d96	-0.27817982
173	0x3c414639	0.011796528
174	0x3e939602	0.28825384
175	0x3d95a09e	0.07306026
176	0xbdeae081	-0.11468602
177	0xbe8d9b29	-0.2765744
178	0xbe0e4e59	-0.13897075
179	0xbe6cebe0	-0.23136854
180	0xbf303ee8	-0.6884599
181	0xbf3398d3	-0.70155066
182	0xbe22de9f	-0.15905236
183	0xbdc22d3f	-0.09481286
184	0xbca18a22	-0.019719187
185	0x3f24d8ab	0.6439311
186	0x3ea2f92a	0.31830722
187	0xbde3e6da	-0.11128016
188	0x3e9bffda	0.30468637
189	0x3d45ba5d	0.048273433
190	0x3e85ac4a	0.2610801
191	0x3ec90325	0.39260212
192	0xbe72c107	-0.23706447
193	0xbdaca524	-0.084299356
194	0x3f197938	0.5995059
195	0xbeda29c3	-0.42609987
196	0x3f1e2429	0.61773926
197	0xbea3dbae	-0.3200354
198	0xbca7aeee	-0.020469155
199	0xbe2e417b	-0.17017166
200	0xbf025cb7	-0.5092272
201	0xbcf273d0	-0.02959624
202	0x3e8cc912	0.27497154
203	0x3e13ac18	0.14421117
204	0x3c5fb4c5	0.013653939
205	0xbd89e11c	-0.06732389
206	0x3e663b0c	0.22483462
207	0xbe30785d	-0.17233415
208	0xbc3eee6a	-0.011653522
209	0xbe522073	-0.20520191
210	0x3e16f9a8	0.14743674
211	0x3e141207	0.14460002
212	0x3e058872	0.13040331
213	0x3f031ed4	0.51218915
214	0xbc12a238	-0.008949809
215	0xbf23173b	-0.6370732
216	0xbd34c022	-0.044128545
217	0x3e730802	0.23733523
218	0xbb8cbcf8	-0.004294988
219	0xbd2de443	-0.042454015
220	0x3eafdc28	0.34347653
221	0x3db59299	0.08865852
222	0xbc9ed5ee	-0.019389119
223	0xbdaa6185	-0.083193816
224	0xbde68b4e	-0.11257039
225	0x3dd9b926	0.106310174
226	0x3e71d0ba	0.23614779
227	0x3ea8a5f8	0.32939124
228	0xbe17641d	-0.14784284
229	0x3daad0c8	0.08340603
230	0x3ea2815c	0.31739318
231	0xbe1e3d1a	-0.15452996
232	0xbdba6f16	-0.09103219
233	0x3e2130ad	0.15741225
234	0x3d589dde	0.05288493
235	0x3e651b8b	0.22373788
236	0xbce6c2f4	-0.028169133
237	0xbd838d08	-0.06423384
238	0x3da0d408	0.07852942
239	0xbecea20e	-0.40358013
240	0xbe18f01a	-0.14935341
241	0xbe015917	-0.12631641
242	0x3eeae441	0.4587727
243	0xbe3ae10d	-0.18249913
244	0xbe6c0e04	-0.23052222
245	0x3d27d6cb	0.040976327
246	0x3e4b0ed2	0.19829872
247	0xbe35ac47	-0.177415
248	0xbd8757e9	-0.066085644
249	0x3da734ef	0.08164393
250	0x3e4d17b1	0.20028569
251	0x3ebf0fdf	0.37316796
252	0xbe65d0a7	-0.22442876
253	0x3d30352d	0.043019462
254	0xbda4c741	-0.08045817
255	0x3ea79b3f	0.3273563

actor.2.bias f4 [64]
0	0x3d84fc1d	0.06493399
1	0xbdf180ed	-0.11792169
2	0xbe764fe1	-0.24053909
3	0xbd1f24d6	-0.03885349
4	0xbeb88b3a	-0.3604372
5	0xbc47b393	-0.01218881
6	0xbbf3a91e	-0.007435932
7	0xbc188b57	-0.009310565
8	0xbd457965	-0.048211474
9	0xbd76b4bd	-0.06023096
10	0xbe92753d	-0.2860507
11	0xbe6017bb	-0.21884052
12	0xbe152c51	-0.14567687
13	0xbd920097	-0.07129019
14	0xbe28b2b8	-0.16474426
15	0xbe02758b	-0.12740152
16	0xbe0be200	-0.13660431
17	0xbe8808c2	-0.26569182
18	0xbe999713	-0.29998073
19	0xbed6086c	-0.418033
20	0xbe53f075	-0.20697196
21	0xbd7290f9	-0.059220288
22	0x3d7fa327	0.062411454
23	0xbe4f010f	-0.20215248
24	0xbecb3104	-0.39685833
25	0xbde8f4d8	-0.11374825
26	0xbdb33698	-0.08750647
27	0xbe9ec114	-0.31006682
28	0xbe623431	-0.22090222
29	0xbedd1baf	-0.43185183
30	0xbec8311b	-0.39099964
31	0xbe8ec3c3	-0.2788373
32	0xbcbb234b	-0.022843977
33	0xbe9284fb	-0.2861708
34	0xbdacbe82	-0.08434774
35	0xbd4d41ce	-0.050111584
36	0x3d9568d7	0.07295387
37	0xbe036cf2	-0.12834528
38	0x3d9587c4	0.07301286
39	0xbde38781	-0.1110983
40	0xbece9df5	-0.40354887
41	0xbe384be0	-0.17997694
42	0xbe615058	-0.22003305
43	0xbf0a8551	-0.54109675
44	0xbe2200d7	-0.15820633
45	0xbe302deb	-0.17205016
46	0xbdddf6fc	-0.10838124
47	0xbd5819bd	-0.05275892
48	0xbebe2dc1	-0.37144282
49	0xbe1e0203	-0.15430455
50	0x3db4847e	0.088143334
51	0x3ce86cf7	0.028372271
52	0xbed54051	-0.41650632
53	0xbd066c9a	-0.032818414
54	0x3ca05cfb	0.019575587
55	0xbd7b096b	-0.06128828
56	0xbef794e7	-0.4835579
57	0xbe2a31ff	-0.16620634
58	0xbdd5918b	-0.10428151
59	0xbe803f5a	-0.25048333
60	0xbd2be689	-0.041967902
61	0xbe8403ed	-0.25784245
62	0xbee2c824	-0.4429332
63	0xbde89e7c	-0.113583535

actor.4.weight f4 [32, 64]
0	0x3da04395	0.0782539
1	0x3d3e2515	0.046422083
2	0x3e503880	0.20334053
3	0xbe0ef632	-0.13961104
4	0xbcb7d037	-0.022438152
5	0xbdc912ef	-0.098180644
6	0xbe6a3693	-0.22872381
7	0xbe9c63a8	-0.30544782
8	0xbe2afdc5	-0.16698368
9	0x3e388ced	0.18022509
10	0x3e14146d	0.14460917
11	0xbe8a1955	-0.26972452
12	0x3ea6e56b	0.32596907
13	0xbe688815	-0.22708161
14	0xbd5c77e0	-0.05382526
15	0xbe67c42a	-0.22633424
16	0x3e13bb59	0.14426936
17	0xbd3ca333	-0.046054076
18	0x3d859352	0.0652224
19	0xbe2af1fb	-0.1669387
20	0xbb01e349	-0.001981931
21	0xbdbdcff5	-0.0926818
22	0x3d528641	0.051397566
23	0x3eff13e0	0.4981985
24	0x3e547cec	0.20750779
25	0x3c9b7d58	0.018980667
26	0xbe92540c	-0.28579748
27	0xbe1dd817	-0.15414463
28	0xbe26119f	-0.1621766
29	0xbe7c234f	-0.24622844
30	0x3e545b57	0.20737968
31	0xbddb7bdf	-0.10716986
32	0xbdca07cb	-0.09864768
33	0x3dc208dc	0.09474346
34	0xbeabbb84	-0.335415
35	0xbd8da69f	-0.06916546
36	0xbe0d03b0	-0.13770938
37	0xbe507d4a	-0.20360294
38	0xbd088e94	-0.033339098
39	0xbe5e7cac	-0.21727246
40	0xbe2c80e4	-0.16846043
41	0xbe25ac8d	-0.16179104
42	0xbc25a933	-0.010111141
43	0xbd9152b7	-0.07095855
44	0xbd724c0a	-0.059154548
45	0xbddb6b10	-0.1071378
46	0x3e14bd66	0.14525375
47	0x3e1bee2b	0.15227573
48	0x3cb795bf	0.022410272
49	0xbdd77dd7	-0.10522049
50	0xbe5ded78	-0.21672618
51	0x3cfab09b	0.03060179
52	0x3e37cfa8	0.17950308
53	0x3d9131b5	0.07089559
54	0xbe5ef02a	-0.21771303
55	0x3e25c8a5	0.16189821
56	0x3de09d38	0.10967487
57	0x3d134d25	0.035962243
58	0xbc7b9cd2	-0.015357213
59	0x3e824708	0.25444818
60	0xbe1aa298	-0.15101087
61	0xbd0020f4	-0.031281427
62	0xbce00d9f	-0.027350245
63	0xbe93a5f8	-0.28837562
64	0x3c176ad5	0.009241779
65	0xbdf64721	-0.120252855
66	0xbd7d3c30	-0.061824977
67	0x3d994d3b	0.07485434
68	0x3eb0f479	0.34561518
69	0xbd8eb7b7	-0.069686346
70	0x3e174888	0.14773762
71	0x3d9da6d2	0.07697834
72	0xbce25404	-0.027627952
73	0x3c0978c3	0.008390608
74	0x3c6731b2	0.014110969
75	0xbcb8605b	-0.022506883
76	0x3eec20b9	0.46118715
77	0x3da447e8	0.080215275
78	0xbd7dda83	-0.061975967
79	0xbe453d52	-0.19261673
80	0xbe5e0a26	-0.21683559
81	0x3e43b4c1	0.19111921
82	0x3c13077a	0.0089739505
83	0x3db231d2	0.08700909
84	0x3d16a4b4	0.036778167
85	0x3d0fd523	0.035115372
86	0xbc43e0a8	-0.011955418
87	0x3dca1fb7	0.098693304
88	0xbdefc07f	-0.117066376
89	0x3e8b53f6	0.27212495
90	0xbe70efe0	-0.23529005
91	0x3dd20d88	0.10256487
92	0x3e346eb2	0.17620352
93	0x3d36ef9d	0.044662107
94	0xbf16a1df	-0.58840746
95	0x3e920287	0.28517553
96	0xbdc8bd10	-0.09801686
97	0x3e52a915	0.20572312
98	0xbe6a66d4	-0.22890788
99	0xbe83ce86	-0.25743502
100	0x3e390129	0.18066849
101	0x3e074b56	0.13212332
102	0x3b865bda	0.004100305
103	0xbe09b793	-0.13448934
104	0xbd30cb4e	-0.043162636
105	0x3decbe1e	0.115596995
106	0xbe1753ad	-0.14778014
107	0xbe8694a1	-0.2628527
108	0xbde27d99	-0.11059112
109	0x3dfcd1b9	0.12344689
110	0x3d0bc863	0.03412665
111	0xbebd5ca4	-0.36984742
112	0x3c3a580d	0.011373532
113	0xbe2aa849	-0.16665758
114	0xbe3afac5	-0.18259723
115	0xbd524a8a	-0.051340617
116	0xbd000cd3	-0.03126223
117	0xbe489854	-0.19589359
118	0x3de43604	0.11143115
119	0x3e97305d	0.29529086
120	0xbe222461	-0.1583419
121	0xbc89d150	-0.01682344
122	0x3d636d5a	0.055524208
123	0x3d46f0bf	0.048569437
124	0x3e27eb81	0.16398431
125	0xbe0c0044	-0.13671976
126	0x3e24d75f	0.16097783
127	0x3da4be1b	0.08044072
128	0xbdbf10c6	-0.09329371
129	0xbe3d80ff	-0.1850624
130	0xbe079842	-0.13241675
131	0x3d9a16fc	0.07523915
132	0x3e53ffe5	0.20703085
133	0xbe40e432	-0.1883705
134	0xbd3d5acc	-0.04622917
135	0xbe130864	-0.1435867
136	0x3d92b71a	0.0716383
137	0x3e842b6a	0.25814372
138	0x3df0ad0f	0.11751758
139	0x3e66f517	0.22554432
140	0xbc920254	-0.017823376
141	0xbd85cf05	-0.065336265
142	0xbdd4f60a	-0.10398491
143	0xbd77257e	-0.06033849
144	0xbe60e920	-0.2196393
145	0x3c810638	0.015750036
146	0x3cff1963	0.031140035
147	0xbd1d01a4	-0.038331643
148	0xbd2977a3	-0.04137386
149	0xbd5a103d	-0.053238142
150	0xbcc4bb23	-0.024015015
151	0x3e2fc08e	0.17163298
152	0xbd226066	-0.039642714
153	0xbe85ae9a	-0.26109773
154	0xbd521a1e	-0.05129444
155	0xbdff8e4a	-0.12478311
156	0xbe802708	-0.25029778
157	0x3aed3a10	0.0018098969
158	0x3e04d2ce	0.1297104
159	0xbd5a793b	-0.05333827
160	0x3e8016e4	0.25017464
161	0x3e1e81be	0.1547918
162	0x3e26a74d	0.16274758
163	0x3d0d4fc8	0.034499913
164	0x3dec8f1a	0.11550732
165	0x3e57322b	0.21015231
166	0xbe88343a	-0.26602346
167	0xbe0a7a3c	-0.13523191
168	0x3e3f6498	0.18690717
169	0xbd30596f	-0.04305404
170	0xbdb0ea92	-0.08638491
171	0xbe8b94d1	-0.27261975
172	0x3e220b98	0.15824735
173	0x3ee0c0de	0.43897146
174	0xbe2f66ba	-0.17129031
175	0xbe23cc8a	-0.15995994
176	0xbe82b810	-0.25531054
177	0xbd7cfa67	-0.06176224
178	0x3dbd56a2	0.092450395
179	0xbe55f44d	-0.20893975
180	0xbc28078e	-0.010255707
181	0xbdb734aa	-0.08945592
182	0xbc8e62c3	-0.017381078
183	0xbcc64170	-0.024201125
184	0xbdc53b99	-0.09630508
185	0xbe4c690d	-0.19961949
186	0xbe8854bc	-0.26627147
187	0xb9679932	-0.00022086946
188	0xbe8c246b	-0.27371535
189	0x3f18e2f3	0.597213
190	0x3e7b2623	0.24526267
191	0x3da94128	0.08264381
192	0x3baa4437	0.00519612
193	0x3e487c5a	0.19578686
194	0x3e15bcdc	0.14622825
195	0x3c2a75bc	0.010404047
196	0x3c8e4ea8	0.01737149
197	0x3e869f3d	0.26293364
198	0xbeb9359e	-0.3617372
199	0xbe0b5d5c	-0.13609833
200	0xbe16949b	-0.14705126
201	0xbe75b466	-0.23994598
202	0xbc9fde5f	-0.019515214
203	0x3d2a30ff	0.041550633
204	0x3d8fc854	0.070206314
205	0xbe978b20	-0.2959833
206	0x3dc5357b	0.09629341
207	0x3d8b123e	0.06790589
208	0xbe9cd117	-0.30628273
209	0xbdc2315d	-0.094820715
210	0x3d0c3ca7	0.03423753
211	0xbe2ffd72	-0.17186525
212	0x3e179a7d	0.14805026
213	0x3af910c4	0.0019002189
214	0xbe6efa47	-0.2333766
215	0x3ead4a77	0.33845875
216	0x3ced2d9a	0.028952409
217	0xbe284208	-0.16431439
218	0xbe4f4cce	-0.20244142
219	0xbe772ca6	-0.24138126
220	0xbe7aff69	-0.24511494
221	0x3de3d704	0.11124995
222	0x3e95dd11	0.29270223
223	0x3de91148	0.11380249
224	0x3bd1b3ed	0.0063996227
225	0xbdb45ded	-0.088069774
226	0x3d0846f9	0.03327081
227	0x3dbef884	0.09324744
228	0xbe9d1cdf	-0.3068609
229	0xbe7278ae	-0.23678848
230	0x3c11ad36	0.008891394
231	0x3ee7a6cc	0.45244443
232	0xbdee1542	-0.11625148
233	0x3c48e520	0.012261659
234	0xbe0961df	-0.13416241
235	0x3e634bdc	0.22196907
236	0xbb3f420d	-0.0029183656
237	0xbea58bff	-0.3233337
238	0xbe848d21	-0.25888923
239	0x3c17fa02	0.009275915
240	0x3c65e234	0.014030982
241	0x3e07737d	0.13227649
242	0x3c151ec7	0.009101576
243	0xbcc0190a	-0.02344944
244	0x3e8527e2	0.2600699
245	0xbe9f3a25	-0.31099048
246	0xbeb209e1	-0.34773162
247	0xbdeaaddd	-0.11458943
248	0x3e381325	0.17976053
249	0x3e0c934c	0.13728064
250	0x3e0f074e	0.1396763
251	0xbcdca4f7	-0.02693413
252	0xbe1285b4	-0.14308816
253	0xbdf2e3fb	-0.1185989
254	0x3dd385b6	0.10328238
255	0x3e62ce37	0.22148977

actor.4.bias f4 [32]
0	0xbdf5bd7f	-0.11999034
1	0xbda6f1b0	-0.08151567
2	0xbea6dda3	-0.3259097
3	0xbe33cc08	-0.175583
4	0xbc77d404	-0.015126232
5	0xbe3b9b1a	-0.18320885
6	0xbd565327	-0.052325394
7	0xbe7c398b	-0.24631326
8	0xbe2c3c51	-0.16819884
9	0xbe51bf55	-0.20483144
10	0xbe974474	-0.29544413
11	0xbe2d3490	-0.16914582
12	0xbf05d474	-0.522773
13	0x3b2b152c	0.0026105149
14	0xbe15da44	-0.14634043
15	0xbe9c39c7	-0.3051283
16	0x3df89e4d	0.121395685
17	0xbe72be09	-0.23705305
18	0xbf0f5ac5	-0.5599788
19	0x3cb5dcdb	0.022200039
20	0x3d9da340	0.07697153
21	0xbf075405	-0.5286258
22	0x3cd1715d	0.025566751
23	0xbd4aede9	-0.049543295
24	0xbcaa8858	-0.020816967
25	0xbedccd32	-0.43125302
26	0x3dac81f3	0.08423223
27	0xbef2f401	-0.47451785
28	0xbe30c20e	-0.17261526
29	0xbec48644	-0.38383687
30	0xbcd41b5e	-0.025891956
31	0xbed62124	-0.4182216

actor.6.weight f4 [8, 32]
0	0x3e184bad	0.14872618
1	0x3e1a6783	0.15078549
2	0xbe47592f	-0.19467615
3	0x3defd8b1	0.117112525
4	0x3e04d85e	0.12973163
5	0xbbfe705a	-0.007764858
6	0xbd9bc66a	-0.07606204
7	0xbe4569a0	-0.19278574
8	0x3cec360a	0.028834362
9	0x3e6dc0a9	0.23218025
10	0xbd5d94b4	-0.054096892
11	0x3dee37df	0.1163175
12	0xbe864f13	-0.26232204
13	0x3e9b15c7	0.30290052
14	0xbd9526cf	-0.07282793
15	0x3cb455e6	0.022013616
16	0x3e7d4a90	0.24735475
17	0xbdfb8d0c	-0.12282762
18	0xbd96679f	-0.07343983
19	0xbda3e866	-0.08003311
20	0xbcd3aa0e	-0.025837924
21	0xbe0502ab	-0.12989299
22	0x3e8306e9	0.2559121
23	0xbdd0dcb1	-0.101983435
24	0x3e269295	0.16266854
25	0xbe6981b1	-0.2280338
26	0xbe2d9704	-0.16952139
27	0xbdd6a0fd	-0.10479925
28	0x3e175ecf	0.1478226
29	0xbe203702	-0.15645984
30	0x3db58fde	0.08865331
31	0xbe262a47	-0.16227065
32	0xbe10537c	-0.14094347
33	0xbdb527d3	-0.088454865
34	0x3ce3b113	0.027794397
35	0xbcaf5f11	-0.021407636
36	0x3da30241	0.07959414
37	0x3d86f83d	0.065903164
38	0xbdd75695	-0.10514561
39	0x3d286a65	0.04111709
40	0x3e1ec60c	0.15505236
41	0xbd709a79	-0.058741067
42	0xbd237ac3	-0.039911997
43	0x396d8f1b	0.00022655392
44	0xbe87b0e9	-0.2650216
45	0x3d498431	0.049198333
46	0x3d2a5118	0.041581243
47	0xbcf9904d	-0.030464316
48	0x3e9a0388	0.3008082
49	0x3e21d36a	0.15803304
50	0xbe848669	-0.25883797
51	0x3d93ce93	0.07217135
52	0x3e7d10a2	0.24713376
53	0x3e8ef2b7	0.27919552
54	0xbdcb8c75	-0.099388994
55	0xbe2e1310	-0.1699946
56	0xbe23551d	-0.15950437
57	0x3db09d1f	0.086237185
58	0x3dc08059	0.093994804
59	0xbd9578a3	-0.072984
60	0x3c50dd49	0.012748071
61	0x3e5c80ea	0.21533552
62	0xbc1e8184	-0.009674434
63	0xbc58d1ca	-0.013233611
64	0xbc885fbc	-0.016647212
65	0xbe7eed28	-0.24895155
66	0x3e0a777b	0.1352214
67	0x3e15cb67	0.14628373
68	0xbdb49c54	-0.0881888
69	0x3d37002f	0.04467791
70	0x3d75609a	0.05990658
71	0x3deccaf6	0.11562149
72	0xbe51530e	-0.20441839
73	0xbe4ed702	-0.20199206
74	0xbe8491bd	-0.2589244
75	0x3cb1a2ea	0.021684129
76	0xbdfa2785	-0.12214569
77	0xbe01e38a	-0.12684456
78	0x3e035f52	0.1282933
79	0x3ced8564	0.02899427
80	0xbd9786c7	-0.073987536
81	0xbdc75c14	-0.097343594
82	0xbd125d98	-0.03573379
83	0x3f086c91	0.5329066
84	0xbe6d3f23	-0.23168616
85	0xbd2f6733	-0.042823028
86	0x3daa6271	0.083195575
87	0xbdecc713	-0.11561408
88	0xbda21cac	-0.07915625
89	0x3b9b87c6	0.00474641
90	0xbed5c58e	-0.41752285
91	0x3da1e645	0.079052486
92	0x3e6e16e4	0.2325092
93	0xbb7d3efa	-0.0038642273
94	0xbeafaa47	-0.343096
95	0xbd68e5ae	-0.056859665
96	0x3da6db02	0.08147241
97	0xbcf0fc5a	-0.029417206
98	0x3bcd2895	0.0062609413
99	0x3e4b1a91	0.19834353
100	0x3a52b6a8	0.0008038082
101	0xbe57e9fe	-0.21085355
102	0x3eb2ec9e	0.3494615
103	0x3eaf2f25	0.34215656
104	0x3e23d6ec	0.15999955
105	0x3c870ba4	0.016485043
106	0xbe0bfec2	-0.13671401
107	0x3df32a30	0.11873281
108	0xbd97dc3e	-0.07415055
109	0xbd46e3cd	-0.04855709
110	0xbda1beec	-0.078977436
111	0xbea75cc0	-0.3268795
112	0xbc6b7e9d	-0.014373449
113	0xbc411d5d	-0.011786786
114	0x3c7a4f66	0.015277719
115	0xbe7d03d1	-0.24708487
116	0xbc82c296	-0.015961926
117	0x3e4199e7	0.18906365
118	0xbd701fbe	-0.05862402
119	0xbd49a25a	-0.049227096
120	0xbc966c48	-0.01836218
121	0xbd7562da	-0.059908725
122	0xbd95ac23	-0.07308223
123	0xbdc5bb7f	-0.09654903
124	0x3dd4795d	0.10374711
125	0xbc1f83bb	-0.009735997
126	0x3d6d3421	0.057911042
127	0x3d148fa9	0.036269818
128	0xbd569f70	-0.052398145
129	0x3dcabb1c	0.098989695
130	0x3d567c00	0.05236435
131	0xbdc5e142	-0.09662105
132	0xbec0c43b	-0.37649712
133	0xbe08cf07	-0.13360225
134	0xbc8c82c5	-0.0171522
135	0xbce84251	-0.028351935
136	0x3d796fbb	0.06089757
137	0x3d194c79	0.037426446
138	0x3e00c248	0.12574112
139	0x3d867968	0.06566125
140	0x3e39ba3c	0.18137449
141	0xbe5a306d	-0.21307535
142	0xbd8e5293	-0.069493435
143	0xbc864113	-0.016388452
144	0xbd72b6a8	-0.059256226
145	0x3e36fb5a	0.1786932
146	0xbcd04548	-0.02542366
147	0xbe71daf0	-0.23618674
148	0x3c728053	0.014801103
149	0x3e178307	0.14796077
150	0xbe45272d	-0.19253226
151	0x3e2a42b6	0.1662701
152	0x3dc70260	0.0971725
153	0x3e8c5feb	0.2741693
154	0xbe699611	-0.22811152
155	0x3daccd10	0.0843755
156	0xbb1292af	-0.0022365262
157	0x3d827a91	0.06371034
158	0x3e2c2926	0.16812572
159	0x3e537aa7	0.20652257
160	0x3d6757b8	0.05648014
161	0xbda39fa5	-0.07989434
162	0xbdc35484	-0.095376045
163	0x3c66a2a4	0.0140768625
164	0x3e1f453d	0.15553756
165	0x3dd4c784	0.10389617
166	0xbda67a26	-0.08128767
167	0xbd1356f3	-0.035971593
168	0x3e0b3a22	0.13596395
169	0xbd75251e	-0.05984985
170	0xbe4e81c9	-0.20166697
171	0x38314236	4.2261752e-05
172	0xbe64f190	-0.22357774
173	0x3cba3de5	0.022734592
174	0x3d42e3d7	0.047580566
175	0x3dcd0f80	0.10012722
176	0xbe269e7b	-0.16271393
177	0x3d96751c	0.073465556
178	0x3e2a9100	0.16656876
179	0xbdbe8f64	-0.09304693
180	0x3e35a400	0.17738342
181	0xbe203d3a	-0.15648356
182	0xbe86eff0	-0.26354933
183	0xbe4254b3	-0.18977623
184	0x3d9c8cd4	0.07644048
185	0x3e4322ae	0.19056198
186	0xbcd89847	-0.026439799
187	0xbd3d5cc3	-0.046231043
188	0xbda2f164	-0.07956198
189	0x3e84e326	0.2595455
190	0xbbebc5c9	-0.0071952087
191	0xbd82407a	-0.06359954
192	0x3e5bce9e	0.21465537
193	0x3dd3633b	0.10321661
194	0x3e789bdf	0.2427821
195	0xbe4fd60b	-0.20296495
196	0xbd3e3a48	-0.0464423
197	0xbd24b75b	-0.040213924
198	0x3c5a9869	0.0133420015
199	0x3e3c28bd	0.18374915
200	0x3dce51bf	0.100741856
201	0xbe5a040f	-0.2129061
202	0x3e55c7a5	0.2087694
203	0xbea4f03b	-0.3221453
204	0xbd63b21a	-0.055589773
205	0xbeb85e83	-0.36009607
206	0x3ee04711	0.4380422
207	0x3c9fb65b	0.019496134
208	0x3d82f6b4	0.06394711
209	0xbe481b6f	-0.19541715
210	0xbc4a10fc	-0.012333151
211	0x3cb90104	0.022583492
212	0xbe0e53fc	-0.13899225
213	0x3d83befd	0.064329125
214	0x3ccd4700	0.02505827
215	0x3e3c50aa	0.18390146
216	0x3d6a4b41	0.057200674
217	0xbc8a9c6d	-0.016920293
218	0x3e5a0c4f	0.21293758
219	0xbda3b2bb	-0.079930745
220	0xbede5181	-0.43421558
221	0x3e860f37	0.26183483
222	0xbe1e9c52	-0.15489319
223	0x3d3bce44	0.045851007
224	0xbd263f41	-0.040587667
225	0xbda4b9cc	-0.080432504
226	0x3e81d22f	0.2535567
227	0xbcbaadb6	-0.02278791
228	0x3e26cf33	0.16289978
229	0xbdbdd0ad	-0.09268317
230	0xbe176e62	-0.14788201
231	0xbdebad07	-0.11507612
232	0xbd6b3ce8	-0.05743113
233	0x3e82bfc2	0.25536925
234	0x3d12ef98	0.035873026
235	0xbde2343c	-0.11045119
236	0xbc8e279c	-0.017352872
237	0xbe356627	-0.1771475
238	0xbd49bec8	-0.04925421
239	0xbea156a8	-0.31511426
240	0x3c8246e0	0.015902936
241	0x3cff0dd3	0.031134522
242	0x3e2bda81	0.16782571
243	0xbd8a0eac	-0.0674108
244	0x3e8aaa26	0.27082938
245	0x3d5ee02e	0.054413013
246	0xbe2ec132	-0.17065886
247	0x3c1734a9	0.009228864
248	0x3e19ab74	0.1500681
249	0x3cefc67f	0.029269455
250	0xbc5bb17a	-0.013409013
251	0x3cf8f1e1	0.030388774
252	0xbdc75afb	-0.0973415
253	0xbdbc57c5	-0.09196428
254	0xbd1523e6	-0.03641119
255	0xbe8ad20c	-0.27113378

actor.6.bias f4 [8]
0	0x3e8be410	0.27322435
1	0x3d214d4d	0.03938036
2	0xbe3c616f	-0.18396543
3	0x3e189218	0.1489948
4	0xbe9f7036	-0.31140298
5	0xbc294e1d	-0.010333565
6	0xbd8f2962	-0.06990315
7	0x3ea060da	0.31323892

critic.0.weight f4 [128, 33]
0	0x3ebbe1b7	0.36695644
1	0x3eb38f69	0.3507035
2	0x3e709ee3	0.2349811
3	0x3e019955	0.12656148
4	0xbf4373c5	-0.76348525
5	0x3ef34dbf	0.47520253
6	0x3e169e50	0.14708829
7	0xbf1dae06	-0.61593664
8	0x3eedd2cf	0.46449897
9	0x3f8a7b98	1.0818968
10	0xbc96b1b4	-0.018395282
11	0xbdeb7b52	-0.11498131
12	0xbea53707	-0.32268545
13	0x3d933627	0.07188063
14	0x3fa228dd	1.266872
15	0x3f89e4db	1.0772966
16	0xbe99ddab	-0.30051932
17	0x3e14505c	0.1448378
18	0xbe0d5fcf	-0.1380608
19	0xbe88be8d	-0.2670788
20	0xbe141d96	-0.14464411
21	0xbe007afa	-0.12546912
22	0x386a73f5	5.589794e-05
23	0x3d927c97	0.0715267
24	0xbdb85d1f	-0.090021364
25	0xbcc8ac73	-0.024496293
26	0x3cd78017	0.026306195
27	0x3dbe3f21	0.09289385
28	0xbd0d3d15	-0.03448208
29	0x3c39864b	0.011323522
30	0x3e1a82e9	0.15089001
31	0xbe2dd8e8	-0.16977274
32	0x404623e3	3.0959404
33	0x3e8497e7	0.25897142
34	0x3eed2175	0.46314588
35	0x3e30ae4a	0.17253986
36	0x3e1d2a6b	0.15348212
37	0xbe0d4f97	-0.13799892
38	0x3f4fe332	0.8120605
39	0x3e9b93a3	0.30386075
40	0xbebd6f83	-0.3699914
41	0x3f2be74a	0.67149794
42	0x3f9be5a7	1.2179459
43	0xbe90c499	-0.28274992
44	0x3ebb97f5	0.36639372
45	0x3f12c327	0.5732903
46	0xbf19d618	-0.60092306
47	0x3cde5327	0.02713926
48	0x401cc0f3	2.4492767
49	0xbf4b563a	-0.79428446
50	0x3bf306b6	0.0074165715
51	0xbe829255	-0.25502267
52	0x3f45b7ed	0.77233773
53	0x3d90c6ec	0.07069191
54	0xbe08ac92	-0.1334708
55	0xbc778127	-0.015106476
56	0x3dbd24e4	0.09235552
57	0xbd772a9a	-0.060343362
58	0xbde1a6ae	-0.1101812
59	0x3d9cc030	0.07653844
60	0x3d606b08	0.054789573
61	0x3d8e1945	0.069384135
62	0xbcdbc96d	-0.026829446
63	0x3e8af3ea	0.27139217
64	0x3e242689	0.16030325
65	0xbfdbc82c	-1.7170463
66	0x3f0d0379	0.55083424
67	0xbe581492	-0.21101597
68	0x3da0dd4d	0.0785471
69	0xbd320296	-0.043459497
70	0x3e63987a	0.22226134
71	0xbeb550ea	-0.35413295
72	0xbf3cc8fd	-0.73744184
73	0x3ef70b87	0.48250982
74	0xbeef5d64	-0.4675094
75	0xbf12aa34	-0.5729096
76	0x3e8dd036	0.27697915
77	0x3ebae1f5	0.36500517
78	0xbead0e66	-0.33800048
79	0x3f3e512f	0.74342626
80	0x3f468cf7	0.77558845
81	0xc018a095	-2.3848011
82	0x3fa2a47b	1.2706445
83	0xbca459c6	-0.020062339
84	0x3e5c404d	0.21508904
85	0xbf4c2dd9	-0.7975746
86	0x3fc02374	1.501082
87	0x3ea11b79	0.31466272
88	0x3cfccfaa	0.03086074
89	0xbdf0bde3	-0.11754968
90	0xbdabe16c	-0.08392605
91	0x3df047dd	0.11732457
92	0x3e03513a	0.12823954
93	0xbe7df1c3	-0.24799256
94	0xbeaa9af4	-0.33321345
95	0x3e086bf2	0.13322428
96	0xbe42cf8e	-0.19024488
97	0x3e0414dc	0.12898582
98	0xbddc54fc	-0.10758397
99	0xbee373dd	-0.44424334
100	0x3edc4b01	0.43025973
101	0x3db66d2b	0.08907541
102	0xbecc2fae	-0.39880127
103	0xbe88eda1	-0.26743796
104	0x3da411d9	0.08011217
105	0x3ef8b28a	0.48573714
106	0x3fd0756e	1.6285837
107	0xbe92fe4a	-0.28709632
108	0x3e42c501	0.19020464
109	0xbf222ef5	-0.633529
110	0x3fb5afe6	1.4194305
111	0xbf1b0322	-0.60551655
112	0x3f1140c2	0.5673944
113	0xbe7dbec7	-0.24779807
114	0x3f5f8645	0.87314254
115	0xbf86960c	-1.0514541
116	0x3deffa55	0.11717669
117	0xbe70016c	-0.23438042
118	0x3ea73943	0.32660875
119	0xbf3ef098	-0.74585867
120	0xbe56defd	-0.20983501
121	0xbc9f6b81	-0.019460442
122	0x3e037ace	0.12839815
123	0x3dc60c5e	0.096703276
124	0x3e5588ca	0.20852962
125	0xbd9ff97e	-0.07811259
126	0x3d802380	0.06256771
127	0x3d0b39bf	0.033990618
128	0x3e44e017	0.19226108
129	0x3e9a9b89	0.3019679
130	0xbea390f9	-0.31946543
131	0x3f3b2396	0.73101175
132	0x3e5dcb0e	0.2165949
133	0xbc547ce8	-0.012969233
134	0xbdb5d49b	-0.08878442
135	0xbf272a3e	-0.6529883
136	0xbe4acab5	-0.19803889
137	0x3dd2b27d	0.1028795
138	0xbf0a9861	-0.5413876
139	0xbf34d05a	-0.7063042
140	0xbe11b060	-0.14227438
141	0xbdce46ae	-0.10072075
142	0x3eded102	0.43518835
143	0xbe10b47b	-0.14131348
144	0xbdebca87	-0.115132384
145	0x3daaebd2	0.083457604
146	0xbecaf875	-0.39642683
147	0xbe4d654f	-0.20058177
148	0xbd320911	-0.043465678
149	0xbd3de80d	-0.04636388
150	0x3ecc2bf9	0.39877298
151	0xbec20e2e	-0.37901443
152	0x3e83b492	0.25723702
153	0x3d21d845	0.03951289
154	0x3d8e2c24	0.06942013
155	0xbcb6e027	-0.022323681
156	0x3d392069	0.045196924
157	0xbd39c344	-0.045352235
158	0x3d49e663	0.04929198
159	0xbdc833eb	-0.097755276
160	0xbc105def	-0.008811458
161	0xbe435512	-0.1907542
162	0x3efe0b5a	0.49618036
163	0x3d8c0f7c	0.06838891
164	0xbda50d61	-0.080591924
165	0xbde44806	-0.1114655
166	0xbe8fc79c	-0.28081977
167	0xbe696b37	-0.22794805
168	0xbf03aa90	-0.5143213
169	0xbd4f4801	-0.050605778
170	0xbf1095f9	-0.5647884
171	0x399cc70e	0.00029902946
172	0xbed85dfe	-0.4225921
173	0x3f00b419	0.5027481
174	0x3e71e787	0.23623477
175	0x3e7ae1b4	0.24500161
176	0x3f4f45c2	0.80965817
177	0xbdc12ee4	-0.09432772
178	0xbe5d156b	-0.21590202
179	0xbefbd939	-0.49189165
180	0xbf1106c5	-0.56650954
181	0xbdce8edc	-0.10085842
182	0x3dc311b1	0.09524859
183	0xbecb9c74	-0.39767802
184	0x3ecde39c	0.40212715
185	0x3ccbef09	0.024894254
186	0x3d1d123a	0.03834746
187	0x3d51f4b0	0.051258743
188	0x3d1a8bfd	0.03773116
189	0x3d16578a	0.036704578
190	0x3ca69c63	0.020338243
191	0xbd723e05	-0.059141178
192	0x3b358158	0.0027695503
193	0x3cce2871	0.025165768
194	0x3d96f54a	0.07371004
195	0x3eb17475	0.34659162
196	0xbe602eb8	-0.21892822
197	0xbd88a952	-0.0667292
198	0x3e778300	0.24171066
199	0xbf035ff4	-0.5131829
200	0xbe805b01	-0.2506943
201	0xbec7662b	-0.38945135
202	0xbe661874	-0.22470266
203	0xbe9d867b	-0.30766663
204	0xbe937e4c	-0.28807294
205	0xbdc0cb3b	-0.09413763
206	0x3e5c56b3	0.21517448
207	0xbe9ec9a8	-0.31013227
208	0x3eff63b8	0.49880767
209	0x3f18ee50	0.59738636
210	0xbe45e75c	-0.19326538
211	0xbeedddab	-0.46458182
212	0xbaf56de1	-0.0018724763
213	0xbf88be30	-1.0683041
214	0x3f67f596	0.9060911
215	0xbd3c1e2d	-0.045927215
216	0xbd8e4f17	-0.06948679
217	0x3ed00ec1	0.40636256
218	0x3ea3600f	0.31909224
219	0xbce4cec2	-0.027930621
220	0xbdced879	-0.10099883
221	0xbc369892	-0.011144774
222	0xbd5f1131	-0.054459754
223	0x3d653dfe	0.055967323
224	0x3d8e7ed0	0.06957781
225	0x3dd9a240	0.1062665
226	0xbd35a3d2	-0.044345684
227	0xbd8b4264	-0.067997724
228	0xbe8d192f	-0.27558276
229	0xbe93c90d	-0.28864327
230	0x3e982f2c	0.2972349
231	0xbe26bf76	-0.16283974
232	0x3e9fbc58	0.31198382
233	0xbf28a6e3	-0.6587965
234	0x3f8c4b04	1.0960393
235	0x3e65e567	0.22450791
236	0x3fb7f03a	1.4370186
237	0x3ee3b31f	0.44472596
238	0xbf17490b	-0.5909583
239	0xbe3ac7b9	-0.1824025
240	0xbeb5690d	-0.3543171
241	0xbe98b320	-0.29824162
242	0xbef8ef87	-0.48620245
243	0xbf90a6ce	-1.1300905
244	0x3f1bea78	0.60904646
245	0x3e8a4b02	0.2701035
246	0xbb8261a7	-0.003978926
247	0xbed7f17b	-0.42176422
248	0xbe6957cd	-0.227874
249	0xbe05fe46	-0.13085279
250	0xbf7c6a9d	-0.9860018
251	0xbe9257e7	-0.2858269
252	0x3e9b81b1	0.30372384
253	0xbcef3e96	-0.029204648
254	0xbd9e6971	-0.07734955
255	0x3e17ea5b	0.14835493

critic.0.bias f4 [128]
0	0xbed0bcc7	-0.40769026
1	0xbf0085e9	-0.5020433
2	0x3c8ee31a	0.017442275
3	0xbdf2d43d	-0.118568875
4	0x3f00b907	0.5028233
5	0xbea55105	-0.32288375
6	0x3e273497	0.16328655
7	0xbec0429e	-0.37550825
8	0x3e800bf3	0.25009117
9	0xbebb8326	-0.36623496
10	0x3e01ad93	0.1266387
11	0x3d9e1fcf	0.07720911
12	0xbdb439c3	-0.0880008
13	0xbea159d8	-0.31513858
14	0xbe20386e	-0.15646526
15	0xbf051c27	-0.5199608
16	0x3e90c5a2	0.28275782
17	0xbe227005	-0.15863045
18	0xbe147dcc	-0.14501113
19	0x3ebcfbbd	0.3691081
20	0x3ee84ad8	0.453696
21	0x3ddf3e17	0.109005146
22	0x3d816854	0.06318727
23	0xbed8557a	-0.42252713
24	0xbe2dd1be	-0.16974542
25	0x3f0345f7	0.5127863
26	0xbdf1c54d	-0.1180521
27	0xbea3a8f2	-0.31964833
28	0xbe19637b	-0.14979355
29	0xbe1bb418	-0.15205419
30	0x3e9fdb58	0.31222034
31	0xbecfaa1b	-0.40559468
32	0xbedd5f26	-0.43236655
33	0xbeb9a381	-0.36257556
34	0xbef07370	-0.46963072
35	0xbe05dbad	-0.13072081
36	0x3ebc95f1	0.36833146
37	0xbc8ba5f7	-0.017046912
38	0x3dd9c964	0.10634115
39	0x3de6353a	0.11240621
40	0x3dc417b1	0.09574831
41	0xbefbf2f1	-0.49208787
42	0xbe93debb	-0.28880867
43	0x3dcfa3b8	0.10138649
44	0x3eadb181	0.33924487
45	0xbd2e8e85	-0.042616386
46	0x3dfc7c50	0.12328398
47	0xbecd2b96	-0.40072316
48	0x3d97a403	0.0740433
49	0xbe802d09	-0.2503436
50	0x3e8445b0	0.25834417
51	0xbd6390b7	-0.055557933
52	0x3d991f47	0.07476669
53	0xbf2bd01c	-0.67114425
54	0xbd07f696	-0.033194147
55	0xbd8e5a09	-0.069507666
56	0x3e8bee38	0.27330184
57	0xbf012634	-0.5044892
58	0xbcde363b	-0.027125468
59	0xbdc5bf84	-0.09655669
60	0x3e89c768	0.26909947
61	0xbeffaab6	-0.4993493
62	0xbeda2034	-0.42602694
63	0x3e9a3ed7	0.30126068
64	0x3d7ba91b	0.06144057
65	0x3e437f9d	0.1909165
66	0xbe081595	-0.13289483
67	0xbef0b064	-0.47009575
68	0x3d7e6716	0.06211003
69	0xbd706581	-0.05869055
70	0xbe4bdc65	-0.19908293
71	0xbac0e1a7	-0.0014715687
72	0xbefb34a4	-0.490636
73	0xbe473493	-0.19453649
74	0x3eb86ff6	0.3602292
75	0xbea7ed3b	-0.3279818
76	0xbe7944b1	-0.2434261
77	0xbec85f73	-0.39135322
78	0xbf164500	-0.58699036
79	0x3ee51be3	0.44747838
80	0xbebe0687	-0.37114355
81	0xbd1a20c9	-0.037628923
82	0x3d24654a	0.04013566
83	0x3e8b636c	0.2722429
84	0x3e3a9dfa	0.18224326
85	0xbcb17cbd	-0.021665925
86	0xbeab7e61	-0.33494857
87	0x3e4cdee0	0.20006895
88	0x3ee2ddc0	0.44309807
89	0xbeb42739	-0.35186175
90	0x3e6bc84a	0.23025623
91	0xbe19faf9	-0.15037145
92	0x3e23f90e	0.16012976
93	0xbeb6d65a	-0.35710412
94	0xbc2b6c03	-0.010462764
95	0xbdcf1437	-0.101112776
96	0xbee70502	-0.45121008
97	0x3ec38efd	0.3819503
98	0xbe97e812	-0.29669243
99	0x3ea0d0e6	0.31409377
100	0x3d874b34	0.06606141
101	0x3ee64f5f	0.4498243
102	0x3ebd7ca7	0.37009165
103	0x3eedd5b2	0.464521
104	0xbcec2f05	-0.028831014
105	0x3e534b0d	0.20634098
106	0x3e5d9c90	0.21641755
107	0x3e810d63	0.25205526
108	0x3eba3951	0.36371854
109	0x3cd48f3d	0.025947208
110	0x3ec5154a	0.38492805
111	0xbd1a6fe7	-0.037704375
112	0x3e621b16	0.22080645
113	0xbe807f1e	-0.25096983
114	0xbdc06f53	-0.093962334
115	0x3ccc29ed	0.024922336
116	0x3e4eef4b	0.2020847
117	0xbca8b67f	-0.020594833
118	0xbe50562e	-0.20345375
119	0xbee372ca	-0.44423515
120	0x3d19187d	0.03737687
121	0x3ddd247e	0.10797976
122	0x3e09caa3	0.13456206
123	0xbf025535	-0.50911266
124	0x3d68f22c	0.056871578
125	0xbeb15f65	-0.34643093
126	0x3dd347df	0.10316443
127	0x3e87c14c	0.2651466

critic.2.weight f4 [64, 128]
0	0x3e8c749c	0.27432716
1	0x3e99b7a4	0.3002292
2	0xbdc5b5e3	-0.09653833
3	0xbe3b5afa	-0.18296424
4	0xbe256924	-0.16153389
5	0x3e54ba4b	0.2077419
6	0x3dbd942c	0.09256777
7	0x3e970eb7	0.29503414
8	0xbe499969	-0.19687428
9	0xbccafbb3	-0.024778223
10	0xbe6da4ce	-0.23207399
11	0xbe0b738f	-0.13618301
12	0xbc9084f0	-0.017641515
13	0x3f075405	0.5286258
14	0x3e06b4f1	0.13154961
15	0x3c8b1fbb	0.016982904
16	0x3ea5bef2	0.32372242
17	0x3e525ffc	0.20544428
18	0x3e0e1a5f	0.13877247
19	0xbeb6a773	-0.3567463
20	0xbeb72c68	-0.35776067
21	0xbca788fd	-0.020451063
22	0x3e13e187	0.144415
23	0x3eb53208	0.35389733
24	0x3e728642	0.23684028
25	0xbe814ecb	-0.25255427
26	0xbe036fe2	-0.12835649
27	0xbde5cdb2	-0.11220874
28	0xbf1add24	-0.60493684
29	0xbe24d397	-0.1609634
30	0x3e29033a	0.16505137
31	0x3e56683b	0.20938198
32	0x3ebd492d	0.3696989
33	0x3e6ee8f3	0.2333105
34	0xbeae0271	-0.33986238
35	0xbc202693	-0.009774822
36	0xbe392537	-0.18080603
37	0x3f034e84	0.5129168
38	0xbd145067	-0.03620949
39	0xbd8ed416	-0.06974046
40	0xbdf7a66b	-0.120922886
41	0x3ee79924	0.45234025
42	0x3a8bb5cf	0.0010659042
43	0x3e941e8e	0.2892956
44	0xbe5816fe	-0.21102521
45	0xbe8afe1d	-0.27146998
46	0x3ea420b1	0.32056192
47	0x3e125759	0.14291133
48	0xbe783cd3	-0.24241953
49	0xbe59946f	-0.21248029
50	0xbd57daf9	-0.052699063
51	0xbfd8cbdd	-1.6937214
52	0x3dd92daf	0.106044166
53	0x3f063c3e	0.5243567
54	0x3ea5f07a	0.32410032
55	0xbe0a0663	-0.13478999
56	0x3e6b3cd3	0.22972421
57	0xbdaddf80	-0.08489895
58	0xbdc71e69	-0.09722597
59	0xbe7fea9d	-0.24991842
60	0x3d988180	0.07446575
61	0x3af9978c	0.0019042357
62	0xbd629e76	-0.0553269
63	0x3d47069a	0.04859028
64	0xbb760bee	-0.0037543732
65	0xbb58de11	-0.0033091346
66	0xbda59f5b	-0.08087035
67	0x3e815153	0.25257358
68	0xbe82657f	-0.2546806
69	0xbe4c0549	-0.19923891
70	0x3c9e7c82	0.01934648
71	0xbeb58203	-0.35450754
72	0x3e8aaff8	0.27087379
73	0xbe223fe0	-0.15844679
74	0xbe4cddb1	-0.20006444
75	0x3e960c6a	0.29306346
76	0x3e8d1d82	0.27561575
77	0xbdaaac3f	-0.083336346
78	0x3da2a5f6	0.07941811
79	0x3ddfe777	0.1093282
80	0x3e1966e9	0.14980663
81	0xbe987fcb	-0.29784998
82	0xbe36e6b0	-0.17861438
83	0xbdf1adbf	-0.118007176
84	0xbe28a954	-0.16470844
85	0xbe150784	-0.14553648
86	0xbe0fb4ed	-0.14033861
87	0xbea25e3a	-0.31712514
88	0x3d24ae42	0.040205248
89	0x3e656f7a	0.22405806
90	0x3d564373	0.05231042
91	0xbd530b06	-0.051524185
92	0xbde44b10	-0.111471295
93	0x3eddc3aa	0.43313342
94	0xbe2edde3	-0.1707683
95	0x3e949a0c	0.29023778
96	0x3e4ef6a3	0.20211272
97	0x3e2cbc6e	0.16868755
98	0x3ebd886e	0.3701815
99	0xbd7ab03e	-0.061203234
100	0xbdd912a0	-0.105992556
101	0xbdd49109	-0.10379226
102	0xbcd8e9af	-0.026478617
103	0xbce7d195	-0.028298179
104	0xbef0f695	-0.47063127
105	0xbf2e1e92	-0.68015397
106	0x3c6d9875	0.014501681
107	0xbe751d6c	-0.23937005
108	0xbf057fca	-0.52148116
109	0xbe592e27	-0.21209012
110	0x3dfd0615	0.12354676
111	0x3c487a17	0.01223614
112	0xbe8b2cb2	-0.27182537
113	0x3c5e62a4	0.013573322
114	0xbcd4ac98	-0.025961205
115	0xbf1782c0	-0.59183884
116	0xbe224953	-0.15848283
117	0x3e8c3282	0.27382284
118	0x3f31f0d8	0.69508123
119	0x3d30f267	0.043199923
120	0x3dab5d77	0.083674364
121	0xbd538e42	-0.05164934
122	0xbe526e0e	-0.20549795
123	0x3e3b9954	0.18320209
124	0x3e8549d1	0.2603288
125	0x3dec3485	0.11533455
126	0xbed5fcc4	-0.41794407
127	0x3d55ebe7	0.052226927
128	0x3d8c0aff	0.06838035
129	0x3cdb2466	0.026750755
130	0xbe76d293	-0.24103765
131	0xbe858b24	-0.26082718
132	0x3e3cbe8f	0.18432067
133	0xbe974583	-0.2954522
134	0xbe7f61e4	-0.24939686
135	0x3e9b964f	0.30388114
136	0xbd5c2b8e	-0.053752474
137	0xbe114a33	-0.14188461
138	0x3d78fbb7	0.06078693
139	0x3d0c38ba	0.034233786
140	0xbdc5c314	-0.09656349
141	0xbea9488e	-0.33063167
142	0x3a137322	0.0005624761
143	0x3e8e2ddc	0.27769363
144	0x3c37d5b3	0.011220383
145	0xbedc2aaa	-0.430013
146	0x3ce6a333	0.028153991
147	0xbe6b1424	-0.22956902
148	0x3eda22b7	0.4260461
149	0xbea05758	-0.31316638
150	0xbe16b927	-0.14719068
151	0xbe9f7214	-0.31141722
152	0xbe619213	-0.22028379
153	0xbd393e95	-0.0452257
154	0xbcaf1084	-0.02137018
155	0xbdb74be3	-0.08950021
156	0xbc497a49	-0.012297221
157	0x3c3e5a0e	0.01161815
158	0x3e643d07	0.22288905
159	0xbf03c4ea	-0.5147234
160	0x3e807f96	0.2509734
161	0xbf7b5f3f	-0.9819221
162	0xbecbf861	-0.39837936
163	0xbe89a589	-0.26884106
164	0x3dc07363	0.09397008
165	0x3d7cccd0	0.061718762
166	0x3ef52cae	0.4788565
167	0xbe0db190	-0.13837266
168	0x3f288b76	0.658378
169	0x3e9fa367	0.31179354
170	0xbf891b6c	-1.0711493
171	0xbcccaa87	-0.024983658
172	0x3e4e9dfd	0.20177455
173	0xbea3a209	-0.3195956
174	0x3e07ba12	0.13254574
175	0xbf231fae	-0.63720214
176	0xbe9266ca	-0.28594047
177	0xbd5d020a	-0.053957023
178	0x3df84572	0.12122621
179	0xbe950c4d	-0.29110947
180	0xbe66e1f7	-0.22547136
181	0x3e8e6a95	0.2781569
182	0x3ecc84ae	0.39944977
183	0xbd4088f5	-0.047005612
184	0x3e16a504	0.14711386
185	0x3edce2af	0.43141696
186	0xbd3743fe	-0.044742577
187	0x3e9e5560	0.3092451
188	0x3da687b5	0.08131353
189	0xbec50ae4	-0.3848487
190	0xbeac544d	-0.33658066
191	0x3e8281c9	0.25489643
192	0x3e76fc68	0.24119723
193	0x3ea389b7	0.31941006
194	0xbeed034e	-0.46291584
195	0x3da69e40	0.081356525
196	0x3cb2eb80	0.02184081
197	0x3e3a06ac	0.18166608
198	0x3eadd982	0.33955008
199	0x3e7dd402	0.24787906
200	0x3e3110fc	0.17291635
201	0xbf00ca44	-0.5030863
202	0x3ee30d56	0.44346112
203	0xbec7fb85	-0.39059082
204	0xbed95ba6	-0.42452735
205	0xbea8f592	-0.32999855
206	0x3e503dcc	0.20336074
207	0x3ec28ea7	0.3799946
208	0xbf461bab	-0.7738597
209	0xbe129c0e	-0.14317343
210	0xbe702bbf	-0.23454188
211	0x3f82dbb6	1.02233
212	0x3d60069e	0.05469381
213	0xbeb8408c	-0.35986745
214	0x3e170e93	0.14751653
215	0x3e70788a	0.23483482
216	0xbd0c969e	-0.034323327
217	0xbeade240	-0.33961678
218	0x3e06eb83	0.13175778
219	0xbe2342e2	-0.15943483
220	0x3d884ecb	0.066556536
221	0x3f1e8c2e	0.6193265
222	0xbea74f82	-0.32677847
223	0xbd85de2a	-0.06536515
224	0xbe6664af	-0.22499345
225	0xbd2a7fb9	-0.041625712
226	0x3ee7b7b7	0.4525735
227	0x3e86055f	0.26175973
228	0x3df079b5	0.11741964
229	0xbdd542ad	-0.10413108
230	0x3dd2e486	0.10297494
231	0x3d3de839	0.046364043
232	0xbe8e13a0	-0.27749348
233	0x3e4b8c4c	0.19877738
234	0xbf409015	-0.7521985
235	0x3ecfd659	0.40593222
236	0x3d8322ec	0.06403145
237	0x3f58d72a	0.84703314
238	0x3d99da94	0.075123936
239	0xbd811141	-0.06302119
240	0xbe2c0e24	-0.16802269
241	0xbe16f6b9	-0.14742555
242	0x3e0dacb9	0.1383542
243	0x3d4597b3	0.048240375
244	0xbeb57a69	-0.35444954
245	0x3e97fa9b	0.29683384
246	0x3f6744d1	0.9033938
247	0x3ea36a50	0.31917048
248	0xbd44f5de	-0.04808604
249	0x3e943bb3	0.28951797
250	0xbbe81b1d	-0.0070833103
251	0x3efe94a1	0.4972277
252	0x3f07199e	0.52773464
253	0xbdc0b119	-0.09408779
254	0xbe6f3299	-0.23359145
255	0x3eab48ed	0.33454075
