legged_gym/logs/tron1/Mar26_09-33-42_track_3.0_feet_contact_force_-0.0035_stand_still_-1.5_base_height+0.1_feet_regulation_-0.15_track_contacts/model_600.pt (torch, 376218 bytes, 48 tensors)

std f4 [8]
000000 d3 22 17 3f a9 41 f7 3e ce 01 13 3f 16 f7 e6 3e
       0.5903751 0.48292282 0.5742463 0.45110387
000010 61 e5 14 3f e6 11 f2 3e ba 05 10 3f 43 bf e6 3e
       0.58162504 0.4727928 0.5625874 0.45067796

actor.0.weight f4 [128, 33]
000000 3e c4 d8 be e9 09 02 3f a5 d5 8d 3e b3 59 33 3e
       -0.4233722 0.5079637 0.2770206 0.17514686
000010 b7 94 be bb 36 be 1b 3f 2e 53 50 be 02 13 9c be
       -0.005816068 0.60837114 -0.2034423 -0.30483252
000020 3f 7e 53 3e 1b 95 b6 3e 56 c2 e0 be ad 82 3c bf
       0.20653628 0.35660633 -0.43898267 -0.73636895
000030 83 f3 f7 be dd aa a5 3e c8 a7 81 be a2 59 08 3f
       -0.48427972 0.3235692 -0.2532332 0.5326177
000040 9d 51 59 be ad 82 93 3d a4 ed ae 3b 7d 87 20 bf
       -0.21222539 0.07202659 0.0053383876 -0.6270674
000050 bc 45 2c be 67 a0 84 3e 90 6e 26 3a a1 4c 16 3e
       -0.16823477 0.25903627 0.00063488726 0.14677669
000060 50 85 9d 3a 2e 10 a5 bc ee 20 a0 bd 96 d9 f7 bd
       0.001201788 -0.020149317 -0.07818781 -0.12102048
000070 5a ea c6 3c d3 cc b7 bd 4d df a4 3e 8c eb 08 be
       0.02428167 -0.08974614 0.32201615 -0.13371104
000080 5d b3 e3 3d 02 aa b2 bc 94 e4 29 bf 07 e4 2e be
       0.11118195 -0.021809582 -0.6636441 -0.17079173
000090 2f af c1 be 75 7e 81 3f d1 cd 95 3e d9 32 78 bf
       -0.37828967 1.0116717 0.29258588 -0.9695259
0000a0 1a ab 29 bf b9 c2 91 be 43 c8 01 bf 8c cf d9 3e
       -0.66276705 -0.28468874 -0.506962 0.42541158
0000b0 d7 6f 17 be 3e 88 43 3e a5 11 11 3e 15 e1 fb be
       -0.14788757 0.19094941 0.14166887 -0.4919516
0000c0 54 26 7a bf 17 5a ad 3e e6 6c e1 3d 02 c0 8d 3e
       -0.97714734 0.33857796 0.11007099 0.27685553
0000d0 e2 f7 5c bd 61 af 59 be 8b 0a 34 bc 37 d5 19 3d
       -0.053947337 -0.21258308 -0.010988842 0.037556853
0000e0 ab 08 b1 bc 88 56 5b bd 77 3f bf 3d 6b f4 ba bd
       -0.021610579 -0.05354932 0.09338277 -0.0912865
0000f0 31 ad bb bc c0 05 0e 3e 39 e3 9f 3d 1c e4 f6 3c
       -0.022909733 0.13869381 0.07807011 0.030138068
000100 22 c4 a0 3e 62 9c 5c 3e 95 0b 0c be 91 0f d7 be
       0.31399637 0.2154403 -0.13676293 -0.42004064
000110 89 a2 c7 bc aa 88 29 bf 10 a7 a0 be 87 2e a8 be
       -0.024369495 -0.6622416 -0.3137746 -0.32847998
000120 4a af 8a bf de f0 cd be f2 dc 6b 3e be 51 e2 3d
       -1.0834744 -0.4022283 0.23033503 0.11050747
000130 38 9c 25 3f bd e3 f5 3e 17 9d 8a 3e 52 35 18 bf
       0.64691496 0.48025313 0.27072975 -0.5945636
000140 ea be ef be 99 36 11 bf 85 2e 0c 3e d2 32 af 3e
       -0.46825343 -0.56723934 0.13689621 0.3421846
000150 20 e9 0b 3e 0a 12 7f 3e 68 54 03 be c1 41 b3 3d
       0.13663149 0.24909225 -0.12825167 0.08752776
000160 db eb ad bc 4e 11 59 3c 14 90 95 b8 67 b7 d2 bc
       -0.021230629 0.013248755 -7.13171e-05 -0.025722219
000170 a5 13 90 bd 58 fb 3a bb 91 ed 5d bd 12 db 95 3d
       -0.07034997 -0.002853116 -0.05418164 0.07317175
000180 8e 18 e5 3d 5a cd 6d be e7 63 55 be 73 a9 ba be
       0.11186324 -0.23222867 -0.20838891 -0.36457404
000190 ce 10 ab 3c d9 84 3f be d0 38 81 3e 2b 6a 3d 3f
       0.020882037 -0.18703021 0.25238657 0.73990124
0001a0 1f 52 3d be c5 a9 91 bf 85 6b b7 be 13 32 5e 3d
       -0.18488358 -1.1379935 -0.35824218 0.054246973
0001b0 22 a4 0c 3f cb 34 0c 3f 65 27 19 bf e0 58 92 3e
       0.54937947 0.54768056 -0.59825736 0.2858343
0001c0 41 d8 34 3b 0b 8f 7f bf 1b db 9e 3e 78 c3 25 be
       0.0027594718 -0.9982764 0.3102654 -0.16187847
0001d0 86 39 f2 3c 6c f8 94 be f4 9c c0 3d 64 b4 f2 3c
       0.029568445 -0.2909578 0.094049364 0.029627033
0001e0 4e f7 30 be b9 b4 2d 3e 90 fd f9 3c 0a 1e 42 3d
       -0.17281839 0.16963471 0.030516416 0.04739193
0001f0 33 46 dd bd b1 77 0f bd dc 20 80 3d 1a 2f 61 be
       -0.10804405 -0.035026256 0.062562674 -0.21990624
000200 f4 df 26 be 75 9f 96 3e f8 b6 51 bd 95 dd aa bd
       -0.16296369 0.2941853 -0.051199883 -0.08343045
000210 5d a3 f1 be cb 9d 78 3e 2b 74 32 3e 8d d4 9f 3f
       -0.4719495 0.24278943 0.17427127 1.248674
000220 92 4c bb 3e be 1f 22 3f 25 3e 72 3d 40 52 59 3d
       0.36581856 0.63329685 0.059141297 0.053056955
000230 49 d5 49 be 66 2e d6 3e 98 39 fd 3d 08 d8 59 be
       -0.19710268 0.41832274 0.12364501 -0.21273816
000240 03 4e 12 3f c8 87 33 3e a6 95 4b bf 09 74 2f 3f
       0.57150286 0.17532265 -0.7952522 0.6853643
000250 24 a3 9d be d9 43 eb bc c7 cb 58 be d0 82 0d be
       -0.3078853 -0.028718876 -0.21171485 -0.13819432
000260 76 3a 8b 3e 90 20 eb bd e9 76 b2 bc 6d f3 2a 3d
       0.2719304 -0.1148082 -0.021785216 0.041736055
000270 71 57 ff bc 29 83 99 bd cf bb d2 3b 79 c3 0f 3e
       -0.031169625 -0.0749572 0.00643108 0.1403941
000280 51 4c 14 be 2f 34 5f bd 30 8e 1d 3e fe ac 10 bb
       -0.14482237 -0.054493126 0.15386271 -0.0022075768
000290 d0 63 10 3d a1 17 4e be 2b 60 d2 bd 0a 56 e6 bd
       0.03525144 -0.20126201 -0.10272249 -0.112468794
0002a0 5d 12 0e bf fa 61 b5 3e 99 04 cb 3e 41 73 ef 3e
       -0.5549677 0.35426313 0.39651945 0.4676762
0002b0 76 90 6c be 88 7d 76 3c a6 16 86 be 1a 0e 06 bf
       -0.23101982 0.015044577 -0.26189154 -0.5236527
0002c0 77 8f 19 3f f9 c2 3e bf fd 81 76 3e 87 ce 7b 3f
       0.59984535 -0.74516255 0.24073024 0.9836201
0002d0 35 cc ef be 76 a6 b2 3e cc 32 7b be ef 22 19 bf
       -0.46835485 0.34892625 -0.24531096 -0.5981893
0002e0 08 0b 23 be ef 8b c6 3e 84 d0 ad be 9b a0 ab bd
       -0.15922177 0.38778636 -0.33948147 -0.083802424
0002f0 8b e5 a8 bd 1a 03 ef bc da 8b 52 3e 3f 18 d4 bd
       -0.08246907 -0.029176284 0.20561162 -0.10356187
000300 52 10 e3 bd 68 4b 18 be 53 49 85 bc 79 c4 35 be
       -0.11087097 -0.14872515 -0.016270315 -0.1775073
000310 66 5c 2e 3e 53 82 c5 3d 0f c7 b6 be c8 32 27 3e
       0.17027435 0.09643998 -0.35698745 0.16327965
000320 f7 d9 90 be c4 e6 95 bf 57 fc 0a be 44 e5 7c 3e
       -0.28291294 -1.1711049 -0.13572823 0.24696833
000330 4b ea c4 3e 54 a8 3c bf 9f 80 29 3f e6 16 7f 3d
       0.3846 -0.7369435 0.66211885 0.062277697
000340 e1 c6 0d bf 0a 07 81 3e bc bd 1a 3e ce 8a 48 3e
       -0.5538159 0.25200683 0.1511144 0.195842
000350 7e 5e 0b 3f 91 28 e6 be e5 90 ba bd 7c 52 34 3e
       0.5444106 -0.44952825 -0.09109668 0.1760959
000360 d2 2c 18 bf df 14 1d 3e 37 0b 35 bf e6 7c 8c be
       -0.5944339 0.15339993 -0.7072024 -0.2743904
000370 3b fa c0 bd 45 88 6f 3c 46 e9 bf 3d f5 db e8 bd
       -0.09422728 0.0146198915 0.09370665 -0.113700785
000380 a6 ef 55 bd d7 74 ae 3a 97 b9 3e 3b d3 83 5d 3d
       -0.0522305 0.0013309967 0.002910232 0.054080795
000390 ad 30 84 bc 7f 6e 2a be 8f b7 b7 bd 6e fa 64 be
       -0.016136492 -0.16643713 -0.08970558 -0.22361156
0003a0 db 1a 99 bd 59 da f9 3d d1 79 bf 3e cf 4c 7d 3f
       -0.074758254 0.1219985 0.37397626 0.98945326
0003b0 38 fa 98 3d 98 bc 59 bf f8 33 0a bf 89 e0 38 bd
       0.074696004 -0.85053396 -0.5398555 -0.04513601
0003c0 ad d9 0c be b2 03 96 be 99 18 8b bf 44 bc 28 3f
       -0.13754912 -0.29299694 -1.0866882 0.6591227
0003d0 9d 0f 5c bf 4a b0 86 be 84 a5 41 bd 7c 14 87 be
       -0.85961324 -0.26306373 -0.04727699 -0.26382816
0003e0 e4 b4 f0 3d 57 b0 c1 be 72 a1 90 bd bc 33 50 3e
       0.11753252 -0.3782985 -0.07062043 0.20332235
0003f0 d2 fd b8 be 63 ff a7 bc ad ad 37 bd 71 58 83 bd
       -0.3613115 -0.02050752 -0.044843365 -0.06413353

actor.0.bias f4 [128]
000000 9c db 29 be 3c 04 9a 3d e4 61 4b 3e 32 36 9d 3d
       -0.1658768 0.07520339 0.19861561 0.076763526
000010 66 96 f6 3d d3 cf 33 be 2f 8b 84 bd 3e 03 e0 3d
       0.12040405 -0.17559747 -0.0647186 0.109381184
000020 9f aa e3 bd dd 08 bf 3b eb 65 a0 bb c9 79 13 3e
       -0.11116528 0.005829914 -0.004894962 0.14401926
000030 e3 66 d2 bd 1e b7 d1 3d 77 41 9f 3c 18 13 ed bd
       -0.1027353 0.10240005 0.019440396 -0.115759075
000040 de 74 1b bd 7d 0a 63 bd 64 42 ac bd 59 2e ce 3d
       -0.03795325 -0.055429924 -0.084111005 0.10067434
000050 25 e3 70 3c 96 23 ed 3c 57 64 47 3e b7 a4 e8 3d
       0.014702593 0.028947633 0.1947187 0.11359542
000060 df 8d 50 be 12 6a 5c bd ba a1 29 be 9f ce 59 be
       -0.2036662 -0.053812094 -0.165656 -0.21270226
000070 20 24 39 bc 87 4d 56 3d a4 08 1f 3e 19 8f 73 3e
       -0.011300117 0.05232003 0.1553064 0.23785056
000080 dc 20 6c be 0e d4 62 3d cf 9b e8 bc 4f 68 bd bc
       -0.2305941 0.055378012 -0.028394608 -0.023121027
000090 e8 bc 90 3d ac e2 82 bd 98 99 b3 bc df 63 dc 3d
       0.07067281 -0.063908905 -0.021923825 0.107612364
0000a0 20 b3 92 3e de 91 4a be 58 7f 99 bd 7b ea 83 bd
       0.28652287 -0.19782206 -0.07494992 -0.06441208
0000b0 28 7e 5a 3e 2b a3 e0 3d ea 7b 8a bc b3 19 15 3e
       0.21337187 0.10968622 -0.01690479 0.14560585
0000c0 14 5b 48 3e f3 32 e6 bd 34 17 f6 bc 58 00 fe 3d
       0.19565994 -0.112401865 -0.030040361 0.12402409
0000d0 7d ca 77 3c 43 7f 1d 3e bf 26 f5 bc 9d 59 08 be
       0.015123961 0.15380578 -0.029925702 -0.13315435
0000e0 94 fa 63 bd eb 7b 21 be 47 21 1b bd 95 8e 12 be
       -0.05565889 -0.15769927 -0.037873533 -0.14312203
0000f0 6d ff 48 bd d5 11 4a 3d a9 cf 71 be d1 9c 0c bd
       -0.049071718 0.049333412 -0.23614372 -0.03432924
000100 b0 20 05 be ec 37 29 3d ba a6 a4 3d 5d 22 89 3d
       -0.1300075 0.041313097 0.08039613 0.066960074
000110 7a 9e 3d 3e 16 33 ee bc ee d3 8f 3d a8 d6 3c be
       0.18517485 -0.029077094 0.07022844 -0.1844126
000120 c9 00 1f 3d 76 45 59 be 3f 41 77 bd 1d 7e a0 be
       0.03881911 -0.21217903 -0.060364958 -0.31346217
000130 5c a8 bf 3b 7a 18 cc 3d 3f 16 f3 bd f7 0b 2d be
       0.0058489274 0.09965606 -0.118694775 -0.16899095
000140 2f f1 88 bd f2 e3 a2 3d 73 b2 b0 3c 54 83 a3 bd
       -0.06686627 0.07953633 0.021569466 -0.07984033
000150 fd c3 4b be 7f 2b 20 3d 2d bb c8 bc 96 b4 38 be
       -0.19898982 0.03910398 -0.024503315 -0.18037638
000160 b0 52 c1 bd b6 fe 2f be 74 5b 9c bd dc 13 1f 3e
       -0.094395995 -0.17187008 -0.07634631 0.1553492
000170 40 71 6d bc 3d d7 4e be 8e 64 00 3e eb 04 44 3d
       -0.014492333 -0.20199294 0.12538359 0.047856253
000180 a4 61 fb 3c 0b 47 92 bd 2c 58 81 be b6 80 63 bd
       0.030686207 -0.071424566 -0.25262582 -0.05554267
000190 cb d8 43 3d c4 8b 80 3c 32 40 14 be ff 61 4d 3b
       0.04781417 0.015691645 -0.14477614 0.0031338928
0001a0 b0 8d 33 3e bc a6 08 3e 25 59 2b bd a5 76 3d 3d
       0.17534518 0.13344854 -0.04183306 0.046255726
0001b0 fd b5 51 3d 0a c6 45 3c 36 99 c7 bd 03 4b 5c bd
       0.05119895 0.012071142 -0.097460195 -0.053782474
0001c0 1a b4 64 be 95 43 60 bd ac 3e 56 3d 41 43 66 3e
       -0.22334328 -0.05475195 0.052305862 0.22486593
0001d0 3e 01 6b be 5f 1d 85 bd d1 86 63 be 44 d6 0a bc
       -0.22949693 -0.06499743 -0.22219397 -0.0084739365
0001e0 eb fe 01 3d 83 18 51 3d 39 ce 32 be 26 ff fb bd
       0.03173725 0.051048767 -0.1746148 -0.12304525
0001f0 2d 1e 6f bd 53 f8 54 3d a7 e8 1e 3d c9 ac 7d 3d
       -0.058378387 0.051994633 0.038796093 0.06193236

actor.2.weight f4 [64, 128]
000000 84 af 3e 3e c1 a8 04 be e7 cc 69 bd e6 57 37 3e
       0.18621641 -0.12955 -0.057080176 0.17904624
000010 dc f8 4b 3e 50 ec 2b bd 3d 07 da be 3a 18 8f 3e
       0.19919151 -0.041973412 -0.42583647 0.2794817
000020 68 97 2a 3e a5 dd 13 be 14 53 7e 3d 84 e9 ee bd
       0.1665932 -0.1444002 0.06209095 -0.11665633
000030 fb 50 cc bd d6 a3 c0 3e f4 b7 16 bd 97 80 17 3e
       -0.09976383 0.37624997 -0.036796525 0.14795147
000040 59 10 8e 3c f1 88 c1 3e 6e fd 23 3d c0 29 5c 3e
       0.01734178 0.3779979 0.04003661 0.21500301
000050 42 6e 2b bd 09 e0 bc 3d 02 30 34 3b 28 f6 0d be
       -0.041853197 0.09222419 0.0027494435 -0.13863432
000060 06 66 1e bd fd b5 bc 3e 56 de d6 be 89 b4 0a 3e
       -0.038671516 0.36857596 -0.41966504 0.13545431
000070 94 a3 7f 3d bb 04 b3 3d 22 67 28 3e d8 92 65 3e
       0.06241186 0.08741137 0.16445592 0.22419298
000080 97 28 46 bc 05 d7 90 be 05 54 e5 ba 9a d7 c1 3c
       -0.012094638 -0.28289047 -0.0017496353 0.023662377
000090 04 83 56 3d 0e eb ec 3e 0d 56 22 3d ff 96 e6 be
       0.05237104 0.46273082 0.039632846 -0.45037076
0000a0 82 60 03 3f b8 2e 31 be 2d fd 72 3e 93 95 cf 3e
       0.51319134 -0.17302978 0.23729391 0.40543804
0000b0 7d 68 6b 3e 43 ac ad bd f7 bb 12 3e 74 dc 6a 3c
       0.22989078 -0.08480122 0.14329515 0.014334787
0000c0 b9 ec b7 3e b7 10 41 3e 01 fc 29 3e fd 3b 10 3e
       0.35922793 0.18854032 0.16600038 0.14085384
0000d0 7f f8 a4 bd 64 a8 4c 3d aa d0 01 bd 15 9f 27 bd
       -0.08055209 0.049965277 -0.03169314 -0.040923197
0000e0 60 73 b4 3c fc f2 25 3d bf f1 06 ba 20 54 5a be
       0.022027671 0.04051493 -0.00051477173 -0.21321154
0000f0 2d d2 d0 bc b1 23 cc be 58 48 a4 be 62 b1 5f bd
       -0.025490845 -0.3987098 -0.32086444 -0.054612525
000100 1f 1c 14 3d 1b 2e 02 3f 3b e4 65 be 5d 39 1e 3d
       0.03615963 0.508516 -0.22450344 0.038628925
000110 54 36 56 3e 76 a9 63 bd bc bb 9c be a7 39 3a 3d
       0.20919162 -0.055581532 -0.3061198 0.045465138
000120 80 7e 08 be 23 c5 ce 3e 4b 67 12 be c4 cb 9b bc
       -0.13329506 0.40384778 -0.14297216 -0.019018061
000130 02 15 9b be ae 3b 22 3e 1d dc 0e be b1 5c 06 be
       -0.30289465 0.15843078 -0.13951154 -0.13121296
000140 5e 73 11 bd 35 60 42 be a2 70 42 3e d2 8e c7 3c
       -0.035510413 -0.18982013 0.18988279 0.024360094
000150 9f f1 63 bd 7a 1e 24 be 44 d0 5b be ec 21 1a 3d
       -0.05565035 -0.16027251 -0.21466166 0.037630007
000160 c8 6a 97 3d 4f 86 40 bd 67 f2 a1 be a1 86 a5 bd
       0.07393414 -0.047003087 -0.3163025 -0.08082319
000170 77 b3 2b 3d b0 e6 b8 3e bd 9c ec bd 56 de 38 3e
       0.041919198 0.361135 -0.11553333 0.18053564
000180 af 68 85 3e c9 ea 47 be 3b cb 99 3d 2f 2f fc bc
       0.2605643 -0.19523157 0.07509466 -0.030784218
000190 6e b8 57 3e 15 47 9e 3e 5c ad ed bb 20 04 81 be
       0.21066448 0.30913606 -0.007253332 -0.2519846
0001a0 1b 9e b0 bd b7 66 ab 3e c0 93 bc 3c 9b 94 b8 bc
       -0.08623906 0.33476803 0.023019671 -0.022531798
0001b0 cd 74 9f bd 06 f3 a9 be 6f 5f 32 bd 8e 31 01 bd
       -0.0778595 -0.33193225 -0.043548044 -0.0315414
0001c0 70 62 c5 3d 0c b7 5e be 03 73 9d 3c b1 6c 46 bd
       0.09637916 -0.21749514 0.01921988 -0.0484435
0001d0 80 61 b2 be 8c fd 26 be 36 ba fb 3d 06 52 f3 3d
       -0.34840012 -0.16307658 0.12291376 0.11880879
0001e0 74 ea 09 be c4 37 24 3c d2 7e b5 3d 8c b0 2e be
       -0.13468343 0.010023061 0.0886208 -0.17059535
0001f0 67 df 94 3d f2 2f 5c 3e 10 e9 66 3d 9a ed b8 be
       0.07269173 0.21502665 0.05637461 -0.36118776
000200 f3 b8 ec 3c b1 30 61 bc 27 7e a1 3e b4 51 14 3e
       0.028896784 -0.013744519 0.3154156 0.14484292
000210 26 44 0e 3e 37 fb 72 bc e2 7c 6c 3d 59 00 0a 3d
       0.13893184 -0.014830402 0.057736285 0.033691738
000220 2c e4 a8 bb 6d 4a 26 3e ec ab bd bb 51 4b b4 be
       -0.0051541533 0.16239329 -0.005788317 -0.35213712
000230 16 be 2e 3e 39 9d 21 bf f5 0f fe 3d 90 23 8c 3d
       0.170647 -0.6313053 0.12405387 0.068427205
000240 bb 37 84 bc 07 e7 a8 be ae 83 12 3d e6 41 f2 bd
       -0.016139856 -0.3298876 0.03577011 -0.118289754
000250 10 e5 ab 3c 8d 20 ad be 9b 7e 89 bc 92 1e 99 3d
       0.020983249 -0.33813897 -0.016784003 0.07476534
000260 7c 6e 37 3e f1 8b 87 be 9e 6e 45 3e 6c 18 8a bc
       0.1791324 -0.26473954 0.19280478 -0.016857348
000270 b0 83 36 bd 49 a4 00 bf 12 60 19 be 66 b7 44 bd
       -0.04455918 -0.5025068 -0.14978054 -0.048026465
000280 d6 17 e3 ba a2 1e 92 be 1a c8 1f 3e 66 92 b9 3d
       -0.0017325829 -0.28538996 0.15603676 0.090611264
000290 cd ba 52 3e be 2e 5d 3d 9d 6b a0 bd ec d5 24 3d
       0.20579071 0.053999655 -0.078330256 0.040243074
0002a0 ec b6 af 3e 06 f0 b5 be ee e9 24 3e 68 08 2d bf
       0.34319246 -0.35534686 0.16104862 -0.6759095
0002b0 3e 35 53 bd 4e 1c 28 bd e1 e0 b1 3d c1 fc 45 be
       -0.051564448 -0.04104262 0.0868547 -0.19334699
0002c0 70 93 3e be ea 55 ae bd 7f cd 0d be 6e c9 1f be
       -0.1861093 -0.085124806 -0.13847922 -0.15604183
0002d0 04 cb 39 bf 11 fa ea be 37 a0 8b be 36 d3 12 be
       -0.725754 -0.4589391 -0.27270672 -0.14338383
0002e0 d2 4a 1c be 52 65 f5 3e df fa 01 3e a4 76 28 be
       -0.15262917 0.47928864 0.12693356 -0.16451508
0002f0 24 1a 39 3e 52 bd f7 3d 2d 93 40 3e a2 b6 64 3e
       0.18076378 0.12096657 0.18806143 0.22335294
000300 ca c5 5f be f7 e7 90 be 5e be 13 3f 12 bb ea be
       -0.21852794 -0.28301975 0.5771235 -0.45845848
000310 91 84 b6 3e de 9d 5b be d5 53 cd 3a ea e1 8e be
       0.35648015 -0.2144694 0.0015665243 -0.27906734
000320 5e 07 ad be e5 a7 c5 bc ae 42 6d 3e 58 5a f9 3d
       -0.33794683 -0.02412791 0.23169968 0.12175435
000330 aa e0 bc 3d e2 22 a1 bd 2b bb a1 3e b3 26 85 bc
       0.09222539 -0.078679815 0.3158811 -0.016253805
000340 8b 67 22 bd ef 3b 8c be d1 db ae 3d 8e 47 f4 3d
       -0.039649528 -0.27389476 0.085380204 0.119277105
000350 f6 e3 a1 bd a3 7a 9c 3e 5d 14 1a bc 64 e0 01 bf
       -0.07904808 0.30562314 -0.009404269 -0.5073302
000360 70 26 e3 bc 55 46 a9 3e 08 bd c2 ba 62 e9 8a bc
       -0.02772829 0.33061472 -0.0014857361 -0.016956989
000370 4d 7a 49 3e c6 95 6e 3d 93 23 d7 3b c2 76 81 bd
       0.1967556 0.058248304 0.00656552 -0.063214794
000380 6b 6e bc bd 77 af e8 3d ba 61 3e 3d ca 90 c2 3e
       -0.09200748 0.11361592 0.046479918 0.3800109
000390 bf 0f 24 be 3d e6 8c bd 62 06 86 3e bd b5 e5 bd
       -0.16021632 -0.06879852 0.26176745 -0.112163045
0003a0 53 4a ab 3d ff c4 3b 3e e3 fe 17 3e 40 9e 2d 3d
       0.083637856 0.18336867 0.14843325 0.042387247
0003b0 1f 64 8d 3a c0 84 f1 3c 97 71 f5 3d db 05 a6 be
       0.0010787285 0.029482245 0.11984556 -0.32426342
0003c0 0a 80 56 be cc 74 1c be 5b 1c dd 3e 45 cf 03 be
       -0.2094728 -0.1527893 0.43185696 -0.12872036
0003d0 cf 65 6c be ee d6 ab bc 78 7a 5b 3e 38 10 5d bc
       -0.23085712 -0.02097651 0.21433437 -0.013492636
0003e0 10 ce 4b bd 49 b5 0d 3e 60 60 30 3e 33 f2 36 3e
       -0.049757063 0.13838686 0.17224264 0.17865829
0003f0 c2 51 21 be c3 bf ba 3d 72 53 a5 bd 01 01 4e 3d
       -0.15753844 0.09118607 -0.080725566 0.050293926

actor.2.bias f4 [64]
000000 60 e7 44 3d 99 70 f6 bd 3e f3 4a be 88 72 29 bd
       0.04807222 -0.12033195 -0.19819352 -0.04136899
000010 cf d2 b0 be 85 47 9b 3c 05 1d 0e 3c 0a 90 7c bc
       -0.34535834 0.018955002 0.008673911 -0.015415201
000020 df de 5d bd cd 3f 54 bd 27 45 85 be 23 43 4e be
       -0.054167625 -0.051818658 -0.26029322 -0.20142798
000030 2a 85 f6 bd ca 07 1f bd e8 e5 00 be a2 11 25 be
       -0.12037118 -0.038825788 -0.12587702 -0.16120008
000040 94 e4 ab bd 52 1b 76 be 11 33 79 be 69 4d 83 be
       -0.08393207 -0.2403386 -0.24335887 -0.25644997
000050 b5 b3 2b be 3a 75 a8 bd c5 6f 88 3d d1 35 60 be
       -0.16767772 -0.08225484 0.06661943 -0.2189553
000060 1f b3 a9 be 6a c7 eb bd 30 6d 97 bd 13 bf 67 be
       -0.3314447 -0.115126446 -0.07393873 -0.22631483
000070 aa a3 4a be 91 2a c3 be 1c 7a bc be 95 5f 82 be
       -0.19788995 -0.38118413 -0.36811912 -0.25463548
000080 c6 4e 78 bc 19 f9 8d be 9a 42 c1 bd b9 cf 63 bd
       -0.0151555 -0.2772911 -0.09436531 -0.05561802
000090 da 1c 99 3d a4 09 d1 bd 2e 76 a3 3d c0 9a d9 bd
       0.07476206 -0.10206917 0.07981525 -0.10625219
0000a0 14 b5 af be 7f d3 50 be 5c 5d 20 be ac bd 75 be
       -0.3431784 -0.2039318 -0.15660614 -0.23998135
0000b0 cf f5 1b be 44 b4 24 be b2 37 fc bd 88 50 76 bd
       -0.15230487 -0.16084391 -0.123153105 -0.060135394
0000c0 f1 0d af be 7c 35 bc bd e7 0f 99 3d b6 81 60 bb
       -0.34190324 -0.09189889 0.07473736 -0.0034257001
0000d0 e3 a5 59 be 0e 4d 8a b9 29 e8 66 3d 4c 8b d7 bc
       -0.21254687 -0.0002637882 0.05637375 -0.02631154
0000e0 a4 62 89 be 04 80 4c be 57 a5 cc bd d4 f1 74 be
       -0.2683307 -0.19970709 -0.099924736 -0.23920375
0000f0 ef 43 f6 bb 53 8b 73 be 77 1c db be 72 c1 ed bd
       -0.0075154225 -0.23783617 -0.42795154 -0.116091624

actor.4.weight f4 [32, 64]
000000 c0 22 a1 3d c9 ab bc 3d 73 76 b5 3c 43 cc 5e bd
       0.07867956 0.09212453 0.022151208 -0.054394018
000010 9a ca 88 bd 20 39 12 be b3 71 76 be 50 91 59 be
       -0.06679268 -0.14279604 -0.2406681 -0.21246839
000020 a0 c6 3c be 52 c5 61 3e d4 56 6c 3d d7 e4 1f be
       -0.18435144 0.22047928 0.057699993 -0.15614639
000030 9d ea a4 3e 12 3c 67 be ad ed 60 bc 7b a3 c5 be
       0.32210246 -0.22581509 -0.013728541 -0.38601288
000040 6f 01 54 3e 5f a4 8e 3c 6b 09 55 bc a3 c2 35 be
       0.20703672 0.017412363 -0.013002734 -0.1775003
000050 9e 78 56 3e 31 a9 69 be 98 57 35 3c 69 ae f5 3e
       0.2094445 -0.22818448 0.011068247 0.47984627
000060 f8 f1 4d 3e e0 5c c9 bc a6 a5 b0 bd 75 f2 59 be
       0.20111835 -0.024580419 -0.08625345 -0.21283896
000070 69 5c f6 3a c4 6e 25 be 10 05 b6 3d 75 8d ac be
       0.0018795851 -0.16155535 0.08887684 -0.33701673
000080 2b ce 38 be 34 b9 ba 3d 2d be 46 be 84 af 89 bd
       -0.18047397 0.09117356 -0.19408484 -0.0672293
000090 4f 6a 05 be 5d bb d4 bd 73 b3 b4 bc 14 ca 47 be
       -0.13028835 -0.10387299 -0.022058224 -0.1951068
0000a0 58 38 46 be 3a 12 1e bd 27 5d 9b 3d f2 a7 9f bd
       -0.19357431 -0.0385916 0.07586127 -0.07795705
0000b0 32 3b 64 3d b6 03 cc bd c2 7f 6d 3d 48 5e 09 3e
       0.055720516 -0.09961645 0.057983167 0.13414872
0000c0 97 56 9c bc 12 96 2a 3b 60 65 5d be 64 6a bb 3d
       -0.019084258 0.002602939 -0.21620703 0.09151152
0000d0 30 1e 31 3e 39 53 02 bd a2 51 66 be ba bd 52 3e
       0.17296672 -0.03181765 -0.22492078 0.20580187
0000e0 5c fa 8e 3d 92 70 0f 3e d3 9b 0f 3e 13 db 13 3e
       0.06981346 0.14007786 0.14024286 0.14439039
0000f0 8f 11 1e be 45 a5 bf 3d ff 63 aa bd 05 b0 00 be
       -0.15436386 0.093576945 -0.08319854 -0.12567146
000100 53 05 90 bd e1 52 05 bd 73 da d7 bc 24 82 95 3d
       -0.070322655 -0.032549743 -0.026349282 0.07300213
000110 49 49 83 3e 38 fa 23 3d 8c 9f ee 3d 4f 8f 5a 3d
       0.2564185 0.04003355 0.11651525 0.053359326
000120 da b4 86 bd 8e 14 a6 bd 7d f2 f3 bc c8 b1 16 bd
       -0.065774634 -0.08109389 -0.029778713 -0.03679064
000130 de 38 9f 3e f0 12 2b 3d f9 fe 82 3c 8d be 4f be
       0.31098074 0.041766107 0.015990721 -0.20287533
000140 75 c1 06 be 99 b0 55 3e 55 04 65 bc 6a ea 54 3d
       -0.13159736 0.20868148 -0.013978084 0.051981367
000150 75 0d e0 bc 5a 9e ee 3d c2 98 b9 3d 92 57 e8 3d
       -0.027350167 0.11651297 0.09062339 0.11344828
000160 a9 e7 d1 bd 9e 86 0d 3e d5 1c 62 be 1b 38 ac 3d
       -0.10249264 0.13820884 -0.22081311 0.08409139
000170 f1 d0 38 3e ef 24 94 3d 85 5a 02 bf 9c 74 31 3e
       0.18048455 0.07233607 -0.5091937 0.17329639
000180 aa fc 0d be 57 a8 61 3e 57 85 07 be 19 0f 8b be
       -0.13865915 0.22036873 -0.13234459 -0.27159956
000190 b4 f8 e5 3d 0e 2e 0b 3e 71 23 92 3d fd 80 ee bd
       0.11229077 0.13591787 0.07135666 -0.11645696
0001a0 dc 16 b9 bd 1b a8 20 3e 3e d2 bd bd 9c d0 a9 be
       -0.09037563 0.15689127 -0.09268616 -0.3316697
0001b0 bf 71 d8 bd 5d 21 45 3d 45 70 88 3d 94 38 8d be
       -0.1056857 0.04812752 0.06662039 -0.27582228
0001c0 9d 97 58 3d ac ac 43 bd 0c 3b 07 be 06 59 38 bd
       0.052878965 -0.047772095 -0.13206118 -0.045006774
0001d0 1f 33 9b bd c0 93 e5 bd 21 df a5 3d c1 e0 26 3e
       -0.0757811 -0.11209822 0.08099199 0.16296674
0001e0 d8 36 58 be 00 1a b1 bd df 49 3a bd 46 8d 18 bd
       -0.21114671 -0.08647537 -0.045480605 -0.037244104
0001f0 4c f7 29 3e e5 58 9c bc a8 1c 11 3e 72 57 5f 3d
       0.16598243 -0.019085357 0.14171088 0.054526754
000200 69 5e 11 3d 6b d1 07 be 18 1e 21 be af 52 9a 3d
       0.035490427 -0.1326348 -0.15734136 0.07535302
000210 b3 e7 8a 3e 73 ef 9d be 07 c9 2c 3d ab e1 4c be
       0.27129897 -0.30846748 0.042183902 -0.2000796
000220 08 79 26 3e aa ac 71 3e 58 e0 57 3d 87 ea 57 3e
       0.16257107 0.23601022 0.052704185 0.21085559
000230 c4 71 8b bc 4a 53 ed bc a4 44 0e be 94 23 6d 3d
       -0.017022021 -0.02897038 -0.13893372 0.057895258
000240 7f 6f ab be 94 2e 8b bd 1a 81 d8 3d 46 8b 6a bd
       -0.33483502 -0.067959934 0.10571499 -0.057261728
000250 37 2c 8d bd ca 45 a3 bd 2b 7f 99 bd c6 bc 51 3d
       -0.06893199 -0.079722956 -0.074949585 0.05120542
000260 d9 5c 91 bd d0 c2 5f be 10 8f 7f bd b6 69 20 be
       -0.070977874 -0.21851659 -0.062392294 -0.15665326
000270 d1 86 7f be 4d 48 e7 3c e0 11 c0 3d a7 e9 f7 bc
       -0.24953772 0.028232718 0.093784094 -0.030262781
000280 c3 cd 60 3e 30 53 f3 3d dd 5b 07 3e 0a 5a 9e 3d
       0.21953492 0.11881101 0.13218637 0.07732017
000290 c7 93 25 3e 6c 9f b5 3d e6 a7 9c be 81 23 c1 bd
       0.16169654 0.08868298 -0.30596846 -0.094306
0002a0 b4 a5 f4 3d 4d 61 ba bd 04 bf bf bc 27 9d 8f be
       0.11945668 -0.0910059 -0.023406513 -0.28049585
0002b0 55 ee 37 3e 52 48 e6 3e b0 14 67 be 80 f0 2d be
       0.1796201 0.4497705 -0.22566485 -0.16986275
0002c0 a3 de 8a bd 07 20 c4 bd e7 ba 9a 3d 05 cc 29 be
       -0.06780746 -0.09576421 0.0755518 -0.16581734
0002d0 e2 6b 08 bc c1 85 7d 3d 76 68 25 3d 7a 3a e1 3d
       -0.0083265025 0.061895136 0.040382825 0.10997482
0002e0 52 33 b5 bd 27 9f f4 bd 1f d9 a0 be 3b 6d 03 bd
       -0.08847679 -0.119444184 -0.3141565 -0.032086592
0002f0 6a 07 82 be 6c 99 ef 3e e3 37 6e 3e 70 d9 92 3e
       -0.2539628 0.4679674 0.23263507 0.28681517
000300 17 97 cd bd 86 ef 68 3e 41 a1 61 3b 7e ed 22 3d
       -0.10038584 0.22747621 0.003442839 0.03977727
000310 b4 99 ed bd 73 4b 63 3e 42 22 97 be c0 57 12 be
       -0.11601582 0.2219675 -0.29518324 -0.14291286
000320 66 bd d1 bd b4 86 ea bd 81 03 9f bd 1f 9b a5 bc
       -0.10241203 -0.11451474 -0.0776434 -0.020215569
000330 90 48 18 bb 44 78 2c be 34 b0 95 3a 14 ee 91 3d
       -0.002323661 -0.16842753 0.001142031 0.07125488
000340 ed a8 a2 be 69 06 7f 3c f9 53 34 3d 55 9e 4f be
       -0.31769505 0.015565493 0.044025395 -0.20275243
000350 b0 fc 17 3e d6 5d 35 3a 70 5a de bd 79 59 75 3e
       0.14842486 0.00069185847 -0.10857093 0.23959912
000360 9a 66 82 bc 19 22 ac be 4b a2 0c be 46 1a 90 be
       -0.015918065 -0.33619764 -0.13733785 -0.28145045
000370 55 d5 46 be 3b 70 8a bc d0 97 a0 3e 00 14 b3 bd
       -0.19417317 -0.016899219 0.31365824 -0.08744049
000380 58 81 e5 3a d1 d0 2c 3d 6f cb f5 bb e9 f5 da bc
       0.0017509861 0.04219133 -0.007501058 -0.026728587
000390 db 1b a2 be 50 75 5e be 62 15 d9 3b 8d 60 89 3e
       -0.31661877 -0.21724439 0.0066248635 0.26831475
0003a0 72 98 ee bd c7 8f cb bd 7f 03 30 be 21 33 30 3e
       -0.116501704 -0.09939533 -0.17188834 0.17207004
0003b0 7b bc f3 bc b0 06 65 be 36 92 a6 be 7a 2a e5 bc
       -0.02975296 -0.22365832 -0.32533425 -0.027974356
0003c0 7a 60 5f bc 0a e7 5e 3c 48 d1 f2 3c ac 72 0f 3d
       -0.013633842 0.013604889 0.029640809 0.03502147
0003d0 0d 6a 61 3e d3 b0 88 be aa 60 c0 be de d6 64 3c
       0.22013111 -0.26697406 -0.3757375 0.013967244
0003e0 cd f6 09 3e 2a c3 01 3e ad a8 16 3e 3f 03 20 3d
       0.13473053 0.12672105 0.14712782 0.039065596
0003f0 89 ef c8 bd 53 b6 64 be fa d1 8b 3d c8 1a 09 3e
       -0.09811313 -0.22335176 0.06827159 0.13389122

actor.4.bias f4 [32]
000000 f7 8d 8b bd 76 2e 22 bd fb b8 9e be 02 23 1f be
       -0.06814187 -0.03959509 -0.31000504 -0.15540698
000010 40 f3 29 3c 0c 22 43 be b3 eb 16 bd c1 da 7e be
       0.010372937 -0.19055957 -0.036845874 -0.24888135
000020 55 0a 11 be a6 3d 46 be 4a d9 87 be 68 3a 36 be
       -0.14164098 -0.19359455 -0.26532966 -0.17795718
000030 9c dd 07 bf fd b5 19 bb 91 1a 04 be 54 67 9b be
       -0.53072524 -0.002345442 -0.1290076 -0.3035227
000040 a0 82 d8 3d 3e e4 47 be f2 6b c9 be 4b 9c ac 3c
       0.1057179 -0.19520661 -0.39340168 0.02107062
000050 27 ae b7 3d ce 0e 8b be 30 98 a0 3b a2 c6 be bc
       0.08968764 -0.27159733 0.0049009547 -0.023288075
000060 4f 23 3e 3d b7 bf d0 be 67 46 d2 3d 11 f7 d9 be
       0.04642039 -0.40771267 0.102673344 -0.4257131
000070 4c 87 35 be c0 44 ae be 73 fe 29 3c 1d 1d bc be
       -0.17727393 -0.34036827 0.010375607 -0.36740962

actor.6.weight f4 [8, 32]
000000 a4 e3 9b 3d e1 bf f4 3d 0e 22 88 be 39 c7 bf 3d
       0.076117784 0.119506605 -0.26588482 0.093641706
000010 07 d0 8a 3d 1d 15 b2 bd 40 e2 aa bd 82 e5 49 be
       0.06777959 -0.08695433 -0.08343935 -0.19716457
000020 3a 45 97 bd f9 4a 10 3e 9e c8 75 bd db 95 d4 3d
       -0.07386251 0.140911 -0.060005777 0.10380145
000030 f6 b0 9e be f9 26 4c 3e 84 22 5b bd 0d 85 01 bd
       -0.30994385 0.19936742 -0.053499714 -0.031621028
000040 9a c3 98 3e 99 92 27 be 92 0c d4 bd 3e 91 94 bc
       0.29836732 -0.16364516 -0.1035396 -0.018135663
000050 c8 ca d3 bd b9 41 de bd 86 d3 9b 3e 81 8b 08 be
       -0.10341412 -0.10852379 0.30434817 -0.13334467
000060 8a 4f 13 3e ca 99 7d be 07 ab 38 be 3c 35 39 be
       0.1438581 -0.24765697 -0.18033992 -0.18086714
000070 af 40 20 3e 35 39 80 be be 14 88 3d 76 a9 99 be
       0.15649675 -0.25043646 0.06644581 -0.300121
000080 fb 09 33 be 0c 7f 62 bd 4a 96 ec bc c8 4b b7 bd
       -0.17484276 -0.055296943 -0.028880257 -0.08950001
000090 b2 28 cf 3d c0 5d 65 3d 87 54 c9 bd dc 67 71 3d
       0.10115184 0.05599761 -0.098305754 0.05893694
0000a0 e3 a1 0d 3e 0e 0e 9b bd ff b2 cb bd f3 90 de 3b
       0.13831286 -0.0757104 -0.0994625 0.0067921816
0000b0 4b cb 99 be 26 a9 f1 3c 03 d1 d6 3c 59 6c 43 bd
       -0.30037913 0.029499602 0.026222711 -0.04771075
0000c0 14 e8 8b 3e 4e 82 e6 3d 2e 38 56 be e9 9a 8a 3d
       0.273255 0.112553224 -0.20919868 0.06767828
0000d0 01 d6 84 3e 93 42 a3 3e 0b 79 d2 bd ed 85 34 be
       0.25944522 0.3188673 -0.10276993 -0.17629214
0000e0 69 81 db bd aa ce 1e 3e 18 6b 7b 3d 60 67 84 bd
       -0.107180424 0.15508524 0.06138143 -0.0646503
0000f0 e5 18 80 bb 05 42 75 3e d2 98 fb 3c 2f 11 79 bd
       -0.0039092177 0.23950966 0.030712519 -0.060807403
000100 39 99 95 3d ce fa 13 be 63 18 0e 3e 8c cc a8 3c
       0.073046155 -0.14451143 0.1387649 0.020605348
000110 33 c0 17 3c c4 fe 11 bd d7 f7 0c 3c 20 9b 8a 3d
       0.009262132 -0.035643354 0.0086040115 0.06767869
000120 19 49 6e be c3 c3 7b be 7b da 95 be 1f cd 61 3d
       -0.23270072 -0.24586396 -0.2926825 0.05512726
000130 38 ff 9b bd 92 49 50 be 4f e3 07 3e 51 9f 6b 3c
       -0.076170385 -0.20340565 0.13270305 0.014381246
000140 76 6a e3 bd dd 5a 11 be 76 e0 72 bd b7 39 0a 3f
       -0.1110429 -0.14194818 -0.059296094 0.53994316
000150 e6 93 82 be e6 14 34 bd b7 37 4c bd 50 3f 3b be
       -0.25503463 -0.043965243 -0.04985782 -0.1828587
000160 03 85 a8 bd 44 4c bd 3c 38 23 c9 be 22 e3 53 3d
       -0.08228495 0.023107655 -0.39284682 0.051730283
000170 d9 69 2c 3e 0e bf ce 3c 04 5c 9d be e7 f8 c0 bc
       0.16837253 0.025237586 -0.30734265 -0.023556186
000180 87 a6 85 3d de c9 5c bd 34 96 83 3c 21 1b 38 3e
       0.06525903 -0.053903453 0.016062833 0.17979099
000190 bd c4 26 be 9d b0 d3 bd 01 df ab 3e a3 72 99 3e
       -0.16285987 -0.10336421 0.33568576 0.29970273
0001a0 ca 10 3d 3e b4 2d 39 3d 36 74 67 be 2e 7b e9 3d
       0.18463436 0.0452096 -0.22602925 0.11400448
0001b0 1f 84 48 bd 3d 3e 20 bd 22 93 4f bd fc 3c b5 be
       -0.048954125 -0.039121855 -0.050677426 -0.3539809
0001c0 ac 04 08 3d ee 1e 48 bd f1 ff 0c bc eb be 27 be
       0.03320758 -0.04885762 -0.008605943 -0.16381423
0001d0 6f b6 4b bb 0f d4 1f 3e b8 44 e0 bc b1 5f dd bd
       -0.003108408 0.15608238 -0.027376518 -0.10809267
0001e0 67 58 e1 3c 05 89 da bd b8 b4 cb bd 6d d7 1c be
       0.027507974 -0.10670666 -0.09946579 -0.15316553
0001f0 6a 60 b0 3d 08 48 45 bd 9e a8 61 3d b3 f2 41 3d
       0.086121395 -0.048164397 0.055092447 0.047350597
000200 03 df a4 bd f1 8e 18 3e c5 cd cc 3d ef 70 43 bd
       -0.080503486 0.14898278 0.10000185 -0.047715124
000210 4e df a7 be 9d 56 9b bd 4d 48 95 bd 39 f6 25 3c
       -0.32787555 -0.075848795 -0.07289181 0.010129505
000220 8d fa e9 3d eb a5 12 3e e0 22 6f 3e fd 99 af 3d
       0.11424742 0.14321105 0.23353148 0.08574293
000230 3e 97 27 3e e0 3e f7 bd 8c 4a 90 bd ce 4b 12 3d
       0.16366288 -0.12072539 -0.07045469 0.035716824
000240 a0 42 39 bd 9c 79 67 3e c9 5b b1 bd 56 26 9b be
       -0.045229554 0.22604984 -0.08660085 -0.30302685
000250 e7 48 36 3d 4a 59 b9 3d 08 df 14 be e9 39 f0 3d
       0.04450312 0.09050234 -0.14538205 0.117297955
000260 5b b8 2f 3e 7e 39 9f 3e 61 69 7a be d2 58 f4 3c
       0.1716017 0.3109855 -0.24454261 0.02982751
000270 30 b6 89 bd fb b6 b7 3d d6 88 34 3e 8e 6f 2b 3e
       -0.06724203 0.08970448 0.17630324 0.16741773
000280 73 fa c8 3d a5 af b2 bc f6 81 9e bd 9a 73 46 3e
       0.098133944 -0.02181227 -0.07739632 0.19380036
000290 b2 f9 36 3e 62 de 07 3e e0 32 c4 bd 25 a7 e4 bc
       0.17868689 0.13268426 -0.09580016 -0.027911732
0002a0 5f a3 a0 3d 8b 2b be bd 83 ad 3e be c0 df 6d 3c
       0.078436606 -0.09285649 -0.18620877 0.014518678
0002b0 3b 30 4b be 28 65 c7 3d ec a7 ac 3d 1e 4c e8 3d
       -0.19842617 0.09736091 0.08430466 0.11342643
0002c0 60 10 44 be b0 00 3b 3e 68 40 4e 3e 62 92 3f bd
       -0.19146872 0.18261981 0.20141757 -0.04677046
0002d0 1c 54 48 3e 8f 4c 6e be 27 3e 80 be 63 24 3c be
       0.19563335 -0.23271392 -0.25047418 -0.18373255
0002e0 27 17 23 3d 6c cc 43 3e fc 89 3c bd b2 0d 11 3d
       0.039817 0.1912095 -0.04603003 0.03541345
0002f0 5c e3 cd bc c9 a8 70 3e 66 83 ac 3c 3e a5 99 bd
       -0.025132827 0.23501886 0.02105875 -0.075022206
000300 fe e5 50 3e 9c bb c0 3d fe 5b 72 3e fd 08 43 be
       0.20400235 0.09410784 0.23667905 -0.19046398
000310 d7 70 34 bd ce 8e ca bd d8 4b 3d 3d 07 f9 77 3e
       -0.044052925 -0.09890519 0.04621491 0.2421609
000320 6f 26 97 3d 31 3c 49 be 49 3e 65 3e 49 01 b2 be
       0.073803775 -0.19651867 0.22387041 -0.34766605
000330 04 05 1a bd 17 7a a7 be 16 ce c0 3e 9a 73 4f 3d
       -0.03760244 -0.32710335 0.3765723 0.050647356
000340 aa 65 ab 3d e0 fb 81 bd c5 02 be 3a 61 ba ea bc
       0.08369 -0.063468695 0.0014496675 -0.028653326
000350 fd 5b 3d be e7 0c 33 3c cc 04 71 bc 16 5d 5c 3e
       -0.18492122 0.010928369 -0.014710616 0.21519884
000360 25 61 e6 3d 9d 1a a3 bd ce ec 8c 3e d1 df af bd
       0.112489976 -0.079640605 0.27524418 -0.085876115
000370 33 54 90 be a4 3e 7f 3e 37 77 19 be 57 de c0 ba
       -0.2818924 0.24926239 -0.14986883 -0.00147147
000380 18 1f 27 3d d3 2d 57 bd 21 5e 4b 3e 41 3a 71 3d
       0.040801138 -0.052533936 0.19860126 0.058893446
000390 ae 0c 4c 3e 75 f8 be bd 39 56 da bd 8d 77 0d be
       0.19926712 -0.09324733 -0.10660977 -0.13815136
0003a0 21 cc 21 bd 82 0c 87 3e 28 f2 8b bc 73 05 00 bd
       -0.039501313 0.2637673 -0.017083243 -0.031255197
0003b0 82 b1 af 3c a6 c3 25 be ae ea 5b bd e8 55 a5 be
       0.021446947 -0.16187915 -0.053690605 -0.32292104
0003c0 75 91 28 3d 29 a5 e5 3a 62 03 d3 3d e7 f2 c9 bd
       0.041154344 0.0017520535 0.103033796 -0.09860783
0003d0 e2 f0 73 3e 51 52 9f 3d 7c 4e 2c be 98 9e 59 bd
       0.23822358 0.077793725 -0.16826814 -0.053129762
0003e0 c6 94 14 3e 47 fa 05 3d 00 03 8e 3c 3c 62 45 bc
       0.14509878 0.032709386 0.017335415 -0.012047347
0003f0 38 9e d7 bd 88 37 ba bd a2 4d 28 bd 0f ce 70 be
       -0.10528225 -0.09092623 -0.04108966 -0.23516105

actor.6.bias f4 [8]
000000 a1 5b 8f 3e bb a9 97 3c 43 56 47 be 1a 41 50 3e
       0.27999595 0.018513551 -0.194665 0.20337334
000010 da 38 9a be dc 17 3a 3d 93 b7 a4 3b cb 13 b4 3e
       -0.301215 0.04543291 0.0050267666 0.3517135

critic.0.weight f4 [128, 33]
000000 23 81 98 3e c5 07 c7 3e 1a f4 e9 3e 34 a3 7f 3c
       0.29786023 0.38873115 0.45694047 0.0156028755
000010 3b b8 87 be fc 28 10 3f b9 18 76 3d f5 3d 48 bf
       -0.26507744 0.5631254 0.06008217 -0.7821954
000020 3c a9 ec 3e 8a 0f 61 3f 33 2b cf bc 47 97 6b be
       0.46222866 0.87914336 -0.025289154 -0.23006926
000030 c3 bf e9 be e7 1b 93 3e 2f f5 6f 3f 88 c7 5c 3f
       -0.45654115 0.28732225 0.93733495 0.8624196
000040 c8 04 6f be 91 cd 4d 3e fc 72 ba 3e 5e d9 40 be
       -0.23341668 0.20097949 0.3641585 -0.18832919
000050 ac 80 db bc 85 47 46 bd 29 32 a6 b9 47 86 84 3d
       -0.026794754 -0.04840805 -0.0003169936 0.06470924
000060 bf a9 b1 bd f8 8d 3c bc e1 74 19 3d 12 e8 8c 3d
       -0.086749546 -0.011508457 0.03746498 0.068802014
000070 bb 6a 07 3c da 31 63 bc bc 12 dd 3d fa 00 81 be
       0.008265193 -0.013866866 0.10794589 -0.25196058
000080 80 da 3a 40 88 cc b6 3e 79 86 a4 3e 21 f6 3e 3e
       2.9195862 0.3570292 0.32133844 0.18648578
000090 60 ed 20 be e8 d8 67 be 40 27 57 3f cf 67 78 3e
       -0.15715551 -0.22641337 0.84044266 0.2425835
0000a0 1b 56 52 be 92 7a ea 3e d4 cc 5f 3f 23 8c 9f be
       -0.20540659 0.4579664 0.8742192 -0.31161603
0000b0 93 9a fd 3e e7 32 d4 3e e4 6d f1 be f1 e0 ad 3d
       0.49531993 0.41445085 -0.47154152 0.0849017
0000c0 3a 54 1d 40 e5 71 81 bf 01 48 c2 bd bd 3b d5 be
       2.4582658 -1.0112883 -0.0948639 -0.4164714
0000d0 c6 23 65 3f 56 6c 29 3f 90 f4 4a be 24 e4 04 3d
       0.8950771 0.6618093 -0.19819856 0.032444134
0000e0 5d c5 a2 3d b0 c7 76 bd d3 48 14 be cc 13 72 3d
       0.079478 -0.06024903 -0.14480905 0.05910091
0000f0 86 df 20 3d 25 ab d5 3d 05 2b 24 3d 09 f9 4b 3e
       0.03927567 0.10433034 0.04008009 0.19919218
000100 d0 04 7a 3e f7 df e7 bf 80 3b 87 3e ba 20 e4 bd
       0.24415898 -1.8115224 0.26412582 -0.111390546
000110 17 8f 9d 3e e5 a2 97 be 24 83 d8 bc de 63 d1 be
       0.3077323 -0.29616466 -0.02642972 -0.40896505
000120 64 ae 43 bf 67 e6 e2 3e b5 19 6a be 78 62 d4 be
       -0.76437974 0.44316408 -0.22861369 -0.41481376
000130 d7 41 26 3e 63 b2 21 3e 79 ba ee bd ec 89 bd 3e
       0.16236053 0.15790705 -0.116566606 0.3701929
000140 ad f1 9c 3e 0e fe 1d c0 51 8d 8e 3f 86 39 56 bc
       0.30653134 -2.4686313 1.1136876 -0.013075238
000150 e7 a5 ba 3e e8 1d 4e bf 4f fa 9a 3f fe 6b c7 3e
       0.36454698 -0.80514383 1.2107638 0.3894958
000160 72 b5 b5 bb 91 6f 9f bd 0b a2 8a bd d3 4e 98 3d
       -0.0055453116 -0.077849515 -0.067691885 0.074369095
000170 1a 04 9a 3d 60 3b 96 be 5f 56 a0 be 36 26 24 3e
       0.075203136 -0.29342175 -0.31315896 0.16030201
000180 e3 47 8b be 0d b0 5b 3e 9a 7d 43 3e 62 b8 2c bd
       -0.27203283 0.21453877 0.19090882 -0.04216803
000190 4d 61 2a 3f a5 78 1e 3d ec c4 e3 be 8e 66 77 be
       0.6655472 0.038689274 -0.44486177 -0.24160215
0001a0 eb 7e 75 3d 03 dd bb 3e 33 45 91 3f 4c bd ba be
       0.05993549 0.36692056 1.1349243 -0.36472547
0001b0 f8 64 c9 bd ab da 55 bf da 2f 2a 3f 4f f6 0b bf
       -0.098337114 -0.83536786 0.66479266 -0.5467271
0001c0 91 4a cd 3e e8 ae 4a 3e a1 79 5f 3f bd fb 4c bf
       0.40095952 0.19793284 0.87294966 -0.8007162
0001d0 ac 78 47 3e 76 fd 2f 3f bc 82 94 bc 99 e7 8a be
       0.19479626 0.68746126 -0.018128745 -0.2712982
0001e0 99 01 e5 bc 8f 7c 39 3d 6e 68 28 3e 01 a5 bd 3d
       -0.027954863 0.045284804 0.16446087 0.092599876
0001f0 5b 0f 53 3e b8 83 f5 3c dd 1a 4d bc c5 8e 52 bd
       0.20611326 0.029970035 -0.012518612 -0.051405687
000200 1b 5b 8f 3e 81 86 a7 3e 8b 29 1f be 62 f1 47 3f
       0.27999195 0.32719806 -0.15543191 0.78102696
000210 5e 87 fd 3d 50 13 d3 bd f8 ed 72 3d 0b 67 3d bf
       0.12379335 -0.10306418 0.059308976 -0.73985356
000220 1c 2d 24 be 80 3a 1c 3d 6f aa 08 bf 30 dc 23 bf
       -0.16032833 0.038141727 -0.5338506 -0.64007854
000230 97 bd bc bd 61 b9 26 3c 61 56 d8 3e 31 19 a7 3c
       -0.09215849 0.010176034 0.42253402 0.020397754
000240 5e 2b 6f bd 28 2e 52 3e 4d 96 9a be e2 bc 47 be
       -0.058390968 0.2052542 -0.30192795 -0.19505647
000250 33 9e 02 3e aa 33 11 3d 9a 83 2d 3e fe f3 27 be
       0.1275566 0.03544966 0.16944733 -0.1640167
000260 3b 97 38 3e 93 ed bb bd 07 fc d6 3d 8d 44 97 bc
       0.1802644 -0.09176173 0.10497289 -0.018465305
000270 27 51 28 3d 20 3a 4c bc e0 9b 2b 3d ac d3 b1 bd
       0.041093018 -0.01246503 0.0418967 -0.08682951
000280 83 69 f6 3b a6 47 6e bd e3 08 03 3f c3 2b b3 3d
       0.007519902 -0.058173798 0.51185435 0.08748581
000290 0f 79 95 bd 26 13 c6 be 44 dc 6f be 0d 78 5a be
       -0.07298481 -0.38686484 -0.23423868 -0.21334858
0002a0 8d 66 21 bf 13 e0 58 bd 53 6a 0f bf ec 71 48 3d
       -0.63047105 -0.05294807 -0.5602161 0.04893677
0002b0 bc c7 cd be 4d ce b4 3e a5 1e 42 3e 21 cb 5b 3e
       -0.40191448 0.35313645 0.18957002 0.21464206
0002c0 d0 67 3d 3f 85 7c 4c be ed dd cb 3c c1 d9 db be
       0.7398653 -0.19969375 0.024886096 -0.4293957
0002d0 86 16 37 bf ce d4 10 bd 54 f3 94 3c da 37 87 be
       -0.71518743 -0.035359196 0.018182434 -0.264098
0002e0 e0 b0 cb 3e c3 b9 70 3b 2f bf 92 3b 18 8a 90 3c
       0.39783382 0.0036731816 0.0044783573 0.017643973
0002f0 85 16 84 3d 12 28 4b 3d 84 bc ef 3c 7d 59 93 bd
       0.06449608 0.04959876 0.029264696 -0.07194803
000300 07 43 00 3a 1f 91 cc 3c 8a fd 01 3d 3f 84 d0 3e
       0.00048928004 0.024971543 0.031735934 0.40725896
000310 b1 5e 65 be 04 42 8e bd ba 56 de 3d 6d ee b8 be
       -0.22399403 -0.06946185 0.108563855 -0.36119404
000320 1f 92 87 be 0e d8 05 bf 09 b7 52 be 9d c4 a4 be
       -0.2647867 -0.522828 -0.20577635 -0.32181254
000330 88 ee 93 be 6c 3a 3a be 4a 7a 34 3e 83 ea 58 be
       -0.28892922 -0.18186349 0.17624775 -0.21183209
000340 b3 93 d4 3e df 6e 12 3f c9 f1 55 be a5 94 e2 be
       0.41518936 0.57200426 -0.20893015 -0.44254032
000350 29 5d 61 be 4b c3 87 bf 80 e0 68 3f 71 4e 0e bd
       -0.22008194 -1.0606474 0.9096756 -0.034742776
000360 26 30 be bd 6c 8f 4e 3e 97 f1 75 3e 99 22 b1 3c
       -0.09286527 0.20171899 0.2401794 0.021622943
000370 02 f6 eb bd 80 b6 d1 bb ba 21 74 bd 0e a0 38 3d
       -0.11521532 -0.0063999295 -0.059602477 0.045074515
000380 d4 7f c1 3c be dc d1 3d 0e 37 83 bc 71 36 71 3c
       0.023620524 0.10247181 -0.016017463 0.0147224525
000390 54 9e ac be 7f 5f 5e be bb a1 bb 3d a8 0c 98 be
       -0.33714545 -0.21716116 0.09161707 -0.29697156
0003a0 5b 63 90 3e 37 1a d0 be 29 70 4e 3f 03 7e ff 3e
       0.28200802 -0.40645 0.8063989 0.49900827
0003b0 87 b8 b2 3f 03 36 d4 3e 2e 4f 14 bf 10 62 88 3c
       1.3962563 0.41447458 -0.5793332 0.016648322
0003c0 11 46 ba be 4a 08 96 be 04 ec 48 bf 76 64 37 bf
       -0.3638158 -0.293032 -0.7848513 -0.71637666
0003d0 c2 1f 4c 3e ed f8 4e 3e 5a 18 09 3e b3 19 06 bf
       0.1993399 0.20212145 0.13388196 -0.52382964
0003e0 e2 ca c6 be 54 bb 2a bd 10 2f 42 bf 93 7b c6 3d
       -0.38826662 -0.041682556 -0.7585306 0.09691539
0003f0 60 12 80 bb a3 72 a7 bd 04 42 c5 bd b9 ce 9e 3d
       -0.0039084405 -0.08176162 -0.09631732 0.07754273

critic.0.bias f4 [128]
000000 03 9b d7 be 3f 7f f4 be c4 b6 bd 3d 77 98 10 be
       -0.42110452 -0.4775333 0.092633754 -0.1412066
000010 7f 8e ff 3e dc 88 a5 be 44 76 4f 3e ad de 8c be
       0.49913403 -0.32330978 0.20259959 -0.27513638
000020 f2 02 9e 3e d2 37 c1 be 3e 26 3d 3e 33 9c d6 3d
       0.30861622 -0.377379 0.1847162 0.104790114
000030 03 7e b8 bb d8 ac a7 be df 95 40 be 2e a3 e8 be
       -0.005630256 -0.32749057 -0.18807171 -0.45436996
000040 77 9f a7 3e ad 29 69 bd d1 d7 4b be 19 b7 bd 3e
       0.3273885 -0.05692451 -0.19906546 0.37053755
000050 a4 b5 e1 3e 8c f9 47 3e 0e 21 af 3d a1 28 bc be
       0.44083893 0.19528788 0.085512266 -0.36749747
000060 7b 74 d5 bd d5 d8 ff 3e 9b 2d 9b bd 7c bc 93 be
       -0.104226075 0.49970117 -0.07577058 -0.2885474
000070 26 9a b9 bd 62 90 ef bd 37 6c d9 3e ce da a9 be
       -0.090626046 -0.11697461 0.42465374 -0.33174747
000080 2b f3 ab be 59 a2 9c be 36 e7 d3 be 1e 1b 1e be
       -0.3358396 -0.3059261 -0.41387337 -0.15440032
000090 5b 5b c9 3e f1 f3 6f 3c 1c 39 38 3d e7 df 09 3e
       0.3932751 0.0146455625 0.04497634 0.13464318
0000a0 bc dc 1e 3e ea 48 ea be 6e c2 98 be bf 8b 94 3e
       0.15513891 -0.45758754 -0.29835838 0.29012868
0000b0 da 9a c6 3e 3e d5 47 3d 35 e0 c7 3d 94 c5 b7 be
       0.38790017 0.048787348 0.09759561 -0.35892928
0000c0 43 9e 38 3c 52 d9 2b be f2 f4 8a 3e 88 c7 d0 bd
       0.011268201 -0.1678212 0.27140003 -0.101943076
0000d0 81 d3 33 3d 7b d6 19 bf 6d 03 e4 3d 36 f9 ee bd
       0.043902878 -0.60092896 0.11133466 -0.11668627
0000e0 2a 97 99 3e 61 2e 04 bf 98 24 e2 3c 3b 59 12 be
       0.29998142 -0.5163327 0.02760534 -0.14291851
0000f0 fe 92 8d 3e 67 93 f4 be 2f 39 ac be b5 93 bf 3e
       0.2765121 -0.4776871 -0.33637378 0.3741738
000100 79 2c b7 3d 3c eb 5d 3e fe 75 51 bd d9 a5 05 bf
       0.08944029 0.21671766 -0.051137917 -0.5220619
000110 cd b3 ea 3b 71 c9 40 3d d6 8e 0a be ee 18 a4 3d
       0.007162547 0.04706711 -0.1353105 0.080125675
000120 aa 53 18 bf 13 8f 78 be eb 56 bc 3e 0d 72 83 be
       -0.5950266 -0.24273328 0.36785063 -0.2567295
000130 d8 9c 4e be d8 e2 a3 be bb e9 16 bf 33 15 da 3e
       -0.20177019 -0.32009006 -0.58950394 0.425943
000140 90 ed af be e4 76 95 bd 2a 37 20 bc c6 ba a0 3e
       -0.34360933 -0.07298067 -0.009778777 0.31392497
000150 27 1f 53 3e 36 82 3a 3d 6b ab a9 be 54 bc 99 3e
       0.20617352 0.045534335 -0.33138594 0.30026495
000160 c4 1a db 3e 8b c2 9c be 3c 2f 3f 3e bd 6a 0f be
       0.42793858 -0.30617175 0.18670362 -0.14005561
000170 cd 64 27 3e a1 1d 8c be 3f b7 d6 3c 26 60 54 bd
       0.16347046 -0.27366355 0.026210425 -0.051849507
000180 4c 75 d3 be b0 19 c5 3e 26 27 5f be e0 81 db 3e
       -0.41300428 0.3849616 -0.21792278 0.42872524
000190 23 f2 f8 3d 02 c7 f1 3e 7f 27 de 3e ea db f8 3e
       0.12155559 0.47222143 0.43389508 0.4860528
0001a0 50 45 45 bd aa 7c 5c 3e 36 8d 3b 3e c7 3d 7a 3e
       -0.048161805 0.2153193 0.18315586 0.24437629
0001b0 79 ef 8f 3e 22 0b c3 3d b3 c8 b7 3e 7d b1 9f 3d
       0.2811239 0.09523608 0.3589531 0.07797525
0001c0 78 e9 89 3e 66 dc 76 be 2b c9 1b 3a 59 ca 4b 3d
       0.26935935 -0.24107513 0.0005942757 0.04975352
0001d0 b3 3b 38 3e bd 2a c5 3c ef 07 b4 bd 49 40 b9 be
       0.17991523 0.02406823 -0.08790576 -0.36181858
0001e0 c2 6a 0e 3d 1b 78 ab 3d c5 44 6d 3e 22 aa ac be
       0.03476978 0.08372518 0.23170765 -0.3372355
0001f0 7d 02 25 3e 69 12 4e be d9 64 fc 3d 5f c1 a7 3e
       0.1611423 -0.2012421 0.12323923 0.32764718
